2D Discrete/d2qn_8x8.pt (torch, 36882 bytes, 6 tensors)

fc1.weight f4 [64, 64]
000000 56 ad b5 bd 1f 1c 19 be d9 66 17 be ae c7 08 be
       -0.08870952 -0.14952134 -0.14785327 -0.13357422
000010 e4 15 34 bd 3d c1 08 3d 94 87 20 3c c5 8d 64 3c
       -0.04396619 0.03338741 0.009797949 0.013949816
000020 a1 d6 03 be 36 f6 16 be b0 ae 8e 3c 2c 77 2f 3d
       -0.12874843 -0.1474236 0.017417282 0.04283826
000030 20 b2 f4 bd 1c a4 63 bd 91 b9 05 3d 0e df 07 be
       -0.11948037 -0.05557643 0.032647673 -0.13268682
000040 ec 16 78 bd ff c5 93 bd f3 ea 00 be 18 9e fb bd
       -0.060568735 -0.07215499 -0.12589626 -0.12286013
000050 6a 3a 87 bd 6d 99 01 be 38 9b 18 be 64 ab 14 3e
       -0.066029385 -0.12656184 -0.14902961 0.14518505
000060 73 a3 0a be 73 bc b5 bc 0c 85 24 3d b4 f2 6f 3d
       -0.13538913 -0.022184586 0.040165946 0.05858107
000070 2c 8c 34 bd e8 a3 ba 3d 5e 4a 51 3c b4 dd bc 3d
       -0.04407899 0.09113294 0.012774078 0.09221974
000080 dd f8 90 bd 0b b4 09 bc ef a6 c3 bd e4 cb 60 3d
       -0.07078717 -0.008404742 -0.095533244 0.054881945
000090 cd 1a 74 bd 3a 1f f7 3d 80 a3 68 3e 6c 85 45 3e
       -0.05959587 0.12066503 0.2271862 0.19289178
0000a0 0c 2e 28 bd 06 9a cf 3a 18 3f ee bd e8 17 4a 3d
       -0.04105954 0.0015838749 -0.11633128 0.049339205
0000b0 f8 53 07 3d d6 cb e3 bd 95 ce 07 3e 4d 69 0c 3e
       0.033039063 -0.11122863 0.13262399 0.13712044
0000c0 f8 c2 87 bb 94 af 73 3c 3d 24 18 be d4 c0 61 3d
       -0.004143115 0.014873404 -0.14857574 0.055115536
0000d0 07 e9 16 be 42 fa 47 3d 5b 57 15 be af 86 89 3e
       -0.1473733 0.04882265 -0.14584105 0.26860568
0000e0 70 83 cc 3c ca d8 4e 3e c1 11 dc 3d 99 70 0c 3e
       0.024965018 0.20199886 0.10745574 0.13714828
0000f0 59 fa b0 3d 91 b1 71 3e 01 98 81 3e 76 16 8b 3d
       0.086415 0.23602892 0.25311282 0.067913935
000100 38 e6 49 be c4 08 09 bc 0b c6 53 be a7 5f 55 be
       -0.19716728 -0.008363906 -0.20681016 -0.2083727
000110 f9 d8 54 be 85 cb 13 be 7a 5b 9b 3d c4 9f a1 3c
       -0.20785893 -0.14433105 0.07585807 0.019729502
000120 b4 2c e2 bd 0c 6b 35 be 9a 22 9a bd 6e 67 d3 3d
       -0.11043683 -0.17716616 -0.07526131 0.10322462
000130 a8 20 b7 3d dc 27 c1 bd a8 3d 2b bd 4b 0f 54 3d
       0.089417756 -0.09431431 -0.041806847 0.051772397
000140 ec 84 62 bd 8c a4 48 be d2 15 52 be 52 a7 52 be
       -0.055302545 -0.1959402 -0.20516136 -0.2057164
000150 d8 c4 48 be 8e 11 96 bc 38 68 2b 3e 52 6a 20 bd
       -0.1960634 -0.018318918 0.16738975 -0.039163895
000160 16 5e a7 bd af d8 4c be 30 8e 3e bd 50 81 69 3d
       -0.08172242 -0.20004533 -0.04652232 0.057008088
000170 a0 e6 cd 3c 38 41 f0 bd 96 ca df 3d e4 5c 81 3e
       0.025134385 -0.117311895 0.10927312 0.25266182
000180 8b 65 02 be 70 5a 3e bc 1d 45 cd bd 80 d4 c8 bd
       -0.12734048 -0.011618242 -0.10022948 -0.09806156
000190 e1 44 51 bd 3a 7d 61 3b 53 37 7b 3e fc 1f 7a 3e
       -0.05109108 0.0034406916 0.24532823 0.24426264
0001a0 5d ec 44 bb 1a ed 8a 3d 9a 7a ae 3d 38 e9 f8 3d
       -0.003004811 0.06783505 0.08519478 0.12153858
0001b0 cc f3 c6 bd 06 65 c0 bd ef da e7 bc 1f 4b 85 3e
       -0.09714469 -0.09394269 -0.028302638 0.26033875
0001c0 53 24 c8 bb 7e 7f 85 3d dc ea f4 3c 6f 7a bc bd
       -0.006107846 0.06518458 0.029897146 -0.0920304
0001d0 6a f6 df 3d 48 a6 f2 3d a6 fa ff 3d 57 da 8f 3e
       0.10935672 0.11848122 0.12498979 0.28096268
0001e0 3b 9f 41 3d a7 5c 66 3e 01 b2 00 3d 94 f3 63 3e
       0.047270995 0.22496282 0.031419758 0.22260886
0001f0 18 24 b5 3e 68 85 47 3e 6b aa a4 3e e0 65 35 bd
       0.353791 0.19484484 0.3216127 -0.04428661
000200 d0 82 6e bd e8 a4 4f bd 3a d0 23 3e 44 7b 5d 3e
       -0.05823022 -0.050694376 0.15997401 0.21629053
000210 d9 8e 29 3e e8 54 70 bd 98 f6 32 3d 1e 5f c2 bc
       0.16558398 -0.058674723 0.0436922 -0.023726996
000220 d0 ef 95 bd 9d 07 45 bd c8 42 a7 3d 00 a0 37 bb
       -0.07321131 -0.048102964 0.081670344 -0.0028018951
000230 70 f9 33 bc d0 5f 65 bd 16 fb 8c bd 00 9e 8c bd
       -0.0109847635 -0.055999577 -0.06883828 -0.068660736
000240 04 0e a3 bd bb 3c 72 bd 84 9f d9 bd 97 96 30 3e
       -0.07961658 -0.05913995 -0.10626128 0.17244945
000250 04 2b 8b bd 09 9e 4d 3e 18 5d dc 3c 1a 97 d7 bc
       -0.06795314 0.20079817 0.02689986 -0.026317168
000260 ed 6a d1 bc d2 32 eb bd fa 66 a7 3d ec 82 f7 3d
       -0.025563681 -0.114843026 0.08173938 0.12085518
000270 00 a8 a4 3d 30 7b 31 3d 01 88 00 bd 0b b8 c3 bc
       0.08039856 0.04333037 -0.031379703 -0.02389147
000280 ec aa ac bd e3 56 f1 bc d4 4e 09 3e 14 2c ee bd
       -0.08431038 -0.029460376 0.13408977 -0.11629501
000290 a7 a6 d4 bc 76 74 dc bd 72 16 32 3d 38 e9 8b bd
       -0.025958372 -0.10764401 0.043478437 -0.06831592
0002a0 82 e2 a8 3c ac a2 6a bd 48 58 90 bd 3c f7 01 3d
       0.02061582 -0.057284042 -0.07048088 0.03172992
0002b0 dc c3 dd 3d 54 d4 60 bd ea 6c 14 bd 5b ca 88 bd
       0.10828373 -0.054889992 -0.03623668 -0.06679221
0002c0 fe 6e 57 bd 64 45 94 bd b9 3c e7 bc b1 02 62 bd
       -0.052596085 -0.07239798 -0.028227197 -0.055178348
0002d0 0f 07 4d bd 41 f2 68 bd 36 db 75 bd 00 cc ab bd
       -0.05005556 -0.056871656 -0.06002351 -0.08388519
0002e0 b0 1a 71 bd 48 b4 ef 3d 3e 1a 32 3e 14 c9 72 bd
       -0.05886334 0.11704308 0.17392823 -0.059273794
0002f0 44 cb 70 bd 78 39 81 3e f5 0e 41 3e f8 a6 9a bd
       -0.0587876 0.25239158 0.18853362 -0.07551378
000300 9c 18 1a bd 6c 78 75 bd f8 77 cf bc 64 8d c0 bd
       -0.037621126 -0.059929296 -0.02532576 -0.09401968
000310 0e f4 d7 bc 24 d1 fb bd c5 0a 72 3c b4 7e 14 3e
       -0.026361492 -0.1229575 0.0147730755 0.14501458
000320 eb 67 cb bc 0a 78 cb 3e 12 0f c3 bd 1c f6 d0 3d
       -0.024829825 0.3974002 -0.09524359 0.10203192
000330 00 f0 98 3c b2 44 d8 3d 56 9b 21 3b d8 65 e3 bd
       0.018669128 0.105599776 0.0024659238 -0.111034095
000340 ba 4c bb bc 14 1e 5f 3d d2 11 17 bd 38 6d c4 bc
       -0.022863735 0.054472044 -0.03688223 -0.02397786
000350 be b2 43 bc 28 73 a9 bc 67 20 bb 3c dc 37 19 bd
       -0.011944471 -0.020684794 0.0228426 -0.037406787
000360 11 fc 1e 3d bf ad cd 3e 94 51 e9 bd f0 0d e5 3d
       0.038814608 0.4017162 -0.11392513 0.11184299
000370 f0 14 f3 bd 20 87 06 bc 9e 63 a2 bd 20 74 cd 3b
       -0.11869228 -0.008210927 -0.07929157 0.0062699467
000380 dd 6f 3e 3d c8 e1 f7 bc 15 54 89 3c 3a e5 d2 bd
       0.0464934 -0.030259028 0.016763726 -0.10297628
000390 cd f4 41 3d a9 7c 7b 3d f0 16 02 3c e7 79 55 3e
       0.0473526 0.061398182 0.007940039 0.20847283
0003a0 10 47 37 bb 62 b7 03 3f bc fb 12 bd 44 38 16 bd
       -0.002796594 0.51451695 -0.035884604 -0.036674753
0003b0 64 4f e8 3d 06 7f b1 bd d0 28 8b bc e1 2a 56 3e
       0.113432676 -0.08666806 -0.016987234 0.20914795
0003c0 d0 74 56 bd 03 56 0d 3d c6 8a 8c bd cd 9a 0a 3e
       -0.052357495 0.034505855 -0.068624064 0.13535614
0003d0 1e 33 19 3d ba 91 06 3e 00 58 f0 39 28 f1 f4 bc
       0.037402265 0.13141528 0.00045841932 -0.029900149
0003e0 88 35 29 bd e3 ea 1a 3d 18 a5 f3 bd 96 65 94 bd
       -0.041310817 0.03782166 -0.118967235 -0.072459385
0003f0 d0 b0 a9 3b 3d c9 7a 3c 65 62 f6 3c 12 44 fd bd
       0.0051785484 0.015306768 0.030076215 -0.12366499

fc1.bias f4 [64]
000000 d4 28 02 3e f8 24 46 3e e9 ae a6 bb 43 67 98 bd
       0.12710887 0.1935004 -0.005086769 -0.074415706
000010 5f 9e 0f be 4a e2 fb bd 67 27 32 be 31 61 83 3d
       -0.14025258 -0.122990206 -0.17397843 0.06415022
000020 c5 cd 2d 3d 3c 15 42 bd e6 f8 64 3e 08 3b ca bd
       0.042432565 -0.047383532 0.22360572 -0.098745406
000030 da 87 11 be f9 cf be 3d 02 6a 15 3e 7f ba 39 bd
       -0.1421198 0.093170114 0.1459122 -0.045343872
000040 7b ee c2 3d 75 7d 2e 3e 00 c3 7e bc 11 81 3c 3e
       0.09518143 0.17040046 -0.015549421 0.1840861
000050 a8 82 cb 3d 43 d1 96 bd 96 64 5b bd 07 cd 91 3d
       0.0993703 -0.07364132 -0.053562723 0.07119184
000060 ce 83 92 3d fc 04 19 be cd d8 a1 3d 12 84 1e 3e
       0.07154046 -0.14943308 0.079026796 0.15480068
000070 8a 46 73 bd 8e a1 18 3e 8e 5d 74 bd e8 41 79 3d
       -0.059393443 0.14905378 -0.059659533 0.06085387
000080 71 86 9a bc 52 df 3d 3e f0 18 c3 bd 40 b0 27 3e
       -0.018862935 0.18542221 -0.09526241 0.16375828
000090 53 c7 b7 bd ce d4 0a be f6 ef 42 3e ce 69 1f bd
       -0.08973565 -0.13557741 0.1903685 -0.038919263
0000a0 32 e6 d8 bd 75 c1 4a 3a ab 7d 46 be 36 d1 1d 3e
       -0.10590781 0.0007734516 -0.19383876 0.15411839
0000b0 49 2d ea 3b de 79 2c bd 6e ac 16 3e 01 ea 90 3d
       0.0071465117 -0.04210841 0.14714214 0.07075883
0000c0 0c 01 f1 bd 36 c5 34 be ec e0 05 be dc 6c 54 3e
       -0.11767778 -0.17653355 -0.13074082 0.20744652
0000d0 cd b7 15 be 21 b9 c9 3d ee 3a 31 3d f4 6b 83 3d
       -0.14620896 0.09849764 0.04326909 0.06417075
0000e0 00 ad 1a 3e e0 60 9c 3a 79 44 eb 3d 5e 04 b7 bd
       0.15105057 0.0011930726 0.114876695 -0.0893638
0000f0 84 98 1a 3d 62 f3 28 3e 9f 5a 82 bd 75 3d 03 3e
       0.037743106 0.16499093 -0.06364941 0.12816413

fc2.weight f4 [64, 64]
000000 5c ab 13 3d 28 90 84 3e e7 83 cf bc 67 61 7c be
       0.036052093 0.25891232 -0.02533145 -0.24646531
000010 56 54 2e 3e 48 3a d9 bd 09 81 03 3d 3a 90 37 3e
       0.17024359 -0.106068194 0.03210548 0.17926112
000020 ca 9e d1 bd 39 36 13 be fa bb 80 3e d7 d1 7d be
       -0.10235365 -0.14376153 0.25143415 -0.24787079
000030 ff 11 e7 bd be c1 30 bd 38 12 00 bc cc 89 e9 3c
       -0.11282729 -0.043153517 -0.007816844 0.02850809
000040 79 4f 0a 3e 96 30 cb bc f7 62 b9 bd f8 35 1e 3e
       0.13506879 -0.024803441 -0.09052079 0.15450275
000050 39 84 07 3e dc 3b 1d be 50 b2 c3 3c 78 75 2c 3d
       0.13234033 -0.15354866 0.023888737 0.042104214
000060 e4 84 d3 bc db b7 78 be 2b 89 27 3e c0 be d3 3d
       -0.025820203 -0.24288885 0.16360919 0.10339117
000070 e2 9f 39 3e 5e 88 33 3e 28 ab 5b bc 48 4f 21 3e
       0.18127397 0.17532489 -0.013407506 0.157529
000080 0d 41 5c be 12 15 ee bd 1a 12 2e ba ea 25 81 3e
       -0.2150919 -0.116251126 -0.00066402706 0.2522424
000090 1f 2d 30 be af bc a8 bd de da 75 b9 71 5a de 3d
       -0.17204712 -0.082391135 -0.00023446555 0.10857094
0000a0 e4 19 26 be f4 5d 16 be 77 fd 0f be 00 d6 93 bc
       -0.16220814 -0.14684278 -0.14061533 -0.01804638
0000b0 05 1b ed 3d 9e 1a f2 bd b4 87 bd 3d 48 5d 06 3d
       0.11577419 -0.11821483 0.09254399 0.032803804
0000c0 5a 97 8f bd d0 2f 25 be 9b 3e bd 3c 52 c5 ff 3d
       -0.0701129 -0.1613152 0.023101142 0.12488808
0000d0 90 c4 73 bd 19 2b b4 bc 1a 1f 81 bd 1b 96 dc 3b
       -0.05951363 -0.021993207 -0.0630476 0.006731761
0000e0 8f 7a 4d 3e 9d 47 24 be f4 1b 01 3e 56 40 df bd
       0.20066284 -0.16042943 0.1260832 -0.10900943
0000f0 d5 f8 1b 3c db ff b0 3c ba 56 02 bc 68 80 c6 3d
       0.009519775 0.021606376 -0.007955248 0.0969246
000100 18 d6 aa 3c d2 e2 94 bd 50 d8 28 bd 34 80 66 3d
       0.020854041 -0.07269825 -0.041221917 0.056274608
000110 1e 00 ba 3d 64 30 92 bd 02 8c df 3d 22 29 89 3d
       0.090820536 -0.07138136 0.10915376 0.066972986
000120 e6 1c 9c bd ca 9b a4 bd c8 4c 20 3d 62 c9 f3 3d
       -0.076226994 -0.08037527 0.039135724 0.11903645
000130 e8 1b fa 3c 18 62 8c bc e0 08 26 bd 3c b3 ec bd
       0.030530885 -0.017136618 -0.040535808 -0.11557624
000140 40 1a 0f 3c dc a3 e9 bd 88 e5 7e 3d 80 d5 85 3c
       0.008734286 -0.11408207 0.062230617 0.016337156
000150 60 1c e4 3c d0 0d 86 3d 34 a0 66 bd 3c 67 3c bd
       0.027845562 0.06545603 -0.056305125 -0.04599689
000160 18 de e6 bd 54 e2 41 3d 3a 32 d4 3d 98 0c 97 3c
       -0.1127283 0.047334984 0.103611425 0.018438622
000170 d4 24 72 3d 78 92 ea 3d f6 bb e4 bd 00 eb 99 3a
       0.059117153 0.11453718 -0.11168663 0.0011743009
000180 80 55 c3 3a ce 26 a8 bd 42 e6 af 3d 38 67 4a 3d
       0.00149028 -0.082105264 0.0858884 0.049414843
000190 2c 0c 67 3d c8 9d cd bd 28 36 b4 bc 80 ac e8 3b
       0.056408092 -0.1003986 -0.02199848 0.0071006417
0001a0 e8 77 8e 3c 80 b2 34 3c 40 13 78 bc ac a9 e8 bd
       0.01739116 0.011028886 -0.015141308 -0.11360487
0001b0 c0 68 1c bd 24 95 10 bd 30 61 66 3c f8 60 e8 bd
       -0.038185835 -0.03529848 0.014061257 -0.1134662
0001c0 e0 34 65 3d ae 36 fb bd 6c 32 6c bd ec dd 5a bd
       0.05595863 -0.12266289 -0.057665274 -0.053434297
0001d0 98 1d 9e 3c 30 5e a4 bc 00 2c fb bd c0 bc c4 bb
       0.01930122 -0.020064443 -0.12264252 -0.006003946
0001e0 d8 c6 cd bd 58 cf e3 3d 5c 19 53 bd ba 30 f3 bd
       -0.10047692 0.11123532 -0.051537856 -0.11874528
0001f0 c8 91 63 bd 28 a9 8e 3d 28 43 88 bd 4c 71 8a 3d
       -0.05555895 0.06965858 -0.06653434 0.06759891
000200 d0 a4 90 3d 2f 43 05 be b2 8d a0 3d d8 cb c3 3c
       0.070626855 -0.1301391 0.07839526 0.023900911
000210 48 7a a5 bd fa 15 a7 3d 70 c7 d6 bc a9 43 bd 3a
       -0.08079964 0.081584886 -0.026218146 0.001443972
000220 f5 c2 6c bd 5c ad e4 bd 69 16 54 bd e6 a8 e9 3d
       -0.057803113 -0.11165878 -0.051779184 0.11409168
000230 aa 3c aa bc 1e 60 4e 3d 10 1e f6 bb e6 30 cc 37
       -0.02078088 0.050384633 -0.007510908 2.4341465e-05
000240 5b 53 ad bd 43 9d df bc 35 94 93 3d d6 e2 8a bd
       -0.084631644 -0.027296668 0.072060026 -0.06781547
000250 f0 05 23 bd 20 ed 11 bd 52 0e a6 3d 96 30 3a 3d
       -0.039800584 -0.03562653 0.081082 0.04545649
000260 a8 a9 f1 bb 14 0f e5 bd 20 c7 5f bc fe 26 86 3d
       -0.007374961 -0.111845165 -0.013658315 0.06550406
000270 a6 e3 b9 bd 56 da 46 3d 62 c4 85 3d 40 d2 2f bd
       -0.090766236 0.048548065 0.06531598 -0.04292512
000280 7a e6 e1 bd 91 a1 67 bc 60 fb 15 3d 2d 9c 9f bc
       -0.11030288 -0.0141376415 0.036616683 -0.01948365
000290 aa 47 dc bd 9c 14 b8 3d 95 a3 1a 3d 00 a4 5b b9
       -0.10755856 0.08988306 0.03775366 -0.00020946562
0002a0 de 10 ec bd a2 2c 38 bd ef 9d 3b 3c 99 0a 33 3d
       -0.11526655 -0.04496444 0.0114512285 0.04371128
0002b0 14 fd 46 3d 98 3b c9 bd cc 2b 1e 3d 95 28 dc 3c
       0.048581198 -0.0982582 0.038615987 0.02687482
0002c0 00 09 59 bb 24 cf 1a bd 04 75 9d 3d b8 0e 41 bd
       -0.0033116937 -0.0377952 0.076883346 -0.047133178
0002d0 fe f9 b2 3d 0f 3f 2e bd 5a a0 82 3d 50 3e 75 bc
       0.087390885 -0.042540606 0.06378241 -0.01496847
0002e0 ec 04 ef bd 04 27 02 3d db 9f 01 be 4b ed d2 bc
       -0.11670861 0.03177549 -0.12658636 -0.025747916
0002f0 9f dc d5 3c 1c 77 19 bd 00 e6 76 3d e4 b5 28 3d
       0.026106177 -0.037467107 0.06027794 0.04118909
000300 84 31 23 be 0f 7e 26 bc 96 96 93 bd 57 ea 03 3e
       -0.15936857 -0.010161891 -0.07206456 0.12882362
000310 48 85 93 be 95 07 9e bd 2f 5f 4e 3e 49 45 0e 3d
       -0.28812623 -0.0771629 0.20153497 0.034734044
000320 aa 30 f0 3d 61 dd d4 bd 8d f5 88 bd 6a 98 62 bd
       0.11728032 -0.10393787 -0.0668746 -0.055321135
000330 fa 7d 43 be b1 b0 f7 bb 71 d8 94 bd df 4a 2d 3e
       -0.19091025 -0.007558905 -0.072678454 0.16923092
000340 1e bd a0 bd 53 15 de bd f5 f3 76 bd a9 a5 d4 3c
       -0.07848571 -0.10843911 -0.06029125 0.0259579
000350 77 6c a6 bd ee 0a ed 3c 43 a9 98 3d 5a f6 60 3d
       -0.08126157 0.028935876 0.07454159 0.05492244
000360 42 b3 bd bc 17 0f 29 3d 3d 7d c9 bd c5 f7 43 bd
       -0.023156766 0.041274156 -0.098383404 -0.047843713
000370 3d cb c8 3d 85 3b 71 3d 08 8f 9d bd f0 b0 1e be
       0.098043896 0.058894653 -0.07693297 -0.15497184
000380 a3 dd cb 3d f1 c3 1e 3e d8 d8 65 3d 98 cf d7 39
       0.09954383 0.15504433 0.056115 0.00041162665
000390 ad 47 59 ba 26 c0 4c 3d aa 69 35 be f8 3b fb 3c
       -0.00082885736 0.049987935 -0.17716089 0.030668244
0003a0 3f 12 26 3d 3e 72 d5 bd 67 56 e2 3d 0d d7 05 bd
       0.040544745 -0.104221806 0.11051636 -0.03267579
0003b0 df c7 37 bc 02 04 d4 bb 40 14 91 bd c2 5b 09 3d
       -0.011217087 -0.0064702043 -0.070839405 0.033534773
0003c0 c8 77 fd 3d 88 06 9d 3d 9b 47 5f bd c0 68 8b bd
       0.12376362 0.07667261 -0.054511648 -0.06807089
0003d0 99 e0 94 bd df 59 fe bd ca 31 38 bd f7 75 0a be
       -0.07269401 -0.12419485 -0.044969358 -0.13521563
0003e0 48 2b 9e bd a7 a8 fa bd 0a 20 61 bd a5 fb 98 bd
       -0.07723099 -0.12239199 -0.054962195 -0.074698724
0003f0 02 7d 21 3d d6 75 20 bd 6c 03 05 bc fd 18 c3 bd
       0.039425857 -0.039174877 -0.008118492 -0.095262505

fc2.bias f4 [64]
000000 65 9a 7a 3d bc 2d 9d bd c3 f5 28 be 0b 48 5e 3d
       0.0611824 -0.07674739 -0.165 0.054267924
000010 76 b1 5d 3e 78 97 82 bd 38 e8 e7 bd ea 00 8a 3d
       0.21649727 -0.063765466 -0.11323589 0.067384556
000020 c4 3c 8e bd d9 b3 bf 38 ca 01 a8 bd ea 7d a8 3c
       -0.06945184 9.141089e-05 -0.08203466 0.020567853
000030 52 3a d6 bd 57 aa a1 bd bb cb 04 3e 6f 39 03 3e
       -0.104603425 -0.07893818 0.12968342 0.12814878
000040 b5 f9 d4 bc 9b b3 e7 3d 81 64 9d bd a4 50 df bd
       -0.025997976 0.11313554 -0.07685185 -0.10904053
000050 94 7a cc bd 37 00 d2 bd 31 d6 0b 3e 74 96 22 3e
       -0.099843174 -0.10253947 0.13655926 0.15877706
000060 9e 11 88 3d 33 d6 dc bd 99 56 c9 bd 8a 74 f6 3a
       0.06643985 -0.10783043 -0.0983097 0.0018803042
000070 14 89 8d 3d fa ff 86 3c 77 b4 03 3e fa b9 18 bd
       0.06910911 0.016479481 0.1286181 -0.037286736
000080 be 62 85 3d 2f ef 68 3d bc b6 3c 3e ce 4e 83 bd
       0.06512974 0.05686873 0.18429083 -0.06411515
000090 0e 1c d9 bc 7c 12 40 bd 45 44 38 3e 24 a2 ed bd
       -0.026502635 -0.046892628 0.17994793 -0.116031915
0000a0 ef 6d 0b be a5 96 b2 bc 42 6b de 3d 0f d8 14 be
       -0.13616155 -0.021800349 0.108603016 -0.14535545
0000b0 c6 75 a1 3d 6f 98 1a 3b 9b 64 18 3e 99 f2 6e 3d
       0.078837916 0.0023589393 0.14882128 0.058336828
0000c0 b4 f2 ca bd fc f0 dd bd 7f 93 b3 3d 7a 53 0f be
       -0.09909573 -0.1083698 0.08768367 -0.13996688
0000d0 0c 47 ea 3d 38 a1 0b 3d b4 53 fb bd 09 e2 81 3d
       0.11439332 0.034089297 -0.122718245 0.06341941
0000e0 88 f2 1a 3e c8 c2 fa bc 22 df 97 bd 38 ea cb bc
       0.15131581 -0.030610457 -0.07415606 -0.024891958
0000f0 6b 22 2c 3d 87 9b f1 bc 6e 36 46 3e e2 43 45 3e
       0.04202501 -0.029493107 0.19356701 0.19264176

out.weight f4 [4, 64]
000000 40 0f 1f 3d 9c ae 7e 3d 48 ae 3f bd d9 85 91 3d
       0.038832903 0.06217824 -0.046797067 0.071056075
000010 55 cd 13 3e a0 e2 7f bc cc 20 20 bd 47 98 c4 be
       0.14433797 -0.015617996 -0.039093778 -0.38397428
000020 30 ca a5 3c 6d 1f f6 bc a4 7e 16 3d f2 7e 28 bc
       0.020238012 -0.030044282 0.036741868 -0.010284172
000030 c8 95 86 3d 54 cc c4 bd e8 bb 38 bd fd ff 32 bd
       0.06571537 -0.09609285 -0.045101076 -0.04370116
000040 d3 6c 7a bd bd a2 22 3d 50 37 19 bd 9c e0 37 bd
       -0.06113894 0.03970598 -0.037406266 -0.04489194
000050 54 dc 12 bc d3 b8 8b 3d d8 85 61 3d 3b 30 08 3e
       -0.008963663 0.06822362 0.055059284 0.13299648
000060 cc f3 bf 3d 1a 8e 5e 3c 90 92 b3 3d cb ef 8f bd
       0.093726724 0.013583684 0.08768189 -0.07028159
000070 b6 b0 c5 3c 79 e8 9a bd 23 22 24 3e 96 f6 93 3d
       0.024132114 -0.07563872 0.16028647 0.07224767
000080 a8 a7 04 3d b0 5f e1 bc 6c ff 58 3d 19 99 e8 bb
       0.032386452 -0.027511448 0.052977964 -0.007098329
000090 46 4d d1 bc 6b 53 e7 3b 4d d4 9e 3d 44 5c 1a 3d
       -0.025549542 0.0070595047 0.07755337 0.037685648
0000a0 25 70 d2 3d 48 3b d7 bc 17 1d 5b 3d 6e 2c b3 3d
       0.10275296 -0.026273385 0.05349454 0.08748709
0000b0 68 5b f2 3d 18 e1 a9 bd 3b 06 a7 3d b5 1d 60 3d
       0.118338406 -0.08294886 0.08155485 0.05471583
0000c0 e0 33 ee 3c 80 73 61 bc 15 a0 cc 3c 7c 6e 25 3c
       0.02907747 -0.0137604475 0.024978677 0.010097142
0000d0 4d f7 e9 3d de c4 73 3d 9c 0f 61 3d c2 82 9c 3d
       0.11424122 0.05951392 0.054946527 0.076421276
0000e0 f5 14 0b 3e 56 6d 96 3d 16 e7 8d 3d 09 d2 8f 3d
       0.13582213 0.07345073 0.06928842 0.07022483
0000f0 29 66 15 3d e2 f0 93 bc f4 68 1c 3e 28 6b 08 3d
       0.03647438 -0.018059198 0.15274411 0.033305317
000100 9c 22 35 3e 00 5f 94 3d df dd e5 bd f3 4e b5 3c
       0.17688984 0.07244682 -0.11223959 0.022132372
000110 8b c8 ab 3d 48 81 df bc e9 25 0f 3d e7 33 6b 3e
       0.0838786 -0.027283326 0.034948263 0.22969018
000120 30 fe 9d 3d 48 ae 42 3d 8a c5 c1 3d 54 18 a5 bd
       0.07714498 0.04752949 0.09461506 -0.08061281
000130 6c 94 77 3d f4 67 b1 bc 92 2e be 3c 2c bd 5a 3d
       0.06044428 -0.021656014 0.023215566 0.053403065
000140 6c 21 b0 3d be 7d 8d 3d fe e8 30 bd 40 e4 ef 3c
       0.08600125 0.06908749 -0.04319095 0.029283643
000150 0a 72 c2 3d 54 bc 5d bd d6 6b 1b 3d e7 22 66 3d
       0.094944075 -0.05413468 0.037944637 0.05618563
000160 b6 f6 f1 3b 0c 3f d9 3d a2 d0 a1 3d df 40 6c 3d
       0.0073841466 0.10607728 0.07901122 0.057679053
000170 15 35 21 3e 0a 79 10 3b 05 7f 95 3d 0f 8d 2b 39
       0.15742905 0.00220448 0.07299618 0.00016360379
000180 11 4b 1a 3e 6b 40 dc bc 49 a4 d6 3d 0a 79 3b bd
       0.15067698 -0.026886186 0.10480554 -0.04576973
000190 cc 02 c2 bd 8e f8 c8 3c d4 8d 7b 3d 20 5d cc bb
       -0.0947319 0.024532583 0.061414555 -0.0062366873
0001a0 d2 a3 92 3c 9a f9 39 3c d2 ee 08 3e 8c 90 0c 3d
       0.017900381 0.011351014 0.13372353 0.03431754
0001b0 c4 2a f6 be 39 12 99 bb b7 06 2a 3d 06 72 c3 3d
       -0.48079503 -0.0046713618 0.04151031 0.095432326
0001c0 88 8f d6 bd 58 aa 22 be 9f db 2e 3d c3 94 21 3d
       -0.10476595 -0.15885293 0.042689916 0.03944851
0001d0 3b 95 53 3d 4b fe e0 3c 00 81 dd bc 97 4c 42 3c
       0.05165599 0.027465006 -0.027039051 0.011859081
0001e0 c9 56 88 3d ea 50 b8 bd 49 dd a0 bd ad 42 5f bd
       0.06657178 -0.08999808 -0.07854707 -0.054506946
0001f0 a1 f9 da 3d 3e f6 9b bd fd 75 6e 3d 36 29 e4 3c
       0.10692144 -0.07615326 0.05821799 0.027851682
000200 ed ee 23 3e b2 62 f4 3d 09 4a 91 3c bd 2c ab bb
       0.16009112 0.11932887 0.017735498 -0.005223839
000210 f1 3f 03 3e 26 1f a3 3d 09 e6 a4 bb db 2a 47 3e
       0.1281736 0.079649255 -0.005032305 0.19449942
000220 30 cc 82 bd 50 71 b2 3d 9a 5e ac 3d 0e 08 78 3d
       -0.06386602 0.08713019 0.08416481 0.060554557
000230 80 7b 59 bd 9e 70 8b 3c 35 2a f4 3d 12 f5 07 3d
       -0.053096294 0.017021473 0.11922113 0.0331927
000240 ab 2b 9e bd 37 1d 0a bf 68 9c 93 bc 98 28 63 3d
       -0.07723173 -0.5395083 -0.018018916 0.055458635
000250 df b7 be 3d 65 98 0d 3c 39 ef 9a 3d a0 ae 79 3c
       0.093124144 0.008642291 0.07565159 0.015239388
000260 56 96 90 3d 21 c4 9e bc 2c 06 e2 bc 3b e6 8e 3d
       0.07059924 -0.01938063 -0.027590834 0.06977507
000270 95 fc 20 3e 21 8f 3a bb 7f a7 64 3d 66 0f f9 3b
       0.15721352 -0.002846666 0.0558238 0.0076007126
000280 86 f4 c2 bb 9d 34 8e 3d ea 27 9c 3d 73 86 2f bd
       -0.0059495596 0.06943629 0.076248005 -0.04285283
000290 51 bf 9e bc 00 93 6a bc 17 0a 3e 3d 46 16 ca 3d
       -0.019378336 -0.014317274 0.04639634 0.098675296
0002a0 03 fd bf bd dd 76 74 bd 2f b3 d8 3c ef 0a 1e 3d
       -0.0937443 -0.05968367 0.026452629 0.038584646
0002b0 04 f9 19 3e 75 05 db bd 03 50 ae 3d 84 7a 6f 3a
       0.15036398 -0.106944 0.08511355 0.0009135383
0002c0 bc 3e d0 bd f3 4f a0 3d 27 5f fa bc 5e af 0b 3d
       -0.10168216 0.07827749 -0.03056295 0.03410279
0002d0 4c bf bf 3d 3d e4 45 bd 8c 61 24 bd 1e bd 49 b9
       0.09362659 -0.048313368 -0.04013209 -0.00019239305
0002e0 73 30 92 3c b8 b9 f4 3c 50 45 d7 3d 3c fe d0 bd
       0.017845368 0.029873714 0.10511267 -0.10204741
0002f0 c7 aa 92 3d 50 25 1f bd 93 53 90 3d 0e c1 57 3d
       0.071614794 -0.038853943 0.070471905 0.052674346
000300 a5 68 b4 3d 96 f9 94 bd 80 43 86 bb 7e 79 9e 3c
       0.08809022 -0.07274167 -0.004097402 0.019345041
000310 f6 8c 21 3d 7e 6a e5 bd d4 1c d9 3d 00 a7 99 3d
       0.03944107 -0.112019524 0.10601202 0.07502556
000320 e8 58 84 3c 7b 55 12 3d 74 6f 90 3d cd 54 e7 be
       0.016155675 0.03572605 0.07052508 -0.45181885
000330 7a 43 bd 3d 5d cd 9e 3c cf c8 00 3e 10 b6 b0 3d
       0.09241386 0.019385034 0.12576602 0.08628476
000340 77 a5 bd 3c 03 e1 94 3d 30 ba c7 3d 58 70 07 bd
       0.023150189 0.0726948 0.09752309 -0.033066124
000350 11 bb fa bc a5 ed a1 3c cf 54 5a 3d 20 8d 89 bd
       -0.030606778 0.019766638 0.053303536 -0.067163706
000360 92 26 88 3d bf e8 6f 3d a7 0c 9a bd f4 5f 2c 3c
       0.06647982 0.058571573 -0.075219445 0.010520924
000370 47 29 33 3e 9c 9d ac 3d e2 46 30 3e 7e 09 66 3d
       0.17496215 0.08428499 0.1721454 0.056161396
000380 2d 07 80 bd df 78 c0 3d 0f 00 dc bb 55 ec 8d 3d
       -0.06251369 0.09398054 -0.006713874 0.069298424
000390 9e 1e 64 be a6 89 87 bd 6a 00 49 3d 30 cf ea bd
       -0.22277305 -0.06618051 0.04907266 -0.11465299
0003a0 31 51 34 3d 49 3a 05 3d 34 c0 b6 3d b7 ac 95 3d
       0.044022743 0.03252629 0.089233786 0.07308333
0003b0 dd b6 0c 3e d4 04 65 3d 40 c5 6c 3d d8 8e 0a 3e
       0.13741632 0.055912808 0.0578053 0.13531053
0003c0 64 c8 ca 3d f7 22 44 bb f7 66 68 3d 37 b9 88 bd
       0.09901503 -0.0029928067 0.05673882 -0.06675952
0003d0 9a 42 7c bc ec b2 55 bc 08 6e 41 3d 53 10 91 bd
       -0.015396738 -0.013043147 0.047224075 -0.07083192
0003e0 dc 48 5e 3d 4e 98 a4 3d 0c 33 97 bd 42 8a 13 be
       0.054268703 0.08036862 -0.07382783 -0.1440821
0003f0 ec bf e7 be f0 70 2a bd 5a 52 b7 bc 65 7a b2 bd
       -0.45263612 -0.04161161 -0.022378135 -0.08714751

out.bias f4 [4]
000000 6e 83 0e bd f8 7c f4 3c 54 df ef 3c 4d bd 95 3d
       -0.03479331 0.029844746 0.029281296 0.07311497
