2D Discrete/d3qn_8x8.pt (torch, 20626 bytes, 5 tensors)

hidden.0.weight f4 [64, 64]
0	0x3cd5cdff	0.026099203
1	0x3d93e81b	0.07222005
2	0x3dc388ec	0.095476
3	0x3d8f665f	0.070019476
4	0x3dd382b0	0.10327661
5	0x3db6c3d5	0.08924071
6	0x3cffbdbb	0.0312184
7	0xbde50479	-0.11182494
8	0x3d09762e	0.03355997
9	0xbdfa2eca	-0.122159556
10	0x3d9621bc	0.07330653
11	0x3d456448	0.04819134
12	0xbdb3413a	-0.08752675
13	0xbdbf1f4c	-0.09332141
14	0x3cd058e7	0.025433017
15	0xbdebf8da	-0.11522074
16	0xbce031a9	-0.02736743
17	0x3c1a731a	0.009426856
18	0x3e265aa9	0.16245522
19	0x3e49d285	0.19709213
20	0x3ea21908	0.31659722
21	0x3e7d03bc	0.24708456
22	0xbded1325	-0.11575917
23	0xbdfc4d1e	-0.123193964
24	0x3d1612f1	0.036639158
25	0xbde25be5	-0.11052684
26	0xbcd98f20	-0.026557505
27	0xbde9baa6	-0.114125535
28	0x3d4055ac	0.046956703
29	0x3bfc81e0	0.007705912
30	0x3df9118a	0.121615484
31	0xbdea748d	-0.114480115
32	0xbd3906af	-0.04517239
33	0xbd37084d	-0.04468565
34	0x3d07fe4f	0.033201512
35	0x3e046ce7	0.12932168
36	0x3e728bed	0.2368619
37	0x3ed20bed	0.41024724
38	0xbde1993e	-0.11015557
39	0xbdef3287	-0.11679559
40	0xbddf837d	-0.10913751
41	0xbe047a3b	-0.12937252
42	0x3dd08128	0.101808846
43	0x3d765054	0.0601352
44	0x3d322750	0.043494523
45	0x3d4ee4d0	0.05051118
46	0xbe02152f	-0.12703393
47	0xbe0722c9	-0.13196863
48	0xbe005a0e	-0.12534353
49	0xbe037985	-0.12839325
50	0xbdef3a06	-0.11680989
51	0x3d97aa29	0.07405502
52	0xbd9a195d	-0.07524369
53	0xbd87b604	-0.066265136
54	0xbde6ffaa	-0.11279233
55	0xbe03e64d	-0.12880822
56	0xbaf595b4	-0.0018736632
57	0xbddeb186	-0.10873704
58	0xbcc17289	-0.023614185
59	0xbde25648	-0.11051613
60	0xbdeb1ba2	-0.1147988
61	0xbdf68370	-0.120367885
62	0xbc69f916	-0.014280578
63	0x3d67b16c	0.056565687
64	0xbd2a1ee0	-0.04153335
65	0xbe4863b0	-0.19569278
66	0xbe0711e5	-0.1319042
67	0xbe447bd7	-0.19187866
68	0xbe2c0f2b	-0.16802661
69	0xbda75a4a	-0.08171518
70	0xbdac15e9	-0.084026165
71	0xbdc92718	-0.0982191
72	0xbd49e72a	-0.04929272
73	0xbe3b04bd	-0.18263526
74	0x3c9303a8	0.01794608
75	0x3daec6b4	0.08533993
76	0xbdc8dc1a	-0.09807606
77	0xbd3aae20	-0.045576215
78	0xbd7b8986	-0.06141045
79	0x3dd022c3	0.1016288
80	0xbe1d3016	-0.15350375
81	0xbdf47d60	-0.11937976
82	0xbdb39687	-0.08768945
83	0xbe156d12	-0.14592388
84	0x3cafcc0b	0.0214596
85	0xbdc1d087	-0.094636016
86	0x3c211811	0.009832398
87	0x3e83755e	0.25675482
88	0xbc8f4905	-0.017490873
89	0xbe82d12a	-0.25550205
90	0x3dd4b5e8	0.10386258
91	0xbdd24eee	-0.10268961
92	0x3b729640	0.0037015826
93	0x3db6d31e	0.08926986
94	0x3d96f7ca	0.07371481
95	0x3e39326b	0.18085639
96	0xbcb544de	-0.022127565
97	0xbe35a264	-0.17737728
98	0xbe5c98a6	-0.21542606
99	0xbde7a0f5	-0.11309997
100	0xbddba88e	-0.10725509
101	0xbc94853b	-0.018129935
102	0x3e9ef5f1	0.31047013
103	0x3da92ceb	0.082605205
104	0xbe1943ca	-0.14967266
105	0xbda191e3	-0.07889154
106	0x3d8b180a	0.067916945
107	0xbdd172ae	-0.102269515
108	0x3c461160	0.012089103
109	0x3d93fb72	0.07225694
110	0x3df95c2c	0.121757835
111	0x3e82fb2f	0.25582263
112	0x3d18ea72	0.03733296
113	0x3d0ff128	0.035142094
114	0x3e339319	0.17536582
115	0x3e456eb1	0.19280507
116	0x3e55532f	0.20832513
117	0x3e2e5ff3	0.17028789
118	0x3e3a7f0f	0.18212532
119	0x3e946a30	0.28987265
120	0x3dac8c60	0.08425212
121	0xbd73521f	-0.05940449
122	0x3d4952e3	0.049151313
123	0x3e24260b	0.16030137
124	0x3e41716b	0.18890922
125	0x3db93429	0.09043152
126	0x3e822b3b	0.25423607
127	0x3de443ee	0.11145769
128	0x3dcacf62	0.099028364
129	0x3dc4f425	0.096168794
130	0xbd812818	-0.063064754
131	0xbdb1d6c8	-0.086835444
132	0xbdaae4f6	-0.08344452
133	0xbdd2fc20	-0.10301995
134	0x3e090969	0.13382496
135	0x3e3f55a2	0.1868501
136	0x3d47052d	0.04858892
137	0x3e5cb9dc	0.21555275
138	0x3cdeaa28	0.027180746
139	0xbd4adbcc	-0.04952602
140	0xbc3dd140	-0.011585534
141	0xbdb2f940	-0.08738947
142	0xbdbefb1c	-0.09325239
143	0x3e26c59d	0.16286321
144	0xbd8dda4e	-0.06926404
145	0xbd757802	-0.0599289
146	0xbd83049b	-0.06397363
147	0xbdee3254	-0.11630693
148	0xbdb9ecce	-0.0907837
149	0xbd89d06e	-0.06729208
150	0x3e1daaad	0.15397139
151	0x3d443a1b	0.047906976
152	0xbda19ef0	-0.07891643
153	0x3e887b95	0.26656786
154	0x3dfda2b4	0.12384549
155	0xbdf1c756	-0.118055984
156	0x3d4bde54	0.049772575
157	0xbd324738	-0.04352495
158	0x3dd5379c	0.10410997
159	0xbdc6a418	-0.09699267
160	0xbd78caeb	-0.060740393
161	0x3dc79893	0.09745898
162	0xbd4cf0de	-0.050034396
163	0xbdf10f5a	-0.11770506
164	0xbdad0f7e	-0.084502205
165	0xbd75f760	-0.06005037
166	0xbdbeb494	-0.09311786
167	0xbdadcaa7	-0.084859185
168	0xbdcd1518	-0.10013789
169	0x3e83b787	0.25725958
170	0x3dda84b6	0.10669844
171	0xbdb6567e	-0.08903216
172	0x3dfad84a	0.12248285
173	0x3d2cd55c	0.042195663
174	0x3dc9538a	0.09830387
175	0xbd62cff7	-0.055374112
176	0xbdd970de	-0.10617231
177	0xbd615b5f	-0.05501878
178	0xbdb05cee	-0.08611475
179	0x3d2e560a	0.042562522
180	0xbd919c37	-0.07109874
181	0xbd1d3f02	-0.038390167
182	0xbd8d12f0	-0.06888378
183	0x3e3fead5	0.18741925
184	0xbd7f3537	-0.06230661
185	0x3d8bf3a3	0.068335794
186	0xbce264a9	-0.02763589
187	0xbde89be0	-0.11357856
188	0xbd66e66b	-0.056372087
189	0xbd54c5e4	-0.051946536
190	0x3afe9799	0.0019423842
191	0x3d4d1828	0.050071865
192	0xbe03a11e	-0.1285443
193	0x3cb86cca	0.022512812
194	0x3dc9eac3	0.0985923
195	0x3dd38086	0.10327248
196	0x3d196d4f	0.03745776
197	0x3dcffb22	0.10155322
198	0x3dcd67a1	0.10029531
199	0x3d18fb54	0.03734906
200	0x3d2a117b	0.041520577
201	0xbe26dfb7	-0.16296278
202	0x3d8124c6	0.06305842
203	0x3dbc7d6e	0.09203611
204	0x3d9f50f2	0.07779111
205	0x3d971f86	0.073790595
206	0xbd9a653a	-0.07538839
207	0x3c9f22e3	0.019425815
208	0xbdc571db	-0.09640857
209	0xbc819ff7	-0.015823347
210	0xbe27338e	-0.1632826
211	0xbcf4a2fd	-0.029862875
212	0x3de9b089	0.114106245
213	0x3db03b70	0.08605087
214	0x3d242030	0.04006976
215	0x3e150bf3	0.1455534
216	0xbe3559ae	-0.17709991
217	0xbe422347	-0.1895877
218	0x3dc3f31c	0.09567854
219	0x3decd2e2	0.1156366
220	0xbd3e9818	-0.046531767
221	0xbddbce0c	-0.1073266
222	0xbc6eed88	-0.014582999
223	0x3e410a39	0.18851556
224	0x3a35d42a	0.0006936217
225	0xbd9cefa8	-0.07662898
226	0xbd760e12	-0.060072012
227	0xbc11eba6	-0.008906281
228	0x3d4dd93e	0.050256006
229	0x3e381fed	0.17980929
230	0x3e25e7e6	0.16201743
231	0x3e0b2ca8	0.13591254
232	0x3e151c2e	0.14561531
233	0xbdf2bc5e	-0.118523344
234	0x3d2d2858	0.042274803
235	0xbddcd4ca	-0.10782774
236	0xba4c5e00	-0.00077959895
237	0xbbad74a0	-0.005293444
238	0x3da48136	0.080324575
239	0x3de8e2db	0.11371394
240	0x3d8690ff	0.065706246
241	0x3da76d5d	0.08175156
242	0xbd640e42	-0.05567766
243	0xbe155689	-0.14583792
244	0xbdae0bc0	-0.08498335
245	0xbdecf3fc	-0.11569974
246	0x3e2b930d	0.16755314
247	0x3e51e981	0.20499231
248	0x3dcdb06c	0.100434154
249	0x3db9816d	0.09057889
250	0x3e23dd87	0.16002475
251	0x3ddee577	0.10883611
252	0x3e9312c3	0.28725252
253	0x3e3dd693	0.18538885
254	0x3e9948ab	0.29938254
255	0x3dd49d1a	0.10381527

hidden.0.bias f4 [64]
0	0x3dd3f249	0.103489466
1	0x3e6cc287	0.23121081
2	0x391a64f0	0.00014724187
3	0x3e236d44	0.1595965
4	0x3afff3c0	0.0019527599
5	0xbdedbeeb	-0.1160868
6	0xbdf3c119	-0.11902065
7	0x3a705c34	0.0009169013
8	0xbdf81870	-0.12114036
9	0xbd344568	-0.044011503
10	0x3db87198	0.09006041
11	0x3dc3f52e	0.09568249
12	0xbe013255	-0.12616856
13	0x3e2b6edf	0.16741513
14	0x3d682f37	0.056685653
15	0x3c5bd14e	0.013416601
16	0xbdfcb090	-0.12338364
17	0x3da99b0a	0.082815245
18	0xbe2babfd	-0.16764827
19	0x3e1c6cb0	0.15275836
20	0xbd9f38a1	-0.07774473
21	0xbe0aeba0	-0.13566446
22	0x3dfbcb01	0.12294579
23	0xbd092679	-0.033483956
24	0x3e31bc48	0.1735698
25	0xbda94dae	-0.08266769
26	0xbe0a92a9	-0.13532509
27	0xbcc87f45	-0.02447475
28	0x3d1dcb82	0.03852416
29	0x3e0030e8	0.12518656
30	0x3e593f7e	0.21215627
31	0x3d6fd23b	0.0585501
32	0xbc85fb85	-0.016355285
33	0xbdadd660	-0.084881544
34	0x3d9cdfe2	0.0765989
35	0xbdf494ec	-0.11942467
36	0x3cfc497d	0.03079676
37	0x3db68b4f	0.0891329
38	0xbcfcbb78	-0.03085111
39	0xbe0c36ba	-0.13692752
40	0x3d775b06	0.06038954
41	0x3dc9ff6e	0.098631725
42	0xbe04f971	-0.1298578
43	0x3e09544e	0.13411066
44	0xbd72df4e	-0.05929499
45	0x3e121422	0.14265493
46	0xbd3c901c	-0.04603587
47	0x3e526b46	0.20548734
48	0xbd7fb38e	-0.062427096
49	0xbdca8412	-0.09888472
50	0x3e13bbbf	0.14427088
51	0xbd9b5321	-0.07584215
52	0xbcab888d	-0.020939136
53	0xbda25b1f	-0.07927536
54	0xbda8901b	-0.08230611
55	0xbe1fcef1	-0.15606286
56	0xbd1f06e0	-0.038824916
57	0xbdb03b55	-0.08605067
58	0xbdd5f9bf	-0.10448026
59	0xbdfe03b8	-0.12403053
60	0xbc95d831	-0.018291565
61	0x3c7a7d0b	0.015288602
62	0x3dc49efe	0.09600638
63	0x3e049909	0.12949003

advantage.weight f4 [4, 64]
0	0xbd6b838c	-0.0574985
1	0x3c213163	0.009838435
2	0xbd9108fa	-0.0708179
3	0xbd0ccb6e	-0.034373693
4	0x3d2aca6e	0.04169696
5	0x3e1d0c69	0.15336765
6	0xbd26c08d	-0.040710974
7	0x3e092523	0.13393073
8	0xbdaef19e	-0.085421786
9	0xbd400011	-0.046875063
10	0xbc6d472c	-0.014482301
11	0x3e384c87	0.17997943
12	0xbda4c338	-0.080450475
13	0xbc79d6d5	-0.015248974
14	0x3d21305f	0.03935277
15	0x3dab3ea2	0.08361556
16	0x3dd28cbe	0.10280751
17	0xbe5709d0	-0.20999837
18	0x3d20c99d	0.039254773
19	0x3e5397d5	0.20663388
20	0xbd9d999d	-0.07695315
21	0xbd32662e	-0.043554477
22	0x3d8137d2	0.06309475
23	0xbd873bd5	-0.06603209
24	0x3cd2e5e7	0.025744392
25	0x3d985e57	0.07439869
26	0x3d751cb7	0.059841838
27	0xbc7035b9	-0.014661246
28	0xbcc605af	-0.024172632
29	0xbdd41baf	-0.10356843
30	0xbddec633	-0.10877647
31	0xbe79ae15	-0.24382813
32	0xbd97b621	-0.07407785
33	0xbe178779	-0.14797772
34	0x3e5f8426	0.21827754
35	0xbdf1e9a1	-0.11812139
36	0x3e0ee8f7	0.13956057
37	0xbc1a6cdd	-0.009425369
38	0x3d75be13	0.059995722
39	0x3d91159c	0.070842
40	0x3df283ac	0.11841521
41	0xbdbdc89e	-0.0926678
42	0x3e055f1a	0.1302456
43	0xbdde4e27	-0.1085475
44	0xbcf43486	-0.029810201
45	0x3de1e5ce	0.1103016
46	0x3d725073	0.059158754
47	0xbcdce74c	-0.02696576
48	0xbd9a3030	-0.07528722
49	0xbd97011f	-0.07373261
50	0xbda81343	-0.08206799
51	0xbde9c4bd	-0.11414478
52	0x3d24599e	0.040124528
53	0x3e0a224d	0.13489647
54	0x3dbce7b4	0.09223881
55	0x3df223dd	0.11823247
56	0x3d7985a1	0.060918454
57	0x3e2dc1c1	0.16968442
58	0x3da9764c	0.082745165
59	0xbd480968	-0.048837095
60	0xbe4b0dcd	-0.19829483
61	0x3d9a78f2	0.075426
62	0x3d8a64e4	0.067575246
63	0x3c2b420c	0.0104527585
64	0xbde255d2	-0.11051525
65	0x3d54246a	0.05179254
66	0x3d3a40fe	0.045472138
67	0xbe3071a5	-0.17230852
68	0xbd32251c	-0.04349242
69	0xbce55527	-0.027994705
70	0xbd953394	-0.07285228
71	0x3e36ede0	0.1786418
72	0x3df4904c	0.11941585
73	0xbd8465d6	-0.06464736
74	0xbdeb7bd9	-0.114982314
75	0xbe004a38	-0.12528312
76	0xbd5c4e08	-0.053785354
77	0x3dc9800f	0.09838878
78	0xbd14163b	-0.036154013
79	0x3cd97549	0.026545184
80	0x3a173ab8	0.00057689426
81	0x3e1f31e9	0.15546383
82	0xbdc44e92	-0.095852986
83	0x3c4c287c	0.012460824
84	0x3ded3d10	0.115839124
85	0x3c367abf	0.011137663
86	0x3d9f042c	0.077644676
87	0xbbd1b6ce	-0.006399966
88	0xbe047b0a	-0.1293756
89	0xbd466960	-0.048440337
90	0x3cd22f04	0.025657184
91	0x3da2b31f	0.07944321
92	0xbe46a9c8	-0.19400704
93	0x3d19c693	0.03754289
94	0xbd0b4d70	-0.034009397
95	0x3c23d9bd	0.010000643
96	0x3d22f0ec	0.039780542
97	0x3e281d4e	0.16417429
98	0x3cb36cee	0.021902528
99	0xbd0403de	-0.03223025
100	0x3d368912	0.044564314
101	0x3d791146	0.06080749
102	0xbdbe155d	-0.092814185
103	0xbe0ad3e6	-0.13557395
104	0xbe2c07a2	-0.16799787
105	0xbe041221	-0.1289754
106	0x3d582ebb	0.05277894
107	0xbdc5b4d1	-0.096536286
108	0x3c8b0662	0.016970817
109	0x3d076eeb	0.033064764
110	0x3d52d443	0.05147196
111	0x3cd1bde7	0.025603248
112	0x3bce074d	0.0062874914
113	0x3d531b37	0.051539626
114	0xbd5ddcf3	-0.05416579
115	0x3d9c1d8b	0.076228224
116	0xbd90b883	-0.07066443
117	0xbec0763c	-0.37590206
118	0xbd89ec9e	-0.06734584
119	0x3d0df7ab	0.034660023
120	0xbd735e8c	-0.05941634
121	0xbea07725	-0.313409
122	0x3da35807	0.07975774
123	0x3c8c0250	0.017090946
124	0x3dd42685	0.103589095
125	0xbd84e931	-0.0648979
126	0xbbfff41a	-0.0078110816
127	0xbda96d8d	-0.08272848
128	0x3d9ace33	0.07558861
129	0x3cc775ec	0.024348222
130	0xbd836da0	-0.06417394
131	0xbd6bd1d7	-0.057573166
132	0x3ca277f8	0.019832596
133	0x3d99d6c2	0.07511665
134	0xbd8cfc3b	-0.06884047
135	0xbd931994	-0.07182613
136	0xbdc62e4e	-0.09676801
137	0x3cb5471d	0.022128636
138	0xbbc8219a	-0.0061075212
139	0x3d9b2f91	0.07577432
140	0x3d5f1d24	0.05447115
141	0x3e1721f3	0.14759044
142	0xbdf1e3eb	-0.1181105
143	0xbcdd2ba1	-0.026998343
144	0xbd398522	-0.04529298
145	0x3e06d08b	0.1316549
146	0xbd89cd95	-0.06728665
147	0x3c398f47	0.011325664
148	0x3d67fdb2	0.056638427
149	0xbdd961ba	-0.10614343
150	0xbe01b98b	-0.12668435
151	0x3ce0d9a1	0.027447524
152	0xbd8eb4e5	-0.06968097
153	0xbd2dce5e	-0.042433135
154	0xbd06f70d	-0.03295045
155	0xbdd970a3	-0.10617187
156	0x3c34fa1c	0.011045959
157	0x3c3cdb4c	0.011526894
158	0x3d1a65af	0.03769463
159	0x3c930343	0.017945891
160	0xbcc68c76	-0.024236899
161	0x3de1846a	0.11011584
162	0x3d9bc90f	0.07606708
163	0xbd2be776	-0.041968785
164	0x3d8da4a1	0.06916166
165	0xbd72384f	-0.05913573
166	0x3d2acff1	0.041702215
167	0xbde3f4d8	-0.111306846
168	0x3da81a07	0.08208089
169	0xbde93dff	-0.11388778
170	0x3d4de43b	0.050266486
171	0x3d36e7c0	0.044654608
172	0xbd25cb02	-0.040476806
173	0x3e039287	0.12848864
174	0x3d7ddd2d	0.061978508
175	0xbbd97d2c	-0.006637236
176	0x3de68bac	0.11257109
177	0xbd52fbef	-0.051509794
178	0xbde8cd30	-0.113672614
179	0x3d1d1e8b	0.038359206
180	0xbc22dc59	-0.00994023
181	0x3d5bae18	0.053632826
182	0xbc69fa74	-0.014280904
183	0xbe1b220a	-0.15149704
184	0xbd8f279d	-0.069899775
185	0x3d6baafc	0.05753611
186	0x3d988cf5	0.074487604
187	0x3b8aeea0	0.004239872
188	0x3db1239e	0.086493716
189	0xbdfaf006	-0.12252812
190	0xbe45c69b	-0.19314043
191	0xbd90e6f9	-0.070753045
192	0xbd643c1e	-0.055721395
193	0xbdd6bfd7	-0.10485809
194	0x3dd47dcc	0.10375556
195	0x3d863fa2	0.06555106
196	0x3da07ec8	0.078366816
197	0xbdf9a87a	-0.121903375
198	0xbcbd48bd	-0.023105973
199	0x3d21ecbd	0.03953241
200	0x3dfaa044	0.122375995
201	0x3d937179	0.071993776
202	0x3e09d499	0.13460006
203	0xbdac9371	-0.0842656
204	0xbd712fb6	-0.05888339
205	0xbe09ebce	-0.13468859
206	0x3e02cb6c	0.12772912
207	0xbe2b4eb0	-0.16729236
208	0x3c1b29b1	0.009470389
209	0x3e1f6690	0.15566468
210	0x3da9fc4a	0.083000734
211	0xbd552479	-0.052036736
212	0x3e42c4a7	0.1902033
213	0x3d07f4b2	0.033192344
214	0xbe1ff638	-0.15621269
215	0x3d83a53d	0.06428001
216	0xbd4404a5	-0.047855992
217	0xbdcd08fb	-0.100114785
218	0x3df71939	0.12065358
219	0x3dec2ff5	0.115325846
220	0x3d5bf336	0.05369874
221	0x3d77cd11	0.0604983
222	0xbe477cb4	-0.19481164
223	0x3e200fa2	0.15630963
224	0x3e218be6	0.15776023
225	0xbd3c92da	-0.046038486
226	0xbdca4a74	-0.09877482
227	0xbd484159	-0.048890445
228	0xbdd359c7	-0.10319858
229	0x3ea479dc	0.3212422
230	0x3e379491	0.17927767
231	0x3bad8da8	0.0052964278
232	0x3d9a735c	0.07541534
233	0xbc15513b	-0.009113605
234	0xbca11523	-0.0196634
235	0x3dc4e32e	0.096136436
236	0x3df55344	0.11978772
237	0xbe4213be	-0.18952844
238	0x3d5063e6	0.05087652
239	0xbd6bf639	-0.057607863
240	0xbe051e59	-0.12999858
241	0xbb88bac8	-0.0041726567
242	0x3e0fb587	0.14034091
243	0x3e64b412	0.22334316
244	0xbdb70bd2	-0.089378014
245	0xbde61650	-0.112347245
246	0xbe21683c	-0.15762419
247	0xbaef668a	-0.0018264812
248	0xbe62b999	-0.22141112
249	0x3ab18fdf	0.0013546905
250	0x3d86f74b	0.06590136
251	0x3da813fa	0.08206935
252	0xbd4ee018	-0.05050668
253	0x3dd237b1	0.102645285
254	0xbda7c813	-0.08192458
255	0x3da3321b	0.07968541

advantage.bias f4 [4]
0	0xbe0a0a24	-0.13480431
1	0x3c1c3bc3	0.009535733
2	0xbc04c857	-0.008104405
3	0xbe284ab7	-0.16434751

value.weight f4 [1, 64]
0	0xbdcf66ae	-0.101270065
1	0x3e0ea8ae	0.13931534
2	0x3af178c8	0.0018422836
3	0x3e253f72	0.16137484
4	0x3a7da04f	0.0009675072
5	0xbd921ff0	-0.07134998
6	0x3cafa2dc	0.021439962
7	0xbd9daff0	-0.07699573
8	0xbd0a9038	-0.033828944
9	0xbd33d3ea	-0.04390327
10	0x3d9e3f2d	0.077268936
11	0xbd6621fb	-0.05618475
12	0x3d6ad8b3	0.057335567
13	0x3dbdc9bf	0.09266996
14	0x3d1065ad	0.035253216
15	0xb92c07d5	-0.00016406116
16	0x3d867b8d	0.06566534
17	0xbc17b821	-0.009260208
18	0x3dc8a071	0.09796227
19	0x3dac9058	0.08425969
20	0x3cdf2746	0.027240407
21	0xbd472f36	-0.04862901
22	0x3de218fc	0.11039922
23	0x3e423b95	0.18968041
24	0x3e3750f6	0.17901978
25	0x3c3a04b0	0.011353657
26	0x3d4167d3	0.047218155
27	0xbd3c48e8	-0.045967966
28	0xbe09d3b6	-0.13459668
29	0x3ddaf91a	0.106920436
30	0x3e881c98	0.26584315
31	0xbd1f59c5	-0.03890397
32	0x3da334b1	0.079690345
33	0xbd6faacd	-0.058512498
34	0xbcf76c0f	-0.030202894
35	0xbda14ea0	-0.07876325
36	0xbd21e328	-0.039523274
37	0x3e18d87b	0.14926331
38	0x3de8b7c7	0.11363178
39	0xbd4923f7	-0.049106564
40	0xbd87697e	-0.06611918
41	0x3d3fa935	0.046792228
42	0xbbf1a3b9	-0.0073742536
43	0xbc988b4c	-0.01862111
44	0x3d817012	0.06320204
45	0xbc0525a3	-0.008126649
46	0xbc028de5	-0.007968401
47	0x3e068e94	0.13140327
48	0xbd9947f2	-0.074844256
49	0xbd5bad83	-0.05363227
50	0x3de40a52	0.11134781
51	0x3d845fb5	0.06463567
52	0x3e563546	0.2091876
53	0xbca45512	-0.020060096
54	0xbd246c15	-0.040142138
55	0xbd03c6d0	-0.032172024
56	0xbca056b1	-0.019572588
57	0xbd9e4427	-0.07727843
58	0xbbb13840	-0.005408317
59	0xbcba8cd0	-0.022772223
60	0x3d6821c7	0.056672838
61	0x3daff7a2	0.08592154
62	0xbd2cabf5	-0.04215618
63	0x3db99430	0.09061468
