2D Discrete/dqn_8x8.pt (torch, 36552 bytes, 6 tensors)

fc1.weight f4 [64, 64]
0	0x3964b72c	0.00021812011
1	0x3d254867	0.04035225
2	0xbdb9d80a	-0.09074409
3	0xbe0b5487	-0.13606463
4	0xbe02a6ac	-0.12758893
5	0xbe038593	-0.12843923
6	0x3e2358d0	0.15951848
7	0xbdcef7f5	-0.10105888
8	0xbdda93de	-0.10672735
9	0x3c8a2ab8	0.016866073
10	0x3bbedf80	0.005824983
11	0x3de04d96	0.10952298
12	0xbda6a394	-0.08136669
13	0x3d5d8e14	0.054090574
14	0xbdd836c4	-0.10557321
15	0xbdfff4e0	-0.12497878
16	0xbdbd0e80	-0.09231281
17	0x3d0f6823	0.035011422
18	0xbdf4c350	-0.119513154
19	0xbde41e46	-0.11138587
20	0xbcaebfd3	-0.021331703
21	0xbd5f10ef	-0.05445951
22	0x3dd3ec0d	0.103477575
23	0x3e456abd	0.19278999
24	0x3e15e495	0.14637978
25	0x3e17639c	0.14784092
26	0x3d206434	0.03915806
27	0xbc59bab0	-0.013289139
28	0x3d1e8558	0.038701385
29	0xbdabe28c	-0.0839282
30	0xbddd9c36	-0.108208105
31	0xbde9434b	-0.11389788
32	0xbba56234	-0.005047107
33	0x3d5a427a	0.053286053
34	0xbe071249	-0.13190569
35	0xbdfa0d0c	-0.1220952
36	0xbd951de6	-0.07281093
37	0xbda680cf	-0.08130037
38	0x3e6a7953	0.22897844
39	0x3e0f87c3	0.14016633
40	0x3d7f8e3a	0.062391497
41	0x3d5a4844	0.053291574
42	0xbdfcd1f0	-0.1234473
43	0xbd2f8df8	-0.04286
44	0xbd9f7e56	-0.077877685
45	0xbdb81cb0	-0.08989847
46	0xbe00a87e	-0.12564275
47	0xbdeae7b6	-0.114699766
48	0x3e69bc2e	0.22825691
49	0x3e178053	0.14795046
50	0xbddeed6a	-0.10885127
51	0x3e013bad	0.12620421
52	0x3db5ec3d	0.088829495
53	0x3e48f6fd	0.19625469
54	0x3e69890a	0.22806183
55	0x3e8e6c86	0.27817172
56	0x3c5dc28f	0.013535156
57	0x3cbe2c9c	0.02321463
58	0x3d0fefb1	0.035140697
59	0x3d19287c	0.037392125
60	0x3d519919	0.051171396
61	0xbdfd9033	-0.123810194
62	0x3d44ba2e	0.048029117
63	0x3d92b6ca	0.071637705
64	0x3d4c819b	0.04992829
65	0x3d346b96	0.044047914
66	0x3e0dd388	0.13850224
67	0x3d03f7ad	0.032218624
68	0xbbbcda60	-0.005763337
69	0xbd1c45cc	-0.0381525
70	0xbd9d4af4	-0.07680312
71	0x3c7d6ef0	0.015468344
72	0x3cee07fd	0.029056543
73	0xbceeff58	-0.029174492
74	0xbdd3c14a	-0.10339601
75	0x3d4b5804	0.049644485
76	0xbdc7ebf6	-0.09761803
77	0x3df00c06	0.11721043
78	0xbdefc49c	-0.11707422
79	0x3d411c78	0.04714629
80	0x3c09d9b0	0.008413717
81	0x3cba3f50	0.022735268
82	0x3e187645	0.14888866
83	0xbd84ff08	-0.06493956
84	0xbdb5bca4	-0.08873871
85	0xbd6ff92c	-0.05858724
86	0xbc385c10	-0.011252418
87	0xbcd517a8	-0.026012257
88	0x3cd59628	0.026072577
89	0xbda0c710	-0.07850468
90	0xbdec7ef6	-0.115476534
91	0x3dfa6516	0.12226312
92	0xbd281c90	-0.041042864
93	0x3d327ef8	0.043578118
94	0x3d4ba6a6	0.049719475
95	0x3b81b6c0	0.003958553
96	0x3d2f6883	0.04282428
97	0xbdc0cd98	-0.09414214
98	0x3cd28060	0.02569598
99	0x3e84e735	0.25957647
100	0xbda21624	-0.07914379
101	0xbdab5642	-0.08366062
102	0x3c790b30	0.015200421
103	0xbdb08460	-0.086189985
104	0x3d07697b	0.03305958
105	0x3d03640d	0.032077838
106	0xbdc60508	-0.096689284
107	0x3c2854d0	0.010274127
108	0x3d6b611c	0.057465658
109	0xbdc28dd4	-0.09499708
110	0x3c9c2993	0.019062793
111	0x3ccd4c60	0.025060833
112	0xbdc89d4a	-0.097956255
113	0x3cba1771	0.022716256
114	0x3cdf6750	0.027270943
115	0x3ce90510	0.028444797
116	0x3ce60488	0.028078333
117	0x3a60cf00	0.0008575767
118	0xbbf95580	-0.0076090693
119	0xbd29ed38	-0.041485995
120	0xbcf75db8	-0.030196056
121	0x3d4b7afa	0.049677826
122	0xbdd75d70	-0.10515869
123	0xbcf41930	-0.029797167
124	0x3cabe7d4	0.020984568
125	0xbc155e40	-0.009116709
126	0xbddc31e6	-0.10751705
127	0x3cf73410	0.030176193
128	0xbde7b93c	-0.113146275
129	0x3cda83af	0.02667412
130	0x3e4f1e22	0.20226339
131	0x3e395568	0.18098986
132	0xbc5bec90	-0.0134231
133	0xbdb1ba72	-0.0867814
134	0xbb3f18c8	-0.0029159058
135	0x3d72a1a7	0.059236195
136	0xbc09616f	-0.008385046
137	0xbd8b956c	-0.06815609
138	0x3bf2a700	0.007405162
139	0x3df114d8	0.11771554
140	0xbd64e93c	-0.055886492
141	0xbde1c5c2	-0.110240474
142	0xbafbcd78	-0.0019211015
143	0x3c11c8f0	0.008898005
144	0x3ba0ba16	0.0049049957
145	0xbd94615c	-0.07245132
146	0x3bae887f	0.00532633
147	0x3c03d6d6	0.008046826
148	0x3e85b9b5	0.26118246
149	0x3e5e8eff	0.21734236
150	0xb98d2c00	-0.00026926398
151	0xbc0d7a69	-0.008635142
152	0x3c05c4fd	0.008164641
153	0xbce89d38	-0.02839528
154	0xbd01e600	-0.031713486
155	0xbc37cb70	-0.011217937
156	0x3c659540	0.014012635
157	0xbdd21a5e	-0.102589354
158	0xbd8e7f78	-0.069579065
159	0x3d180fc2	0.037124403
160	0xbcd82f78	-0.026389822
161	0xbdfe892a	-0.12428506
162	0x3e12971f	0.1431546
163	0x3ea21e54	0.31663764
164	0x3e44b297	0.19208752
165	0xbcffd828	-0.031231001
166	0xbd5a7238	-0.053331584
167	0x3aaef5a4	0.0013348353
168	0xbae3472e	-0.0017339939
169	0x39f50880	0.00046736374
170	0x3bda4a20	0.0066616684
171	0x3ddfb4b4	0.10923138
172	0x3df7f032	0.121063605
173	0x3df335dc	0.11875507
174	0xbdbff5fc	-0.0937309
175	0xbbc68920	-0.006058827
176	0xbc9b2f20	-0.01894337
177	0x3dc41129	0.095735855
178	0xbdf78856	-0.12086551
179	0x3cccb8a2	0.024990384
180	0x3db7b747	0.08970504
181	0xbda1f8e8	-0.07908803
182	0xbdbfbe32	-0.09362449
183	0xbdd9715a	-0.10617323
184	0xbd7d7564	-0.06187953
185	0xbbddf360	-0.0067733973
186	0xbdf37172	-0.11886872
187	0xbde61f80	-0.11236477
188	0xbcbc6b20	-0.0230003
189	0xbd324fc0	-0.043533087
190	0xbd08ea88	-0.03342679
191	0x3d4d0184	0.050050274
192	0xbdb72adc	-0.08943722
193	0x3b2d5a9f	0.002645172
194	0xbc904238	-0.0176097
195	0x3dba77c5	0.091048755
196	0x3cd19054	0.025581516
197	0xbdfed6e6	-0.124433324
198	0xbdfabccc	-0.122430414
199	0xbc215362	-0.00984654
200	0xbdccb6b2	-0.09995784
201	0xbdc3a792	-0.09553446
202	0x3ca63318	0.020288035
203	0x3ddb936a	0.107214764
204	0x3d2bc028	0.0419313
205	0x3d91e90e	0.0712453
206	0xbc980385	-0.018556366
207	0xbc02a357	-0.007973514
208	0xbc8f51e0	-0.017495096
209	0xbd19b440	-0.037525415
210	0xbcc12b33	-0.02358017
211	0xbaeda8e9	-0.0018132004
212	0xbc4e07a0	-0.01257506
213	0x3cc24fc1	0.02371967
214	0x3e3703a8	0.17872488
215	0xbc498427	-0.012299574
216	0x3d8f2ca0	0.069909334
217	0xbc84d4d5	-0.016214767
218	0xbdb738cc	-0.0894638
219	0xbd1cf348	-0.03831795
220	0xbcc93fa0	-0.024566472
221	0x3d9ebbfa	0.077506974
222	0xbd0bd5e8	-0.034139544
223	0xbcbc53b9	-0.02298914
224	0x3c6bae1a	0.014384771
225	0xbc3b5eed	-0.011436206
226	0xbc552058	-0.0130082
227	0xbc387540	-0.011258423
228	0xbc840935	-0.016117672
229	0xbb9fb9df	-0.0048744525
230	0x3e589299	0.21149673
231	0x3e09d311	0.13459422
232	0xbdc7e5e0	-0.09760642
233	0xbdd1fc1c	-0.10253164
234	0xbd92f838	-0.0717625
235	0x3de0edbe	0.10982846
236	0xbd58856c	-0.052861616
237	0x3db70c8a	0.089379385
238	0x3eb716a2	0.35759455
239	0xbdf25c4a	-0.11834009
240	0xbd01fd4c	-0.031735703
241	0x3e0455cd	0.12923355
242	0xbd49593c	-0.049157366
243	0xbd15556c	-0.036458418
244	0xbc926f74	-0.01787541
245	0xbbdaae67	-0.0066736224
246	0xbd2518b4	-0.04030676
247	0x3e10c606	0.1413804
248	0xbd410a9c	-0.04712926
249	0xbdb9a32a	-0.09064324
250	0x3e133f4c	0.14379615
251	0x3e11412a	0.14185014
252	0x3e0e458e	0.1389372
253	0x3e521f59	0.2051977
254	0xbc19d827	-0.009389914
255	0x3d61fe00	0.055173874

fc1.bias f4 [64]
0	0x3d94095d	0.072283484
1	0xbe1591d9	-0.14606418
2	0xbe0f8b54	-0.14017993
3	0xbd2a152e	-0.041524105
4	0xbd4a85f9	-0.049444173
5	0x3db0c41c	0.08631155
6	0x3cc9b546	0.02462257
7	0x3c2bb23c	0.010479506
8	0x3de45a19	0.11149997
9	0x3e1c949a	0.15291062
10	0x3e5d4832	0.21609572
11	0x3df8b78a	0.12144382
12	0xbda142d4	-0.078740746
13	0x3ca7f3c3	0.020501977
14	0xbda2164a	-0.079144076
15	0xbd922728	-0.07136375
16	0x3dcedcf7	0.101007394
17	0xbd848509	-0.06470687
18	0xbe0b6d04	-0.13615805
19	0x3e2c40ac	0.16821545
20	0x3e208832	0.15676954
21	0x3dcceb4a	0.10005815
22	0xbdb6ef08	-0.0893231
23	0xbd9d8250	-0.07690871
24	0x3e520bc8	0.20512307
25	0x3d8d438f	0.068976514
26	0x3e212b69	0.15739216
27	0x3c81fec0	0.015868545
28	0x3dba93e4	0.09110239
29	0xbdb34570	-0.087534785
30	0x3e1ce087	0.15320025
31	0xbe08ce36	-0.13359913
32	0xbdb424e7	-0.08796101
33	0xbc7d1250	-0.015446261
34	0xbb8d5446	-0.0043130247
35	0xbc8dee16	-0.017325442
36	0x3e291147	0.16510497
37	0xbde4a076	-0.11163418
38	0xbe0c3247	-0.13691054
39	0x3c3664e4	0.011132453
40	0x3e0da6da	0.1383318
41	0xbe1fd3ce	-0.15608141
42	0xbbe71162	-0.0070516327
43	0xbcf8d26b	-0.030373773
44	0x3e57af01	0.21062852
45	0xbdfeb2e2	-0.12436463
46	0x3e3db3d3	0.18525629
47	0xbdf46b0b	-0.11934479
48	0xbca618b0	-0.020275444
49	0x3d63b2b7	0.055590358
50	0x3bedd086	0.007257524
51	0xbdef49c1	-0.11683989
52	0x3dc86ff7	0.097869806
53	0x3cb2ffde	0.021850523
54	0x3dea9c7c	0.11455628
55	0x3de8c916	0.11366479
56	0xbde7cc28	-0.113182366
57	0xbd462a22	-0.048380025
58	0x3d4636c8	0.048392087
59	0xbe21bc0b	-0.15794389
60	0xbd811a2f	-0.06303822
61	0x3e4d4220	0.20044756
62	0x3d3e447e	0.046452038
63	0x3d889a0f	0.06670009

fc2.weight f4 [64, 64]
0	0xbdb2d53d	-0.08732078
1	0xbc85517d	-0.016274208
2	0xbd73ac06	-0.059490226
3	0x3d463e13	0.048399042
4	0xbb852022	-0.0040626684
5	0x3d07a875	0.033119638
6	0x3dae0901	0.08497811
7	0x3d6871b5	0.056749064
8	0x3d84bfcb	0.06481894
9	0xbd9f4b36	-0.07778017
10	0xbcb1e135	-0.021713832
11	0xbe142b45	-0.14469631
12	0xbdc44631	-0.095837004
13	0xbce78851	-0.028263243
14	0x3c8860cf	0.016647724
15	0xbe042b15	-0.1290706
16	0x3d6d72e8	0.05797091
17	0x3e28a951	0.16470839
18	0x3d34fe1d	0.044187654
19	0x3d122c04	0.035686508
20	0xbe055eb6	-0.1302441
21	0xbe06611e	-0.13122985
22	0x3d5c8306	0.05383589
23	0x3d1f31ee	0.038865976
24	0xbd86a67b	-0.065747224
25	0xbdd28d16	-0.10280816
26	0x3d510975	0.05103441
27	0xbdd6864a	-0.10474832
28	0xbd06809b	-0.03283749
29	0x3cf0caad	0.029393518
30	0xbd6e588e	-0.05818992
31	0xbcbf8cbe	-0.02338254
32	0x3d2e9a5f	0.04262769
33	0xbd6ad049	-0.057327542
34	0x3c8976b6	0.016780239
35	0xbd89cbf9	-0.06728358
36	0xbddc934b	-0.107702814
37	0xbda88103	-0.08227732
38	0x3df01f70	0.11724746
39	0x3d1f8594	0.03894575
40	0x3d94213c	0.072329015
41	0xbd4373c6	-0.047717832
42	0x3d947eb3	0.072507285
43	0xbd5c4104	-0.05377294
44	0x3d0c53b5	0.034259517
45	0xbdd70afe	-0.105001435
46	0xbc4fa0ac	-0.0126725845
47	0x3de9d0fe	0.11416815
48	0xbc6f2658	-0.014596544
49	0xbdcf2580	-0.101145744
50	0x3dd65891	0.104661115
51	0xbdec9ff3	-0.115539454
52	0x3cedb158	0.029015228
53	0xbd533073	-0.051559877
54	0xbc3eb04a	-0.01163871
55	0xbd720ea6	-0.059096
56	0xbe021b29	-0.12705673
57	0x3d836a95	0.06416813
58	0xbe010452	-0.12599304
59	0xbdd3e23c	-0.10345885
60	0xbd93c2c5	-0.07214884
61	0x3bd589d3	0.006516674
62	0xbd3f78ea	-0.046746172
63	0xbdda9ae6	-0.10674076
64	0xbe12b131	-0.14325406
65	0x3b18d11b	0.0023317996
66	0xbdc6a4dc	-0.09699413
67	0x3e074ebc	0.13213629
68	0xbe38cecb	-0.18047635
69	0xbdc71693	-0.097211026
70	0x3d7772d7	0.060412254
71	0xbe07b1f5	-0.13251479
72	0xbce59c77	-0.02802871
73	0x3b9c339c	0.0047668945
74	0xbd88a5f6	-0.066722795
75	0xbdd06f6f	-0.10177504
76	0xbccf0f61	-0.025275888
77	0x3e06524c	0.13117331
78	0x3e2fd714	0.1717189
79	0x3d76556f	0.06014007
80	0x3d8fd99e	0.07023929
81	0x3e47ad84	0.19499785
82	0x3d8ef48f	0.069802396
83	0xba09f9ec	-0.00052633765
84	0xbe758f50	-0.2398045
85	0x3df2580d	0.118332006
86	0xbe1fd7c8	-0.15609658
87	0x3dcb2ca5	0.09920625
88	0xbdfa1c38	-0.122124135
89	0xbd4b8128	-0.04968372
90	0x3d908e2a	0.07058366
91	0x3d1784b0	0.036991775
92	0xbd59d93b	-0.053185683
93	0xbb1ca43d	-0.0023901605
94	0xbdfe80d0	-0.12426913
95	0xbdd22c78	-0.10262388
96	0xbdcde07e	-0.10052584
97	0x3e2ec4c2	0.17067245
98	0xbd7c872c	-0.061652347
99	0xbdec4e60	-0.11538386
100	0x3ca5ace6	0.020224046
101	0xbe531205	-0.20612343
102	0x3e836886	0.25665683
103	0xbe753ac7	-0.23948203
104	0x3befe38a	0.007320826
105	0x3dded66a	0.1088074
106	0x3d024f1c	0.031813726
107	0xbe2c011f	-0.16797303
108	0x3d7feb50	0.06248027
109	0x3c0b73d0	0.008511499
110	0x3d03ff04	0.032225624
111	0xbdbd4960	-0.09242511
112	0x3cb49b3d	0.02204668
113	0xbdd5d3de	-0.10440801
114	0x3e52c85d	0.20584245
115	0x3db23c50	0.0870291
116	0x3c0dcf66	0.008655405
117	0xbd7c151d	-0.061543573
118	0xbd8c1e7b	-0.06841751
119	0xbd2f4d97	-0.042798605
120	0xbd522be0	-0.051311374
121	0xbe6b21d6	-0.22962126
122	0xbdbfb946	-0.0936151
123	0xbd49f424	-0.049305096
124	0xbd6cfce8	-0.057858378
125	0x3ddd06ed	0.107923366
126	0xbe469a42	-0.19394782
127	0x3cfca4b3	0.030840253
128	0xbdcd476e	-0.1002339
129	0xbcb07b30	-0.021543115
130	0xbe4f9379	-0.202711
131	0x3e072024	0.13195854
132	0xbe073117	-0.1320232
133	0xbd3200e4	-0.04345788
134	0xbe025fa2	-0.12731794
135	0xbd238e3e	-0.039930575
136	0xbd54e4eb	-0.051976126
137	0x3cd8fb66	0.026487064
138	0x3da8c9a2	0.082415834
139	0xbe20fd69	-0.15721668
140	0xbe4034cc	-0.1877014
141	0x3d1cb693	0.038260054
142	0x3e0d556b	0.13802116
143	0xbc7db6bf	-0.015485465
144	0x3e93076e	0.28716606
145	0xbce7f754	-0.028316177
146	0x3d44ea3c	0.048074946
147	0x3cd2f78f	0.02575281
148	0xbd61a9b7	-0.055093493
149	0x3ce0bf14	0.027434863
150	0xbe08d9d8	-0.13364351
151	0x3e6d8034	0.23193437
152	0xbdbabcc1	-0.09118033
153	0x3d87f288	0.06638056
154	0xbda3621b	-0.079776965
155	0xbc684fb2	-0.014179157
156	0x3c7a998c	0.0152953975
157	0x3a183834	0.0005806715
158	0xbdfd6982	-0.1237364
159	0xbd8c3be7	-0.06847363
160	0xbce054cc	-0.027384184
161	0x3e110d31	0.14165188
162	0xbe244a0b	-0.1604387
163	0xbd6c2e6b	-0.057661455
164	0xbdb8245b	-0.08991309
165	0xbd232f74	-0.039840177
166	0x3e2d28d6	0.16910109
167	0xbe6ec100	-0.23315811
168	0x3dc8a6bb	0.09797426
169	0x3d9d82e7	0.07690983
170	0xbe245200	-0.16046906
171	0xbe3d7643	-0.18502145
172	0xbcc1ddd5	-0.023665348
173	0xbd378614	-0.0448056
174	0xbe28aae9	-0.16471447
175	0x3d2b1bfb	0.04177473
176	0xbe6ee991	-0.23331286
177	0xbe08a614	-0.13344604
178	0xbd116c2b	-0.035503548
179	0xbdcb6b2f	-0.09932553
180	0xbcd4a915	-0.02595953
181	0xbda42284	-0.08014396
182	0x3dac3932	0.08409347
183	0xbe566b0d	-0.20939274
184	0xbd9ea9b5	-0.07747213
185	0x3e36d2a3	0.17853789
186	0xbe6b381d	-0.22970624
187	0x3c6d838d	0.014496696
188	0xbe027971	-0.12741639
189	0x3d8b1777	0.06791585
190	0x3d7598a4	0.059960023
191	0x3e572358	0.21009576
192	0xbdb1a0c8	-0.08673245
193	0x3c127f20	0.008941442
194	0xbdf3e75c	-0.11909363
195	0xbd84c812	-0.06483473
196	0xbde83306	-0.11337857
197	0x3d2c4278	0.042055577
198	0x3c0a2b80	0.008433223
199	0xbdd55b8e	-0.10417853
200	0x3da26ce0	0.079309225
201	0xbd17505c	-0.03694187
202	0xbde24540	-0.11048365
203	0xbdd92aac	-0.10603842
204	0x3dc787d6	0.097427055
205	0xbd6e03b0	-0.058108985
206	0xbdc2966e	-0.095013484
207	0xbd63aa8c	-0.055582568
208	0xbd3482dc	-0.04407011
209	0x3dbeb8ba	0.093125775
210	0x3db0d758	0.086348236
211	0xbde41ee8	-0.111387074
212	0x3db48ec2	0.088162914
213	0x3d826bda	0.06368227
214	0x3df8721c	0.1213114
215	0xbd560838	-0.05225393
216	0xbcd624a0	-0.026140511
217	0xbce50658	-0.027957126
218	0x3dff7d62	0.12475087
219	0xbde447f2	-0.11146535
220	0x3d3bb3f0	0.0458259
221	0x3d098218	0.033571333
222	0xbd314954	-0.04328282
223	0x3dfd1f30	0.12359464
224	0xbdfb201c	-0.12261984
225	0x3d131990	0.03591305
226	0xbdabdec0	-0.083920956
227	0xbc4daa90	-0.012552872
228	0x3d3b9d98	0.04580459
229	0xbd23db2c	-0.04000394
230	0x3c6f3260	0.014599413
231	0x3d90bcd2	0.070672646
232	0x3deff202	0.11716081
233	0xbdb8c568	-0.09022027
234	0xbdd84256	-0.105595276
235	0xbd88cc1e	-0.06679557
236	0xbd890be2	-0.066917196
237	0xbce1d620	-0.027567923
238	0xbdfbfb74	-0.1230382
239	0x3dd09cbe	0.10186146
240	0xbd6f6478	-0.058445424
241	0xbbec1020	-0.0072040707
242	0xbc688740	-0.014192402
243	0xbc81a5e8	-0.01582618
244	0xbd1c5c30	-0.038173854
245	0xbcef7658	-0.029231235
246	0xbdd499f2	-0.10380925
247	0xbbaed4e0	-0.0053354353
248	0xb99a7800	-0.00029462576
249	0xbdb0b89a	-0.0862896
250	0x3bc0bfe0	0.0058822483
251	0x3d943c84	0.07238105
252	0x3af4ea00	0.001868546
253	0xbd736428	-0.05942169
254	0x3dfc87aa	0.12330563
255	0xbd9d3074	-0.07675257

fc2.bias f4 [64]
0	0xbd0b06ad	-0.033941913
1	0xbd997db6	-0.074946806
2	0x3d1bb555	0.03801473
3	0xbbfbef20	-0.007688418
4	0xbe17f61b	-0.14839976
5	0x3de22205	0.11041645
6	0x3d9e1426	0.07718687
7	0xbe010676	-0.12600121
8	0xbdde2dc6	-0.10848574
9	0xbb0f79ba	-0.0021892623
10	0xbd164a09	-0.0366917
11	0x3d69b1e1	0.057054404
12	0xbd8e244f	-0.06940519
13	0xbd993f0f	-0.074827306
14	0xbd839571	-0.06424988
15	0x3dda9c17	0.10674303
16	0xbdf34247	-0.11877876
17	0xbdc8d7db	-0.09806796
18	0x3cd78d57	0.026312513
19	0xbdf56d42	-0.1198373
20	0x3e28ed91	0.16496874
21	0xbd514aef	-0.051096853
22	0x3c87d740	0.016582131
23	0xbcd843c8	-0.026399508
24	0xbd8a16bf	-0.0674262
25	0x3dc323b7	0.095282964
26	0xbb7b0e41	-0.0038308057
27	0x3dc6911a	0.09695645
28	0xbdc83feb	-0.097778164
29	0x3e3422ec	0.17591447
30	0xbdfe4181	-0.12414838
31	0xbd751484	-0.05983402
32	0xbd9c21f8	-0.076236665
33	0x3d8e5b06	0.06950955
34	0xbddddd08	-0.10833174
35	0x3d981d1b	0.074274264
36	0x3da8859b	0.08228608
37	0xbe12ae01	-0.1432419
38	0xbddc4639	-0.107555814
39	0xbe052401	-0.13002016
40	0xbddab0c4	-0.106782466
41	0xbd4dc508	-0.05023673
42	0xbe00a867	-0.1256424
43	0xbdbeb4ee	-0.09311853
44	0x3d083753	0.033255886
45	0x3e557446	0.20845136
46	0x3c2b659f	0.01046124
47	0x3cb00d22	0.021490637
48	0x3da43373	0.08017626
49	0x3de35cbd	0.11101673
50	0x3e0a5ae9	0.13511242
51	0xbdc5e6d3	-0.09663167
52	0xbaecfd3f	-0.0018080844
53	0x3d303005	0.043014545
54	0xbdaa2dc0	-0.08309507
55	0xbd5c0f8e	-0.05372577
56	0x3bba0d57	0.0056778598
57	0x3dc818bd	0.097703435
58	0xbdaabf87	-0.08337312
59	0xbd3d9c9f	-0.046291944
60	0xbdfcf1be	-0.12350796
61	0x3e02f499	0.12788619
62	0x3cbd8ca0	0.023138344
63	0xbdc830d7	-0.097749405

out.weight f4 [4, 64]
0	0x3c99dc67	0.018781854
1	0xbcfe30f9	-0.031029211
2	0xbe6e8380	-0.23292351
3	0xbdeea208	-0.11651999
4	0xbdaa6a4c	-0.08321056
5	0x3e13ee42	0.14446357
6	0x3d0d07bf	0.034431215
7	0x3cfe41f7	0.031037314
8	0x3d71a85c	0.05899845
9	0x3d871e08	0.06597525
10	0xbd802850	-0.06257689
11	0xbbce521a	-0.0062964084
12	0x3cb6afd7	0.022300644
13	0x3d8495c5	0.06473879
14	0x3b039c97	0.0020082348
15	0x3e07f317	0.13276325
16	0xbe15cd41	-0.1462908
17	0x3c728890	0.014803067
18	0x3ba4d2ac	0.005029997
19	0x3dce1c79	0.100640245
20	0x3d8d3427	0.06894713
21	0x3d334608	0.04376796
22	0xbda4b746	-0.08042769
23	0xbdb2d698	-0.08732337
24	0xbe1ad6ae	-0.15120956
25	0xbd333ae8	-0.04375735
26	0x3defd5d0	0.117107034
27	0xbd3dbf7b	-0.046325188
28	0x3df5604f	0.1198126
29	0x3d94003c	0.07226607
30	0x3b402d82	0.0029324
31	0x3dd6eb6e	0.104941234
32	0xbbb01e57	-0.0053747105
33	0x3d3e1326	0.04640498
34	0xbded6220	-0.115909815
35	0xbd65e295	-0.05612429
36	0x3e1e856a	0.15480581
37	0xbd758c31	-0.05994815
38	0x3db6072e	0.08888088
39	0xbd355558	-0.044270843
40	0xbdf57bb2	-0.11986484
41	0xbdebafd6	-0.115081474
42	0xbc83d4ea	-0.016092736
43	0x3dd3a637	0.10334437
44	0x3e07c2d2	0.13257912
45	0x3dd52191	0.10406793
46	0x3d0c460b	0.034246486
47	0xbd5a3cb4	-0.053280547
48	0x3e02e3a8	0.12782156
49	0x3de24db5	0.11049978
50	0x3e127b58	0.14304864
51	0xbc719900	-0.014745951
52	0xbd7eaaf9	-0.06217477
53	0xbe8bcc63	-0.27304372
54	0xbd3e36f9	-0.046439145
55	0xbd06a218	-0.03286943
56	0xbd169dd7	-0.03677162
57	0x3e0fe7a1	0.14053203
58	0x3d813073	0.06308069
59	0xbc45ab7a	-0.012064809
60	0x3df63df4	0.12023535
61	0x3d70463c	0.05866073
62	0x3e2368d3	0.15957956
63	0x3da9cee6	0.08291416
64	0xbdb435e2	-0.0879934
65	0xbc8eee80	-0.01744771
66	0x3cfb4873	0.030674195
67	0x3ddfcca6	0.109277055
68	0xbdae732a	-0.085180596
69	0x3c2a549f	0.010396152
70	0xbdb926ee	-0.090406284
71	0xbdeab023	-0.11459377
72	0x3ce7e0f8	0.028305516
73	0xbdd0f24f	-0.10202467
74	0xbde0e405	-0.10980991
75	0xbed0d741	-0.40789226
76	0xbd8a33f8	-0.067481935
77	0xbc8039d5	-0.015652576
78	0xb9b65c8e	-0.00034782704
79	0xbd131583	-0.035909187
80	0xbd7d412e	-0.06182974
81	0xbdeb1e15	-0.11480347
82	0xbad93ab9	-0.0016573287
83	0xbcf45325	-0.029824803
84	0x3e01647f	0.12635992
85	0xbd842090	-0.06451523
86	0x3b4a1f58	0.0030841436
87	0x3d422d68	0.047406584
88	0xbd8ab548	-0.06772858
89	0x3e0fde79	0.1404971
90	0x3c7004f0	0.014649615
91	0xbce9d8e5	-0.028545806
92	0xbcef1a5f	-0.02918738
93	0x3e0b185f	0.13583516
94	0x3bcf4647	0.0063255164
95	0xbd2404dc	-0.040043697
96	0xbdf6391f	-0.12022614
97	0x3def058a	0.11670978
98	0xbc9c5a5d	-0.019086057
99	0x3df4834f	0.119391076
100	0x3deb6c15	0.114952244
101	0x3d842519	0.06452388
102	0x3d77fbad	0.06054275
103	0xbd39a0e4	-0.045319453
104	0xbde24c42	-0.11049701
105	0x3d9cd94c	0.076586336
106	0x3d8a3017	0.06747454
107	0x3d9ea201	0.077457435
108	0x3e2a616c	0.16638726
109	0x3ce45aee	0.02787539
110	0x3e25d126	0.16193065
111	0xbc9f3431	-0.019434066
112	0x3c061915	0.008184691
113	0xbbd4d5d9	-0.006495219
114	0x39e11ed6	0.0004293832
115	0xbc36b203	-0.01115084
116	0xbcd0bfc6	-0.02548207
117	0x3e170df6	0.1475142
118	0x3d3da5ce	0.0463007
119	0xbac655a2	-0.0015131722
120	0xbc9df6f1	-0.01928279
121	0x3d19854d	0.03748064
122	0xbd63567c	-0.0555024
123	0xbd0c8b6e	-0.034312658
124	0xbc8e7408	-0.017389312
125	0x3cf0532e	0.029336538
126	0x3d4c9c02	0.04995347
127	0x3cf534de	0.029932436
128	0x3c1d18cf	0.009588434
129	0x3d85e59d	0.06537936
130	0x3d0c2cff	0.0342226
131	0xbdd33caa	-0.10314305
132	0xbdac0f08	-0.084013045
133	0xbc4b3df1	-0.012404905
134	0x3d950810	0.072769284
135	0xbd1a321b	-0.03764544
136	0xbbfcfb60	-0.007720396
137	0x3e12a698	0.14321363
138	0xbb1f068f	-0.0024265384
139	0x3c80f4a2	0.01574165
140	0xbdba16b8	-0.090863645
141	0xbeb7fc8c	-0.35934865
142	0xbdee03f7	-0.1162185
143	0x3d8e3f8f	0.069457166
144	0xbdae1307	-0.08499723
145	0xbd586528	-0.052830845
146	0xbb911637	-0.004427697
147	0xbd342c64	-0.043987647
148	0x3def310f	0.11679279
149	0x3d9d9194	0.076937824
150	0x3aceceac	0.0015778146
151	0x3dd9bf82	0.1063223
152	0xbdb80ea0	-0.089871645
153	0x3d9d0e7a	0.07668777
154	0xbb1067a2	-0.0022034426
155	0x3db34b0b	0.08754548
156	0x3c1e1333	0.009648132
157	0x3db283c2	0.08716537
158	0xbd7c8b9a	-0.061656572
159	0x3de4e7e0	0.11177039
160	0x3d899d7c	0.06719491
161	0xbd7f657d	-0.062352646
162	0xbca018bc	-0.019543044
163	0x3d8eac87	0.06966501
164	0x3e0d1413	0.13777189
165	0x3c4c3bb0	0.0124654025
166	0xbd18bf23	-0.037291657
167	0xbc1baed1	-0.009502129
168	0xbc4b8010	-0.012420669
169	0x3d9be540	0.07612085
170	0x3dbe8dcb	0.093043886
171	0x3e01649a	0.12636033
172	0x3d05cad5	0.03266414
173	0x3dc98717	0.098402195
174	0x3d9be821	0.076126345
175	0x3da9afd3	0.08285489
176	0x3d05c8f0	0.032662332
177	0x3d36d954	0.044640854
178	0x3d3f6a04	0.046731964
179	0x3dd3be87	0.103390746
180	0x3c6fef7c	0.0146445
181	0x3e80aaae	0.25130218
182	0xbc8bb61a	-0.017054606
183	0xbb14b51b	-0.0022690955
184	0xbe249147	-0.16071044
185	0x3d7ec73c	0.062201723
186	0x3df1de8f	0.11810028
187	0xbe611d70	-0.21983886
188	0xbd8c7322	-0.06857897
189	0x3daf1422	0.08548762
190	0xbb865e54	-0.0041006003
191	0xbe7c78fa	-0.24655524
192	0xbc82e518	-0.015978381
193	0x3d4db953	0.050225567
194	0x3dffcd6d	0.12490354
195	0x3ddec0e6	0.10876636
196	0x3d4177c3	0.047233354
197	0x3e092777	0.13393961
198	0x3e456738	0.19277656
199	0xbd064551	-0.03278095
200	0xbd69bcc0	-0.05706477
201	0xbf0723e9	-0.5278917
202	0x3b55274b	0.003252464
203	0x3d3c79fc	0.04601477
204	0x3e030859	0.12796153
205	0xbc340425	-0.010987316
206	0x3d802fdd	0.06259129
207	0xbd663a3e	-0.056207888
208	0xbd6fd92e	-0.058556728
209	0xbdc95f02	-0.098325744
210	0x3dafbe31	0.08581198
211	0x3d87ef75	0.0663747
212	0x3ddc44c7	0.10755306
213	0xbddfdbce	-0.10930596
214	0x3cf967cd	0.030445004
215	0x3c9d9030	0.019233793
216	0xbdd60ae7	-0.10451298
217	0x3dace7b5	0.08442632
218	0xbde2e346	-0.11078505
219	0x3e3e3d20	0.18578005
220	0xbbcf0d68	-0.006318737
221	0xbd07c3e1	-0.03314579
222	0xbcbec886	-0.023288976
223	0xbc1b45c0	-0.009477079
224	0xbca7ca55	-0.020482222
225	0x3dccb78b	0.099959455
226	0x3db94285	0.09045891
227	0xbbc4ce98	-0.006006073
228	0x3e19e07a	0.15027037
229	0x3dec5046	0.115387484
230	0x3ad90029	0.0016555834
231	0xbd92ed52	-0.071741715
232	0xbd21c2a0	-0.03949225
233	0x3df202ca	0.11816938
234	0x3d99ad4f	0.07503759
235	0xbe0d1926	-0.13779125
236	0x3e2935a4	0.16524369
237	0x3d90ccdd	0.070703246
238	0x3da72fb9	0.08163399
239	0xbd71ab22	-0.059001096
240	0x3c0ea4af	0.008706256
241	0x3cc21a0f	0.023694066
242	0xbc083bba	-0.008315021
243	0x3ca4bf08	0.020110622
244	0x3d9209a2	0.071307436
245	0x3e272921	0.16324283
246	0x3e0bf53a	0.13667765
247	0xbdbf4bc1	-0.09340621
248	0x3d55d1f4	0.05220218
249	0xbcd14757	-0.025546713
250	0x3c5aadfb	0.013347144
251	0x3d2515aa	0.040303864
252	0x3cd7f488	0.026361719
253	0xbbf11784	-0.0073575396
254	0xbe21b6ba	-0.15792361
255	0x3cb8596e	0.02250358

out.bias f4 [4]
0	0xbd192a03	-0.03739358
1	0x3db79415	0.08963791
2	0x3db2e3a0	0.08734822
3	0x3d4eeb3c	0.050517306
