2D Discrete/noisy_dqn_8x8.pt (torch, 36932 bytes, 6 tensors)

fc1.weight f4 [64, 64]
0	0xbe0e0769	-0.13870014
1	0x3d6d899f	0.057992574
2	0x3c30cc11	0.010790841
3	0xbdb59d69	-0.08867914
4	0x3e138843	0.14407448
5	0x3df6a00f	0.120422475
6	0xbc760a52	-0.015017109
7	0x3e727994	0.23679191
8	0x3ce9c26b	0.028535089
9	0xbe25ad16	-0.16179308
10	0x3d676310	0.056490958
11	0x3dc9ec26	0.09859495
12	0xbd6d98fc	-0.058007225
13	0xbdb6a834	-0.08918801
14	0xbccd51d0	-0.025063425
15	0x3d714e91	0.058912817
16	0xbd5866f7	-0.05283257
17	0x3cf24cf5	0.029577712
18	0xbd92b564	-0.07163504
19	0xbc98a50a	-0.018633384
20	0x3e505fb7	0.20349012
21	0x3e2a5f05	0.1663781
22	0x3d936d47	0.071985774
23	0xbe184f31	-0.14873959
24	0xbbececf9	-0.007230398
25	0x3d326e80	0.043562412
26	0xbb714dc0	-0.0036820024
27	0xbd069d94	-0.032865122
28	0xbc1cdc40	-0.009573996
29	0xbce5c978	-0.02805017
30	0x3ec61363	0.38686666
31	0x3dede7f3	0.116165064
32	0x3d633992	0.055474825
33	0x3dd3fa72	0.10350503
34	0xbe0d2d1c	-0.13786739
35	0x3dd9bf59	0.106322
36	0xbbb2cefd	-0.005456804
37	0x3e4d603d	0.20056243
38	0x3e711f3c	0.23547071
39	0x3ce89f8c	0.02839639
40	0x3dece424	0.11566952
41	0x3d8f9e68	0.070126355
42	0xbd969214	-0.07352081
43	0xbdcb806c	-0.09936604
44	0x3d06652c	0.03281133
45	0xbd83367c	-0.064068764
46	0x3e12ae3a	0.14324275
47	0x3c8386a3	0.01605541
48	0x3d3093dd	0.043109763
49	0xbd24ffdf	-0.04028308
50	0xbe189dc9	-0.1490394
51	0x3d1138a8	0.035454422
52	0xbd26cd24	-0.04072298
53	0x3dce8921	0.10084749
54	0x3d88e06e	0.066834316
55	0xbda76f19	-0.08175487
56	0x3c8ddc6a	0.017317016
57	0x3c18dfd6	0.00933071
58	0x3c6193e4	0.01376817
59	0x3dcf57d6	0.10124175
60	0x3d03a29c	0.0321375
61	0xbd8081ed	-0.062747814
62	0xbe344719	-0.17605247
63	0x3d29135c	0.04127823
64	0x3d28aa77	0.041178193
65	0xbdca9f6c	-0.098936886
66	0xbd680dc0	-0.056653738
67	0x3c3b8580	0.011445403
68	0x3becd1a3	0.007227139
69	0x3c5be0b4	0.013420273
70	0xbcc4cb20	-0.024022639
71	0xbc3e6190	-0.01161994
72	0xbd8051de	-0.06265615
73	0x3d4f000e	0.05053716
74	0xbd9b6c32	-0.07588996
75	0xbcb96158	-0.022629425
76	0xbdbc5180	-0.091952324
77	0x3d830ad2	0.06398548
78	0xbc8ff690	-0.017573625
79	0x3d427516	0.047474943
80	0xbcdb0718	-0.026736781
81	0xbdedc278	-0.116093576
82	0xbbead780	-0.007166803
83	0xbb1cac3e	-0.0023906375
84	0xbd5898e4	-0.052880183
85	0xbdee29bc	-0.11629054
86	0x3bbc9920	0.0057555586
87	0x3d8ab43e	0.0677266
88	0xbdc5a9bc	-0.09651515
89	0xbcb8da60	-0.022565067
90	0x3dbd298e	0.092364416
91	0xbd3936f8	-0.045218438
92	0x3dfee3fe	0.1244583
93	0x3dce144e	0.100624666
94	0xbda0d9a4	-0.07854012
95	0x3dbede1e	0.09319709
96	0xbdbef7b0	-0.093245864
97	0xbd788844	-0.060676828
98	0x3bf647c6	0.0075158803
99	0x3c0e3f25	0.008682047
100	0xbdeaa42a	-0.11457093
101	0x3dffdbd5	0.124931015
102	0xbb9693c0	-0.00459525
103	0x3ba8ada0	0.005147651
104	0x3d9d6ba1	0.07686544
105	0x3cb41b32	0.021985624
106	0x3db87096	0.09005849
107	0x3dd7dbfc	0.105400056
108	0x3c5f94e0	0.013646334
109	0xbdf14564	-0.11780813
110	0xbd3c9ca8	-0.046047837
111	0x3c41aab0	0.01182048
112	0x3daaafe6	0.08334331
113	0xbd4bde10	-0.049772322
114	0x3d01d334	0.03169556
115	0xbb8d75af	-0.0043170075
116	0xbcc652c0	-0.02420938
117	0xbdc3708c	-0.09542951
118	0xbdcdda40	-0.100513935
119	0x3c24069e	0.010011343
120	0x3a89a880	0.0010502487
121	0x3e2bb0ca	0.16766658
122	0xbdef1a7e	-0.11674975
123	0x3eaec905	0.3413774
124	0x3e936db0	0.28794622
125	0xbde4e08e	-0.11175643
126	0xbd338ab4	-0.04383345
127	0x3c02d5b0	0.007985517
128	0xbbb4a0c0	-0.005512327
129	0x3a1aae00	0.0005900562
130	0xbd47d520	-0.048787236
131	0xbd290764	-0.041266814
132	0xbddd4712	-0.10804571
133	0x3daf592b	0.08561929
134	0x3dacbce3	0.08434465
135	0xbd88f84a	-0.066879824
136	0xbdfa7540	-0.12229395
137	0x3d0b4650	0.034002602
138	0xbda4efe4	-0.08053568
139	0x3ac45a00	0.0014980435
140	0x3d51e5bc	0.051244482
141	0xbd81084c	-0.06300411
142	0xbde4153a	-0.11136861
143	0x3d1e26a8	0.038611084
144	0x3d00d498	0.031452745
145	0x3d7f312f	0.062302765
146	0xbd84b912	-0.06480612
147	0x3d84022f	0.06445729
148	0x39cc7a00	0.0003900081
149	0x3d4d6d34	0.050152972
150	0xbdfed520	-0.12442994
151	0x3cdc03e8	0.026857331
152	0x3d50a3ec	0.050937578
153	0x3d9ffa5c	0.07811424
154	0x3df0d708	0.11759764
155	0xbaf5df80	-0.0018758625
156	0x3d139cc0	0.03603816
157	0x3cc230a8	0.023704842
158	0xbc238d60	-0.009982437
159	0x3d4484d0	0.047978222
160	0xbc76acc0	-0.015055835
161	0xbd5e7610	-0.054311812
162	0x3e590e8a	0.21196952
163	0x3d552a1c	0.05204211
164	0x3e9213f3	0.28530845
165	0x3d996dda	0.07491656
166	0xbd82de10	-0.06390011
167	0xbd2734b0	-0.04082173
168	0xbd410d30	-0.047131717
169	0xbdf96a92	-0.1217853
170	0xbd86f04a	-0.065888
171	0xbd4ca058	-0.049957603
172	0x3ccfb810	0.025356323
173	0x3ba81760	0.0051297396
174	0x3ce47698	0.027888581
175	0x3d9c7d1a	0.07641049
176	0xbd0d8b6c	-0.03455679
177	0x3d290668	0.041265875
178	0xbdb745c6	-0.08948855
179	0x3cde7ff0	0.027160615
180	0xbdc31128	-0.09524757
181	0x3c83d8c8	0.01609458
182	0x3d826fc5	0.063689746
183	0x3d7316e8	0.059348017
184	0x3d960a5a	0.07326193
185	0x3d1badb8	0.038007468
186	0xbd2be358	-0.04196486
187	0xbdd321fa	-0.10309215
188	0xbd73d374	-0.05952783
189	0xbd096354	-0.033541992
190	0x3d99d5f2	0.0751151
191	0xbd14a74c	-0.03629236
192	0xbd057cdc	-0.03258978
193	0x3e1363cc	0.14393538
194	0x3d46876b	0.04846899
195	0xbd4307ef	-0.047614988
196	0xbcb838b8	-0.022487983
197	0xbceb56a0	-0.02872783
198	0xbd041450	-0.032245934
199	0x3e638be8	0.22221339
200	0xbdb86862	-0.090042844
201	0xbc8553b9	-0.016275274
202	0xbc9cdaa8	-0.019147232
203	0xbd39ad9c	-0.045331582
204	0xbc903ff8	-0.017608628
205	0x3d7acf9c	0.061233148
206	0x3d97c418	0.07410449
207	0xbd4e17d4	-0.050315693
208	0x3c7411d9	0.014896833
209	0x3cb79d8c	0.022413991
210	0x3c6563b9	0.0140008265
211	0xb9e66b83	-0.0004394912
212	0xbd987a08	-0.074451506
213	0xbcada04a	-0.021194596
214	0x3da18174	0.07886019
215	0xbc2c90f4	-0.010532606
216	0x3d872a5f	0.065998785
217	0x3c45dee4	0.012077067
218	0xbd52dfd0	-0.051482975
219	0x3d37ada0	0.044843316
220	0xbd5d12a0	-0.05397284
221	0x3dd1898c	0.10231313
222	0x3dbd696b	0.092486225
223	0xbdb32a4e	-0.08748303
224	0x3d5b9bbc	0.053615317
225	0xbdaeb4fc	-0.08530614
226	0xbd0d7a90	-0.034540713
227	0xbd17dc24	-0.037075177
228	0x3d97b295	0.07407109
229	0x3dfc9187	0.12332445
230	0xbbdf48ac	-0.006814083
231	0xbda7aa66	-0.08186798
232	0x3d291b0f	0.04128557
233	0xbdb100f8	-0.08642763
234	0x3d8d4610	0.06898129
235	0xbd0dd714	-0.034628943
236	0x3c894508	0.01675655
237	0xbdeea154	-0.11651865
238	0xbdb5518c	-0.088534445
239	0x3d8276a3	0.063702844
240	0xbdc22570	-0.09479797
241	0xbce5fd23	-0.028074807
242	0xbcaad5ff	-0.020853994
243	0xbd683950	-0.056695282
244	0x3d0a5086	0.0337682
245	0xbdcc4206	-0.099735305
246	0x3d35e27b	0.04440544
247	0x3d2e1853	0.042503666
248	0xbda9a618	-0.08283633
249	0xbdee4f3c	-0.116362065
250	0xbd279c28	-0.040920407
251	0xbce63c1a	-0.02810483
252	0xbdfee5d2	-0.124461785
253	0x3df232f8	0.11826128
254	0xbd9361d6	-0.07196395
255	0x3da2167c	0.07914445

fc1.bias f4 [64]
0	0x3dfc58b6	0.12321608
1	0xbdc3886c	-0.09547505
2	0xbdcd4588	-0.10023028
3	0xbe06afc7	-0.13152991
4	0x3d21ff8c	0.03955035
5	0xbde5d7dd	-0.11222813
6	0xbdf6b0e8	-0.12045461
7	0xbdfa8d98	-0.12234038
8	0x3c0ec873	0.008714783
9	0xbd3338a9	-0.043755207
10	0xbd78cdde	-0.060743205
11	0x3c9c69f5	0.019093493
12	0xbccb347b	-0.024805298
13	0x3c263aa6	0.010145819
14	0xbc873da7	-0.01650889
15	0x3db02b07	0.08601957
16	0xbc7244ed	-0.014786941
17	0x3d9b003f	0.07568406
18	0x3c261266	0.0101362225
19	0x3db3dced	0.087823726
20	0xbdbdc620	-0.09266305
21	0x3c66cf70	0.014087543
22	0x3cf4a48e	0.029863622
23	0x3c913018	0.017723128
24	0x3dd55c66	0.10418014
25	0xbdf3f9f0	-0.11912906
26	0xbe218ea2	-0.15777066
27	0xbd8012b5	-0.06253568
28	0xbd8835b6	-0.066508695
29	0x3c71e182	0.014763238
30	0x3bb26bf2	0.005444997
31	0xbdefdde5	-0.11712245
32	0x3c687945	0.014189069
33	0xba47cade	-0.0007621477
34	0xbd9ef596	-0.077616856
35	0xbe3bc3a1	-0.18336345
36	0x3de02eb7	0.1094641
37	0x3e11ca22	0.14237264
38	0x3d342441	0.043979887
39	0xbd99aaa6	-0.07503252
40	0xbd4705fc	-0.04858969
41	0x3be7ecd4	0.0070777927
42	0xbe0e50ed	-0.13898058
43	0xbdc0342b	-0.0938495
44	0xbe14596a	-0.14487234
45	0xbdf74930	-0.12074506
46	0xbe1fc7ed	-0.1560361
47	0xbc3cf303	-0.011532548
48	0x3cc66880	0.024219751
49	0xbd2a35a6	-0.04155507
50	0x3df59ac4	0.1199241
51	0xbdb7e18a	-0.08978565
52	0xbd112061	-0.03543127
53	0xbd502edf	-0.05082595
54	0x3cafb8e5	0.02145047
55	0xbdd69ac8	-0.10478741
56	0x3dadaf6f	0.08480727
57	0x3d03373e	0.032035105
58	0xbd640892	-0.055672236
59	0xbda581ac	-0.080813736
60	0xbddeb29c	-0.10873911
61	0xbcb41cb0	-0.021986336
62	0xbc89678d	-0.01677301
63	0x3c821533	0.01587925

fc2.weight f4 [64, 64]
0	0xbcf310ec	-0.029671155
1	0xbd9448ec	-0.07240471
2	0x3d9932a4	0.07480362
3	0x3e5177a3	0.20455794
4	0xbc2d35eb	-0.010571937
5	0x3d0cedac	0.03440635
6	0x3daf1311	0.085485585
7	0x3d3faf90	0.04679829
8	0x3d233a34	0.03985043
9	0xbdab690f	-0.08369648
10	0xbde92267	-0.11383515
11	0xbe0a723d	-0.13520141
12	0xbe2b8e44	-0.16753489
13	0xbb63b6c8	-0.0034746397
14	0xbd70c2cf	-0.058779534
15	0x3dec40f6	0.11535828
16	0xbe3d4a32	-0.18485335
17	0xbb9c2f39	-0.0047663716
18	0xbd947eb5	-0.0725073
19	0x3d5260b7	0.051361766
20	0x3d7e3109	0.062058482
21	0x3c1d798a	0.009611497
22	0xbd922a92	-0.07137026
23	0xbc14d0a3	-0.009082946
24	0xbd3dec71	-0.046368066
25	0x3e23e8a9	0.16006722
26	0xbde41e8f	-0.11138641
27	0x3dc3e6f0	0.09565532
28	0xbdb0df4e	-0.08636342
29	0x3d271279	0.0407891
30	0xbda618c2	-0.08110191
31	0x3d0ce47b	0.034397583
32	0x3c16b50f	0.009198441
33	0x3d320a0f	0.043466624
34	0xbdf7c56d	-0.12098203
35	0x3d974de2	0.07387902
36	0xbe3524ee	-0.17689869
37	0xbe4c65ba	-0.1996068
38	0x3d41acaf	0.047283825
39	0x3ded536c	0.11588177
40	0xbd84e99b	-0.06489869
41	0xbd97d238	-0.07413143
42	0xbda70109	-0.08154494
43	0x3d92847c	0.07154176
44	0x3d9f663c	0.077831715
45	0xbdab6ee6	-0.083707616
46	0xbafe192f	-0.0019386167
47	0xbd937405	-0.07199863
48	0xbe16ce73	-0.14727192
49	0xbe0fc4bb	-0.1403989
50	0xbd06a23f	-0.032869574
51	0xbb9ee1b1	-0.004848682
52	0xbddcd285	-0.10782341
53	0xbe0b6543	-0.13612847
54	0xbe2092ad	-0.15680952
55	0xbcb191b6	-0.021675926
56	0xbde6071b	-0.11231824
57	0xbd969a70	-0.07353675
58	0x3da80843	0.08204701
59	0xbcc4bb18	-0.024014995
60	0x3a722369	0.0009236844
61	0xbc582183	-0.013191584
62	0x3d4fa097	0.05069026
63	0xbdaacc56	-0.08339755
64	0x3db59b58	0.0886752
65	0x3e0ccf01	0.1375084
66	0x3ce64de1	0.028113307
67	0xbdb77c81	-0.08959294
68	0xbacbdd5a	-0.0015553639
69	0x3cdeacdc	0.027182035
70	0xbdb3f64e	-0.08787213
71	0x3d2164bc	0.03940271
72	0xbddf06ff	-0.10890006
73	0xbd5807e4	-0.0527419
74	0x3dfb0416	0.12256639
75	0xbdad56f5	-0.08463851
76	0x3e19b95a	0.15012112
77	0xbd8054bd	-0.062661625
78	0xbe20c93a	-0.15701762
79	0xbd61c9aa	-0.055123962
80	0xbd735d76	-0.059415303
81	0xbdf62800	-0.12019348
82	0xbd857e6f	-0.06518256
83	0x3d891750	0.066939
84	0x3d9bfb29	0.076162644
85	0xbdddef9c	-0.108367175
86	0x3d6364bd	0.055515993
87	0xbde8df62	-0.11370732
88	0xb981978a	-0.00024717703
89	0x3da58493	0.08081927
90	0xbdaf435a	-0.08557768
91	0xbdf9828d	-0.12183104
92	0x3dad61eb	0.08465942
93	0x3d02a660	0.03189695
94	0xbb7d02ea	-0.0038606473
95	0xbca13ded	-0.019682849
96	0xbde9b94a	-0.11412294
97	0xbc90a756	-0.017657917
98	0xbc959802	-0.01826096
99	0xbdd44e18	-0.10366458
100	0x3d683dc9	0.056699548
101	0xb9690e26	-0.00022225882
102	0xbdd22072	-0.10260095
103	0x3d84319f	0.06454777
104	0xbd97d03c	-0.074127644
105	0x3da645cb	0.08118781
106	0x3da9af29	0.08285362
107	0xbc10da32	-0.008841084
108	0xbd8942a4	-0.06702164
109	0xbdac7960	-0.08421588
110	0x3d5d4a6d	0.054026056
111	0xbe1885c0	-0.14894772
112	0x3e303b98	0.17210233
113	0x3df794c7	0.12088924
114	0xbd8b2143	-0.067934535
115	0x3dc77acd	0.09740219
116	0xbe47f5ea	-0.19527403
117	0xbd33f226	-0.043932103
118	0xbdea404d	-0.11438046
119	0x3d87bcf4	0.06627837
120	0xbd2a55de	-0.041585796
121	0x3b0c98dc	0.0021453416
122	0xbd7d3e61	-0.061827067
123	0xbe036b95	-0.12834008
124	0x3d9c6259	0.07635946
125	0xbd8e8840	-0.069595814
126	0xbd348614	-0.04407318
127	0xbcd9df9c	-0.026595883
128	0x3da34be6	0.07973461
129	0xbe0e25ea	-0.1388165
130	0x3d9f823a	0.077885106
131	0xbdc4ce29	-0.096096344
132	0x3cf27b24	0.029599734
133	0x3d5239ba	0.051324584
134	0x3d0e69d3	0.03476889
135	0x3c9f0818	0.01941304
136	0xbdaea232	-0.0852703
137	0xbdffde4d	-0.124935724
138	0x3d463589	0.0483909
139	0x3cae8bce	0.021306898
140	0x3d396d07	0.045269992
141	0xbd95ca46	-0.07313971
142	0xbd72c5a5	-0.05927052
143	0xbe0b157d	-0.13582416
144	0x3d6fd388	0.05855134
145	0x3a82e627	0.0009986804
146	0xbe168c64	-0.14701992
147	0xbb9c4fe2	-0.004770265
148	0xbdf61a09	-0.120166846
149	0x3cbbe5df	0.02293676
150	0xbd8508ac	-0.06495795
151	0xbd45e2c0	-0.04831195
152	0x3d9cccaa	0.07656224
153	0x3d459a83	0.048243057
154	0x3d975df4	0.07390967
155	0x3dc55a66	0.09636383
156	0x3d3f05bf	0.04663634
157	0xbc28a328	-0.010292806
158	0xbc54a8f8	-0.012979738
159	0x3c16d467	0.009205914
160	0xbd6637f8	-0.05620572
161	0xbdca0e52	-0.09866013
162	0x3d690a85	0.056894798
163	0x3def8c61	0.11696697
164	0xbdb24c0b	-0.0870591
165	0xbd0e6a86	-0.034769557
166	0x3d9ab261	0.07553554
167	0xbe6da1ac	-0.23206204
168	0xbe216f6a	-0.15765157
169	0xbe39b5d2	-0.18135765
170	0x3da6d4e2	0.08146073
171	0xbd1b9e4c	-0.03799276
172	0xbe0031c9	-0.12518992
173	0x3db6f2e0	0.089330435
174	0x3d02d140	0.031937838
175	0xbdda7b2c	-0.106680244
176	0x3d2670a2	0.04063476
177	0xbd8a353c	-0.06748435
178	0xbde69909	-0.11259658
179	0x3da9979d	0.08280871
180	0x3c970594	0.018435277
181	0x3e0ef8eb	0.13962142
182	0xbc84b0e3	-0.016197627
183	0x3d520bf6	0.051280938
184	0xbd09a688	-0.033606082
185	0xbd97126a	-0.07376559
186	0xbdf1d3bd	-0.11807964
187	0xbd992b73	-0.074789904
188	0x3e121cbe	0.14268777
189	0xbdf2a14e	-0.11847173
190	0x3d8cd416	0.0687639
191	0xbd97eb19	-0.07417888
192	0xbca940a3	-0.020660704
193	0x3df712d6	0.120641395
194	0x3d8690e9	0.06570608
195	0x3de394c5	0.1111236
196	0x3c9bf3c8	0.019037142
197	0x3d985d3b	0.07439657
198	0x3de7ebd4	0.113242775
199	0x3dc4d1d6	0.096103355
200	0xbe0976af	-0.1342418
201	0xbc565e49	-0.013084003
202	0xbdd410de	-0.1035478
203	0x3cfb1b41	0.030652644
204	0x3da0c621	0.0785029
205	0x3d65ea50	0.05613166
206	0x3cb5ddb5	0.022200445
207	0xbe1a77c2	-0.15084746
208	0xbd734a2c	-0.059396908
209	0xbcd5ac9e	-0.026083287
210	0xbd038eac	-0.032118484
211	0xbdc739a4	-0.09727791
212	0xbc9d9b90	-0.019239217
213	0x3d5b38de	0.05352103
214	0x3d817497	0.06321066
215	0xbe022970	-0.1271112
216	0xbdfb3fb1	-0.122680075
217	0xbe1a1149	-0.15045656
218	0xbc39f2c0	-0.01134938
219	0xbd30bd47	-0.04314926
220	0xbc1affda	-0.009460414
221	0x3d3f3b78	0.046687573
222	0x3de2bae8	0.11070806
223	0x3d224759	0.039618824
224	0xbde7f804	-0.11326602
225	0xbd481250	-0.04884559
226	0x3cda4956	0.026646297
227	0x3da8d448	0.082436144
228	0x3d56df14	0.052458838
229	0xbc79521a	-0.015217328
230	0xbe112af2	-0.14176539
231	0x3d9ede5a	0.07757254
232	0x3dc5fc8e	0.096673116
233	0xbcf89ddc	-0.03034871
234	0x3dd90239	0.10596127
235	0xbd0aba52	-0.033869095
236	0x3b7cb200	0.0038558245
237	0xbd21f300	-0.039538383
238	0xbdfefc6c	-0.124504894
239	0xbd45242f	-0.04813021
240	0xbd060ef8	-0.03272912
241	0x3ac8e07e	0.0015325693
242	0x3d0aef34	0.033919528
243	0x3b767b40	0.0037610084
244	0x3d87dcd7	0.06633919
245	0x3d1a5e98	0.037687868
246	0xbcaf0321	-0.021363797
247	0xbdc5a486	-0.09650521
248	0xbdbb490a	-0.091447905
249	0xbc402411	-0.011727349
250	0x3c2e48ad	0.010637444
251	0x3dc60354	0.096686035
252	0xbd06af58	-0.032882065
253	0x3da17e7b	0.07885452
254	0xbe10cc0b	-0.14140336
255	0x3d6f3ce2	0.05840767

fc2.bias f4 [64]
0	0xbd8a3198	-0.067477405
1	0x3d6f3aa5	0.058405537
2	0xbc04a5bd	-0.008096156
3	0xbdce1dec	-0.10064301
4	0xbdb6d7c6	-0.08927874
5	0xbd0cb83e	-0.034355395
6	0xbe23eb5b	-0.1600775
7	0xbd7cbd18	-0.06170377
8	0xbdae08bd	-0.084977604
9	0xbcedf365	-0.029046724
10	0xbdc2a000	-0.09503174
11	0x3d33d4d6	0.043904148
12	0xbd612e5c	-0.054975852
13	0x3cc32ada	0.023824144
14	0xbd26969f	-0.040670987
15	0x3dd6b092	0.10482897
16	0x3da09aa5	0.07841996
17	0xbdccbeb0	-0.09997308
18	0xbdd9ef2c	-0.106413215
19	0xbd5ca35a	-0.05386672
20	0xbd2800ed	-0.041016508
21	0x3cbe4481	0.023226025
22	0xbde14bbe	-0.11000775
23	0xbdffef66	-0.124968335
24	0x3db1aeb1	0.08675898
25	0x3d4f8cb8	0.05067131
26	0xbd9b61ca	-0.07587011
27	0xbca252c5	-0.019814858
28	0xbde9267a	-0.11384292
29	0xbc9bc8ea	-0.019016702
30	0xbd9edb0a	-0.07756622
31	0xbd97e601	-0.07416917
32	0xbdb1473b	-0.08656164
33	0xbdbdd7da	-0.09269686
34	0xbe0cb9d2	-0.1374276
35	0xbc1df20c	-0.009640228
36	0x3da74c49	0.08168847
37	0xbe0f6ed8	-0.14007127
38	0x39089e8f	0.00013029038
39	0x3d1ba2c3	0.03799702
40	0xbdbb3764	-0.09141424
41	0x3d2e162d	0.042501617
42	0xbdf0b120	-0.11752534
43	0x3ce7f675	0.028315762
44	0xbba71534	-0.005098963
45	0xbdf76bd0	-0.120811105
46	0x3d49f987	0.049310233
47	0x3cc5a8db	0.024128368
48	0x3e03d1f2	0.12873057
49	0xbd426024	-0.047454968
50	0xbb5a08e8	-0.0033269469
51	0xbb5ff53d	-0.0034173273
52	0xbc3cc940	-0.011522591
53	0xbd24af62	-0.04020632
54	0xbd552ea8	-0.052046448
55	0x3dca321b	0.09872838
56	0x3d4d1b59	0.05007491
57	0x3c94d14d	0.018166209
58	0xbdc51876	-0.09623806
59	0xbde4a092	-0.11163439
60	0x3d69a32e	0.057040386
61	0xbdb3ecbc	-0.08785388
62	0xbd2656a5	-0.040609974
63	0xbdb855f9	-0.09000773

out.weight f4 [4, 64]
0	0xbde6b3cb	-0.112647615
1	0xbd70acf1	-0.05875868
2	0xbd01c046	-0.031677507
3	0xbdcbb61a	-0.099468425
4	0xbda69dfe	-0.08135603
5	0x3db066d0	0.0861336
6	0x3cb1fd0b	0.021727106
7	0x3d9033d6	0.07041137
8	0x3dd51354	0.10404077
9	0x3cb75e72	0.022383902
10	0xbd51e8b0	-0.0512473
11	0xbc8eb527	-0.017420365
12	0x3ca2f73b	0.01989328
13	0x3e8779a0	0.2645998
14	0xbdcabde7	-0.09899502
15	0xbd87ea42	-0.06636478
16	0xbd9d870e	-0.07691775
17	0xbcce0e17	-0.025153203
18	0x3d64f583	0.0558982
19	0xbde4c98f	-0.11171257
20	0xbc27a59b	-0.0102323545
21	0x3c725ac3	0.014792147
22	0x3d8fdb4c	0.070242494
23	0x3db858b0	0.09001291
24	0xbd57036e	-0.052493505
25	0x3cb8e573	0.022570347
26	0x3d2ed470	0.042683065
27	0xbc9e4b51	-0.019323023
28	0x3daf491e	0.08558868
29	0xbcccee58	-0.025015995
30	0xbd0512fa	-0.0324888
31	0x3ccad437	0.024759395
32	0x3d47a83a	0.048744418
33	0x3cea4dd0	0.028601557
34	0xbd890e98	-0.06692237
35	0xbbbf8485	-0.005844655
36	0x3d03c70b	0.032172244
37	0xbd572009	-0.052520785
38	0x3d35515f	0.044267055
39	0x3e430f45	0.19048794
40	0x3e0ca9a6	0.1373659
41	0xbd88c498	-0.06678122
42	0x3d06e7c4	0.032935873
43	0x3d2bef06	0.041975997
44	0xbdd39211	-0.10330594
45	0xbbb2c7c0	-0.005455941
46	0xbd8eaaac	-0.06966147
47	0xbd995822	-0.07487513
48	0x3d506dd7	0.050886
49	0x3d2e3f87	0.042541053
50	0x3e33c64c	0.17556113
51	0x3e3bf81a	0.18356362
52	0xbcca3f77	-0.024688466
53	0x3c27f8e0	0.0102522075
54	0xbd482541	-0.048863653
55	0xbd46edc6	-0.048566602
56	0xbd8bc84c	-0.06825313
57	0xbce92aa5	-0.028462717
58	0xbd107d48	-0.035275728
59	0xbde15f1e	-0.1100447
60	0xbda5d488	-0.08097178
61	0x3c115169	0.008869507
62	0xbd4d5e97	-0.050139036
63	0xbd9f0b34	-0.07765809
64	0xbc31d879	-0.010854834
65	0xbd33b817	-0.043876734
66	0x3cc92607	0.024554266
67	0xbc13bf82	-0.009017827
68	0xbda8dddf	-0.082454436
69	0x3c7b9500	0.015355349
70	0x3bc97f97	0.006149243
71	0x3df1bc34	0.11803475
72	0xbd96778f	-0.07347023
73	0xbc90c28f	-0.017670898
74	0x3d8971a8	0.06711131
75	0x3de4b119	0.11166591
76	0x3c40af4c	0.011760544
77	0x3e3fd4bc	0.18733495
78	0x3e457668	0.1928345
79	0xbd927921	-0.0715201
80	0xbe469893	-0.1939414
81	0xbcec728e	-0.028863218
82	0xbd268543	-0.040654432
83	0x3c0fa525	0.008767401
84	0xbc7cc247	-0.015427179
85	0x3d4b92fd	0.049700726
86	0xbbf50475	-0.007477338
87	0xbb4854f6	-0.0030568219
88	0xbe076e77	-0.13225733
89	0x3d59a8d5	0.053139526
90	0x3d3ff0d4	0.04686053
91	0xbca8a6bc	-0.020587318
92	0x3d8744e4	0.06604937
93	0xbd8b9575	-0.06815616
94	0x3e184b00	0.1487236
95	0xbda3de32	-0.08001365
96	0xbc319bb1	-0.010840342
97	0xbdd7021c	-0.10498449
98	0x3cd6bb25	0.026212284
99	0x3d190fc3	0.037368547
100	0x3d925249	0.07144601
101	0xbde29cf0	-0.1106509
102	0xbc73f2b4	-0.014889408
103	0x3e06dbef	0.13169836
104	0xbceda4b7	-0.029009206
105	0xbbd1c95d	-0.006402178
106	0x3dc94aa8	0.09828693
107	0xbdea491d	-0.114397265
108	0xbd3ea3f0	-0.04654306
109	0x3ce55560	0.027994812
110	0xbdbc9b91	-0.092093594
111	0x3d022190	0.03177029
112	0x3dd4e690	0.10395539
113	0xbd0ecdab	-0.03486411
114	0x3d0df417	0.03465661
115	0x3daaf015	0.08346573
116	0x3de0a549	0.10969026
117	0xbd0c00d7	-0.03418049
118	0x3b875f51	0.0041312356
119	0xbdaa52ab	-0.08316549
120	0xbdb42bfb	-0.08797451
121	0xbd4277ff	-0.04747772
122	0xbdeba156	-0.11505382
123	0xbdaa44f4	-0.08313933
124	0xbe419614	-0.18904907
125	0xbcb9a3f6	-0.02266119
126	0xbdd1b8c6	-0.10240321
127	0x3d3e3ba2	0.04644359
128	0xbd0d8b65	-0.034556765
129	0x3d00c2ca	0.031435765
130	0xbcd15dc4	-0.025557406
131	0xbc39a85f	-0.011331647
132	0xbd78027d	-0.060549248
133	0xbc2ee88f	-0.0106755635
134	0xbe0dd679	-0.13851346
135	0x3a860e80	0.001022771
136	0x3e07e975	0.1327265
137	0xbc3adab0	-0.011404678
138	0x3d002cec	0.03129284
139	0x3d7a2649	0.061071668
140	0xbde5102b	-0.111847244
141	0x3e6fbdb2	0.23412207
142	0xbd5e2e40	-0.054243326
143	0x3c69be26	0.014266526
144	0xbdf48fcc	-0.119414896
145	0xbd1ee4a8	-0.038792282
146	0x3d930b27	0.071798615
147	0x3d47b351	0.048754994
148	0xbc0a3930	-0.008436486
149	0x3d630821	0.055427674
150	0xbca98480	-0.020693064
151	0xbd926c5c	-0.07149574
152	0x3d011aa3	0.031519543
153	0x3d527d63	0.05138911
154	0xbd0da334	-0.03457947
155	0xbc009cfb	-0.007849927
156	0xbdaa7ef0	-0.08324993
157	0xbc13a1e6	-0.009010768
158	0x3db0e3c8	0.08637196
159	0x3daf864d	0.08570538
160	0x3caa816a	0.020813663
161	0xbda7a04c	-0.08184871
162	0xbd5b2600	-0.053503036
163	0xbdbc80d9	-0.09204263
164	0x3d8e1748	0.06938034
165	0x3c322b08	0.010874517
166	0xbd19774a	-0.03746728
167	0x3e77da82	0.24204448
168	0x3deb9c75	0.11504451
169	0x3c74b231	0.014935062
170	0xbd97dcb4	-0.07415143
171	0x3c8abf80	0.016937017
172	0x3c8e0be9	0.017339664
173	0xbdde6d76	-0.10860722
174	0x3d0ddd84	0.034635082
175	0xbcbc9c72	-0.023023818
176	0x3e296a46	0.16544446
177	0x3d107a92	0.035273142
178	0x3d97610e	0.073915586
179	0x3daf70a4	0.08566406
180	0xbda4f6c6	-0.08054881
181	0xbc318173	-0.010834086
182	0xbb0f5536	-0.0021870858
183	0x3d471ac5	0.048609514
184	0xbd40103b	-0.04689048
185	0xbd52600a	-0.05136112
186	0xbbc8a820	-0.0061235577
187	0xbd9d747a	-0.07688232
188	0xbdefc906	-0.11708264
189	0xbd1678f1	-0.036736432
190	0xbce1986f	-0.027538506
191	0xbd82cc7c	-0.063866585
192	0x3d1bb464	0.03801383
193	0x3d7c2a7d	0.061563957
194	0xbd00f4dc	-0.031483516
195	0xbd9da804	-0.07698062
196	0xbd99e308	-0.07514006
197	0xbdebec02	-0.11519624
198	0xbcc35603	-0.023844725
199	0xbdb9c6df	-0.09071135
200	0xbd51d5b7	-0.051229205
201	0x3cf26b7a	0.029592264
202	0x3b569340	0.0032741576
203	0xbd832d1e	-0.0640509
204	0xbcd4536c	-0.025918685
205	0x3dc5f6e6	0.09666233
206	0xbdc5667e	-0.096386895
207	0xbbcd79db	-0.00627063
208	0xbd42ec6e	-0.04758876
209	0x3dbdf121	0.09274507
210	0x3b783a26	0.0037876456
211	0x3db005d4	0.085948616
212	0x3d8dc845	0.06922964
213	0x3d05c16c	0.032655165
214	0xbdbfde22	-0.0936854
215	0xbd6839e4	-0.056695834
216	0xbcf14bde	-0.029455122
217	0x3e1df745	0.15426357
218	0x3dfe73aa	0.12424405
219	0x3c3022ac	0.010750454
220	0xbdfacc42	-0.1224599
221	0xbcc57ae3	-0.024106449
222	0x3caca69d	0.021075541
223	0xbcdb4e4d	-0.026770735
224	0x3e135668	0.1438843
225	0x3d7707ec	0.06031029
226	0x3d089e63	0.033354174
227	0x3c1c19a8	0.009527601
228	0x3e0c27fd	0.1368713
229	0xbcfde664	-0.030993648
230	0xbd4793e6	-0.04872503
231	0x3e687910	0.22702432
232	0xbb034f80	-0.00200364
233	0xbcf29a04	-0.029614456
234	0x3d75672c	0.059912845
235	0x3d2de767	0.04245701
236	0xbcc6f6b9	-0.024287568
237	0x3d0b427c	0.03399895
238	0x3c864c94	0.016393937
239	0xbd2eca02	-0.04267312
240	0x3df937bf	0.12168836
241	0xbdbd737c	-0.092505425
242	0x3db339fe	0.087512955
243	0x3e49bbf7	0.19700609
244	0xbda9404f	-0.08264219
245	0x3caf347d	0.021387333
246	0xbcd4f089	-0.025993602
247	0x3cbc1cbe	0.022962924
248	0x3c263e27	0.010146654
249	0xbdacefc4	-0.08444169
250	0xbcd73128	-0.026268557
251	0x3d3c8ebc	0.04603456
252	0xbd9de24c	-0.07709178
253	0xbe0bbe91	-0.13646914
254	0xbd8cd839	-0.06877179
255	0xbdc2487b	-0.09486481

out.bias f4 [4]
0	0x3d7d7698	0.061880678
1	0x3e038d57	0.12846886
2	0x3d329436	0.043598376
3	0x3d13b8d9	0.036064956
