2D Discrete/models/d3qn/d3qn_10x10.pt (torch, 96230 bytes, 5 tensors)

hidden.0.weight f4 [150, 150]
000000 37 24 dc bc 26 8b 9e bd c0 89 56 bd 15 c1 9b bd
       -0.026872737 -0.07741384 -0.052377462 -0.07605187
000010 be ee 1e bd 8b 63 00 bd 75 f5 35 bd 0b 17 58 bd
       -0.0388019 -0.03134493 -0.04442354 -0.05275635
000020 d6 14 3e bd d1 44 2f bd d5 b3 8d bd e1 d0 40 bd
       -0.04640659 -0.042790238 -0.06919066 -0.047074202
000030 f6 29 89 bd 88 fe 7d bd 8a 84 85 bd 4a 8e 3c bd
       -0.066974565 -0.062010318 -0.065194204 -0.046034135
000040 09 e7 51 bd 55 38 88 bd 24 b6 93 bd b8 48 5b bd
       -0.051245723 -0.066513695 -0.07212475 -0.053536147
000050 2c 8b 9a bd e6 bb c4 bd 5a c9 aa bc 67 dc 8d bd
       -0.07546076 -0.09606151 -0.020847965 -0.06926804
000060 0d 3e 91 bc 4a eb 13 bd 2d d3 9a 3c 68 3e 8c bd
       -0.017729783 -0.03611306 0.018899525 -0.068478405
000070 bc 69 2b bd 99 1a 9d bd 59 e8 9e bd ec 6f a4 bd
       -0.041848883 -0.07671089 -0.077591605 -0.0802916
000080 88 71 a4 bd 72 70 11 bd ab ba a3 3c 44 50 82 bd
       -0.08029467 -0.035507627 0.019986471 -0.06362966
000090 21 f1 82 bd 4d c3 c2 bd 6d f6 ac bd 6f 6e 21 bd
       -0.06393648 -0.09509907 -0.084454395 -0.03941196
0000a0 eb dc a7 bd 09 02 f1 3a 86 d7 63 bd d4 7d 12 bd
       -0.08196434 0.0018387447 -0.05562546 -0.03576453
0000b0 a3 0a 9a bd 0d 5e 7c bd 46 4d d4 3c a9 9a 40 bd
       -0.0752156 -0.06161313 0.025915753 -0.047022495
0000c0 6f e6 24 bd 23 56 61 bd b8 df 15 bd 5f a3 3f bd
       -0.04025882 -0.055013787 -0.036590308 -0.046786662
0000d0 80 63 5d 3d af a8 30 bd a6 4f 09 bd 0f df 37 3d
       0.05404997 -0.04312962 -0.033523224 0.04489046
0000e0 47 18 90 bd fe 57 82 bd f0 5b 2c bd 85 a5 bb 3d
       -0.070358805 -0.063644394 -0.042079866 0.0916243
0000f0 b9 f6 ea bc 7e 64 a1 3d 4d 92 70 bd 38 00 b8 bd
       -0.0286821 0.078804955 -0.058733273 -0.08984417
000100 8e 02 0b bd 0b 72 05 3d 2a a7 7a 3d 0e d9 06 3e
       -0.033937983 0.032579463 0.061194576 0.13168737
000110 91 f2 10 3e 86 57 08 3e 06 1c a4 bd 63 3e cc bc
       0.14155032 0.13314638 -0.080131575 -0.024932092
000120 b1 3c 2d bd 87 c5 5c bd fa db 28 bd 6c 7e f4 3c
       -0.042294208 -0.053899314 -0.04122541 0.029845439
000130 cf 00 a4 bd fb 14 c0 bd 03 9e 9b bd 28 c9 48 bd
       -0.08007967 -0.09379002 -0.07598498 -0.049019963
000140 3d c3 c8 bc d5 a5 47 3d b4 2e 17 bd 42 17 d8 bc
       -0.02450716 0.048742134 -0.036909774 -0.026378278
000150 87 9e fc bc ca 60 b3 bc 83 7f 3d bd 32 17 9b 3d
       -0.03083731 -0.021896739 -0.046264183 0.075727835
000160 3b 7e 8e bd 5d a1 25 3e e2 95 4c bd 8d 1c d9 bc
       -0.0695767 0.16174836 -0.049947627 -0.026502872
000170 45 61 e1 bc 39 01 ef 3d 4c 24 84 bd b6 0a 2a bd
       -0.027512202 0.11670155 -0.064522356 -0.04151412
000180 4b 45 06 bd 8c 29 44 bd 17 5b 58 bd f8 50 96 bd
       -0.032780927 -0.047891185 -0.052821245 -0.07339662
000190 99 08 29 bd fa 47 98 bd bc 26 5d bd a6 3c 59 3d
       -0.041267965 -0.074356034 -0.053992018 0.053036354
0001a0 37 e5 6d bd b0 d4 10 3e 5a 80 22 bd fa 4d 18 bd
       -0.058079924 0.14143634 -0.039673187 -0.03718374
0001b0 a6 3b 79 bd 81 b1 3a bd 06 2c 3a bd 2a 1e 06 3d
       -0.0608479 -0.045579437 -0.04545214 0.03274361
0001c0 da 53 88 3d fa e3 66 bd f3 b3 64 bc c4 ca 2a bd
       0.066566184 -0.05636976 -0.013958919 -0.04169728
0001d0 43 32 f2 bc 63 a9 71 3d 76 b8 21 3d 37 6b 9f 3e
       -0.029564982 0.05899943 0.039482556 0.31136486
0001e0 ed ae 9d 3b b6 f0 a5 3d 7c 95 79 bd 55 f5 6e bd
       0.0048121125 0.081025526 -0.060933575 -0.058339436
0001f0 e7 21 7d bd 41 03 ef bc 08 8a 9a bd df b4 ae 3d
       -0.06179991 -0.029176356 -0.075458586 0.08530592
000200 43 6e 8c 3e 26 a6 0e 3e e9 04 15 3c 69 15 73 bd
       0.27427873 0.13930568 0.009095409 -0.05934659
000210 86 04 95 bd 55 58 b1 3d 91 05 85 bd 06 8a 02 3e
       -0.072762534 0.08659426 -0.06495202 0.12747964
000220 9b 4d fa 3d 6b 6b fb bc 5c d8 3c bd 7b d5 b4 bd
       0.12221833 -0.03069087 -0.046104774 -0.08829781
000230 8c 7e 2d bd b9 1a 63 bc 24 79 18 3d 2f de 4d 3d
       -0.042357013 -0.013861352 0.037224904 0.05026072
000240 90 43 93 bd 95 80 96 3d 5a 61 e8 bc 50 4d ea bb
       -0.07190621 0.07348744 -0.028366733 -0.0071503296
000250 02 4b 44 3d 21 60 4a bd d7 da 5d bd 8b 0c 00 3b
       0.047923096 -0.049408082 -0.05416378 0.0019538726
000260 58 62 5c 3d 06 90 71 3c 61 ef 3c 3d 6f 6e c1 3c
       0.053804725 0.0147438105 0.046126727 0.02361223
000270 18 bb 94 bd 7c 1b 6e 3c 1f de 4d 3c 37 7c 53 bc
       -0.07262248 0.01453292 0.012565165 -0.012908033
000280 92 14 7e bd 74 a8 8f bd 67 b7 52 3d 6e 66 84 3c
       -0.062031336 -0.07014552 0.051444437 0.016162124
000290 d4 8c 9b 3c c9 2a 78 3c 94 6f 68 3c 1f 9a 96 bd
       0.01898805 0.0151469195 0.014186759 -0.07353615
0002a0 70 71 77 3d 0b 9f 35 3d c7 4a 39 bd fb 7e 14 bd
       0.060410917 0.04434113 -0.04523733 -0.03625391
0002b0 b6 4e 90 bd f9 db 4c 3d b0 27 f2 bb 2d 13 30 bd
       -0.07046263 0.05001447 -0.007389985 -0.042987037
0002c0 95 5e a4 3c 0d 9a 09 bd 89 67 9a bd 72 22 71 3d
       0.020064631 -0.03359418 -0.07539279 0.05887074
0002d0 10 2b f8 3c 7c e2 83 3d 97 a3 c5 3c d8 9e 76 bd
       0.030293971 0.06439683 0.024125857 -0.06021008
0002e0 a1 6c 8f 3d 14 92 27 3c 00 ff 0d bc 0c 36 fe 3a
       0.07003141 0.010227699 -0.008666754 0.0019394769
0002f0 33 87 89 3d 7e 14 3d bd 5f 54 56 3d 59 65 53 3d
       0.0671524 -0.04616212 0.052326556 0.051610325
000300 b8 2c 68 bd c4 b2 50 3d 9e 20 47 3c db 12 57 bd
       -0.056683272 0.050951734 0.012153773 -0.052508216
000310 b6 6b 3d 3d cf cb ef bb 10 12 1e bc 5f 6e 36 bd
       0.0462453 -0.007317997 -0.009647861 -0.04453885
000320 9e fa 8c 3c 24 d4 19 bd 0e ae 91 bd 3c 26 de bc
       0.017209347 -0.03755583 -0.071132764 -0.027117841
000330 ab 89 15 bd 2a 01 67 bd 69 fe 95 3d 3f 10 53 3d
       -0.036508244 -0.056397595 0.073239155 0.051529165
000340 75 17 89 bd 95 6e 5d 3c ce 9e 3d 3c 34 25 7c 3c
       -0.06693927 0.013515134 0.0115735065 0.015389729
000350 3c 19 5b 3d d1 8a 84 3d 1f 0d 03 bd 9f b4 81 3c
       0.053490862 0.0647179 -0.031994935 0.015833197
000360 dd ee 3d 3c 18 43 b0 3c 24 23 09 bd 41 ec de bc
       0.011592594 0.021516368 -0.03348078 -0.027212264
000370 2d 5c 0f bc ea b2 28 bc e1 84 58 3d 90 91 9a bd
       -0.008750004 -0.010296563 0.0528611 -0.07547295
000380 5a 64 a6 3d a0 b9 84 bd 11 80 e7 3c 60 d2 f5 3c
       0.08124609 -0.06480718 0.028259309 0.030007541
000390 20 2e f4 3c e6 fa a5 bd 72 d6 be 3c e1 a9 9a 3a
       0.02980715 -0.08104496 0.023295615 0.0011799895
0003a0 d2 ec 0c 3c f4 42 93 ba c9 51 96 3c 7f be 9e 3d
       0.008601384 -0.0011235164 0.018349545 0.07751178
0003b0 b6 c1 63 3d ed 8a a6 bd 97 f1 8f 3d 4f 91 25 bd
       0.05560466 -0.08131967 0.070285015 -0.04042178
0003c0 48 aa 0f 3d 97 98 a6 bd 73 6b 73 bd 72 99 8a bd
       0.035074502 -0.08134573 -0.059428643 -0.067675486
0003d0 b4 1f 37 bd 88 1b a6 bd 38 87 19 bd 1e e6 93 bd
       -0.04470797 -0.0811072 -0.03748247 -0.07221626
0003e0 3d 96 d1 3c 89 72 55 bd ca 26 dd 3c 6b b5 fe 3b
       0.025584335 -0.052111182 0.026996035 0.0077730916
0003f0 d2 d6 75 3c 36 24 5f 3d 87 70 3b bd 86 56 97 bd
       0.01500483 0.054477893 -0.04576161 -0.0738955

hidden.0.bias f4 [150]
000000 a8 38 91 3c 04 cc a7 bd 43 bb a8 bd be d8 c8 3d
       0.017727211 -0.0819321 -0.08238842 0.09806965
000010 42 5c bf bd ac c0 b1 bd 66 57 e5 bd b9 aa b9 bd
       -0.09343769 -0.08679327 -0.111983106 -0.09065766
000020 cd f0 0b 3d 57 43 b0 bd 61 ca a2 bd b2 3e e0 bd
       0.034165192 -0.08606594 -0.07948757 -0.10949458
000030 c3 22 d8 bd 26 36 ea bd 50 fd fe bd e2 6e c3 bd
       -0.10553505 -0.11436109 -0.12450659 -0.095426336
000040 57 ff 31 ba 8d 38 33 bd 61 89 a1 bd 95 09 a4 bd
       -0.0006790063 -0.043755103 -0.07887531 -0.0800964
000050 0b a2 a8 bd 0e d2 d1 bd 0c bc e3 3d 29 f1 a3 bd
       -0.08234032 -0.10245143 0.111198515 -0.08004982
000060 51 e5 09 bd 4e a6 a4 bd 7e f7 a8 bd 42 02 f3 bc
       -0.03366596 -0.080395326 -0.082503304 -0.029664163
000070 6d e9 ed bc ba fd 6b 3c 57 71 f2 bd bd 1b cd 3d
       -0.02904197 0.014403755 -0.11838024 0.10015056
000080 05 ed 97 3c 15 9e 07 be 92 83 c6 bd 4c ed 87 bd
       0.018545637 -0.13243897 -0.09693064 -0.06637058
000090 82 5a 9e bd ac 44 9f bd 44 06 a1 3d 5f 53 06 be
       -0.07732107 -0.0777677 0.07862523 -0.13117741
0000a0 36 b7 82 3d e9 ee bc bd d0 50 15 bd 47 5c 95 bd
       0.06382601 -0.09225256 -0.036454022 -0.07292991
0000b0 59 c0 85 bd 69 3e 9f bd 10 66 58 bd 3b 7b d4 bd
       -0.06530828 -0.07775576 -0.05283171 -0.10375067
0000c0 5b 5e e4 3c 87 e2 83 bd c3 d8 f6 3c ae a4 92 bd
       0.027877023 -0.06439691 0.030132657 -0.071603164
0000d0 69 06 7a 3d 2e 56 fe bd 0d 34 2d 3c 0f 31 cb bd
       0.06104127 -0.12418781 0.010571492 -0.099214666
0000e0 c6 83 35 bd 51 4e 72 bc 8b 96 0e be a7 17 e4 bd
       -0.044315122 -0.01478918 -0.13924615 -0.11137324
0000f0 22 9d d4 bd 4f b1 a3 bd 0c 73 a3 bd 35 b7 ca bd
       -0.10381533 -0.07992803 -0.07980928 -0.09898225
000100 e1 9c 93 bd 41 15 97 bd eb 8c 9f bd 13 ea aa bd
       -0.07207657 -0.07377101 -0.0779055 -0.08345427
000110 5b f5 d0 bd 7b ee e8 3d d0 8b 84 bd 11 68 d9 bc
       -0.10203048 0.113736115 -0.064719796 -0.02653888
000120 e3 3b 77 3c d9 45 95 3c 76 25 ce bc 0c 76 ad bd
       0.015089962 0.018221783 -0.025164347 -0.08469781
000130 55 bc a5 bd 5d 1e a0 bd dd f6 ac 3c 4a 8c 9f bd
       -0.08092562 -0.07818291 0.021113807 -0.0779043
000140 94 28 a7 3c 1f 77 86 bd 0f f3 7a bd ee 4a 76 3c
       0.020405091 -0.06565689 -0.061266955 0.015032513
000150 00 fa eb bd 92 f9 58 bb 88 34 e6 bd 15 01 c4 bd
       -0.11522293 -0.003310774 -0.11240488 -0.09570519
000160 31 1c f7 bd d1 34 ad bd f4 09 e2 bd 12 c9 af bd
       -0.12065924 -0.084573396 -0.11037055 -0.08583273
000170 f4 2d fb bd 69 4f a8 bd 07 9f 88 3d fe c5 ce bd
       -0.12264624 -0.08218271 0.06670957 -0.10096358
000180 38 21 1e bd 20 c9 d0 bd c3 12 55 bd 23 ea dc 3c
       -0.0386059 -0.101946115 -0.052019846 0.026967114
000190 81 6d 01 be e2 99 12 3d 6a d1 b6 bc f7 a4 ac bd
       -0.12639429 0.035791285 -0.022316653 -0.08429902
0001a0 bf c1 82 bd 4b e2 a0 bd 7c f4 9f bd 71 80 a9 bd
       -0.063846104 -0.07855662 -0.078103036 -0.082764514
0001b0 32 08 7d 3d 15 61 db bd c7 ff bb bc 7a bd 72 bb
       0.061775394 -0.10711876 -0.022949113 -0.0037039206
0001c0 1c 32 e3 bb 77 02 d2 bd 29 25 19 bb b6 0b 06 bb
       -0.0069334637 -0.102543764 -0.0023368096 -0.0020453758
0001d0 49 4c 7c bd 77 6e 00 be ff b6 82 3d 0c dd b7 bd
       -0.06159619 -0.12542139 0.0638256 -0.08977708
0001e0 84 1c e8 bd f4 1a a5 bc e2 04 9f bc cf 76 9b bd
       -0.11333564 -0.020154454 -0.019411508 -0.0759102
0001f0 45 19 ff 3d 35 0a 8a bd 20 90 9a bd 72 44 3e bc
       0.12455992 -0.06740228 -0.07547021 -0.011612998
000200 67 77 c9 bd 28 7c ae 3c 1f ab 8c bd 8f 17 92 bd
       -0.09837227 0.021299437 -0.06868576 -0.071334
000210 ce 57 a9 bd 5c 02 86 3d a7 5d 2d bc d2 57 b8 bd
       -0.082687005 0.06543419 -0.0105814105 -0.090011254
000220 37 0e 07 be cb 4e a6 bd a9 7d a8 bd c4 ab 34 bd
       -0.13189016 -0.08120497 -0.08227093 -0.04410912
000230 67 cf 8e bd 0e cb dc bd 1f 9d 13 bd 22 57 07 be
       -0.069731526 -0.10780917 -0.036038514 -0.13216832
000240 7f 17 11 3d 73 12 b9 3d fe 3e e1 3c 0c fb dd bd
       0.0354228 0.09036722 0.027495857 -0.10838899
000250 5c b5 29 bd a2 3b 0a be
       -0.041432723 -0.1349931

advantage.weight f4 [4, 150]
000000 63 68 3f be 0e 1f b1 3c 2b d2 d0 ba b7 39 ed bd
       -0.18692164 0.021621253 -0.0015931776 -0.11583274
000010 75 7b 97 bc 4a 94 70 3d e3 ba b5 3b c9 34 92 bb
       -0.018491486 0.05873517 0.0055459603 -0.004461859
000020 63 b1 d7 bd 0b df 16 bc 04 46 09 bd ca 59 b8 3d
       -0.10531881 -0.009208451 -0.033514038 0.09001501
000030 02 c2 34 bd 2d db c3 3d 81 cd 25 bd 45 ff 87 3d
       -0.044130333 0.09563289 -0.040479187 0.06640486
000040 ce 58 d0 bc 09 c1 19 bc e4 78 96 bc 55 c5 d3 3c
       -0.02543297 -0.009384402 -0.018368192 0.025850931
000050 fc 29 4a 3c c5 96 de 3c 68 7c ec 3c 68 6e 65 bc
       0.012339111 0.027171502 0.028867915 -0.014003374
000060 79 58 8b 3d f6 1a 4c bd 99 58 8f bb 78 0d fa bd
       0.06803984 -0.0498304 -0.0043745753 -0.122096
000070 bd e1 61 3d 7e 94 58 be 1e 02 15 3d 36 17 a3 3c
       0.05514692 -0.21150395 0.036378972 0.019908529
000080 b1 5b b5 3d de 39 03 3e 63 38 50 3d d5 67 00 3e
       0.088553794 0.12815043 0.050835025 0.12539609
000090 cb a2 25 be 0f 7c b9 3c 60 85 ba 3d 87 d9 fa 3b
       -0.16175382 0.022642164 0.091074705 0.007655326
0000a0 00 71 7d bd 92 c4 1c bd ec fe 93 3d 5f 1c 62 bc
       -0.061875343 -0.0382734 0.07226357 -0.0138007095
0000b0 d3 fa ae 3d 69 cc 83 bd ff 40 06 3d 16 4a 4c bd
       0.08543935 -0.064354725 0.03277683 -0.04987534
0000c0 f2 74 1e 3e c9 6d a0 bc 24 af 15 3e 7f 39 71 bc
       0.15474299 -0.0195836 0.14617592 -0.014723181
0000d0 4e cc ba bd b8 81 f0 bd a7 c2 af 3d 5d 7c 88 bd
       -0.09120999 -0.11743492 0.08582049 -0.066643454
0000e0 92 fe d0 bb e1 d9 9c bd 2d 6c 4b bc 54 25 a7 3d
       -0.0063780034 -0.076587446 -0.012415928 0.08161417
0000f0 82 32 83 bc d7 51 37 3d 77 7d 2c 3d b4 e5 45 3d
       -0.016015295 0.044755783 0.04211184 0.048314765
000100 c4 b6 17 3c 42 54 91 3d d2 1d 15 3c f6 0a 47 3d
       0.009259883 0.07096149 0.009101348 0.048594438
000110 4c 74 a6 bc b3 35 ca bd 54 d5 91 bc e7 2b a9 3d
       -0.020319127 -0.098735236 -0.017801918 0.08260327
000120 eb f7 7b bc b7 01 d7 3d b6 95 8f 3d dc b4 80 3d
       -0.0153789325 0.10498374 0.07010977 0.06284496
000130 fd 14 a4 3d 17 cc cd bc d1 da 2d 3d ff c4 e6 bc
       0.08011816 -0.025121732 0.042445008 -0.028170107
000140 c1 2f 8c 3d ac 3c 58 3d 0e 00 09 be d7 ee 39 3c
       0.06845046 0.052792236 -0.13378927 0.011348448
000150 6a ca 95 bd 9c c7 46 be 28 29 5c 3b ea 34 f7 3c
       -0.07313998 -0.19412082 0.0033593867 0.030176599
000160 70 de 1d 3d d2 38 39 bd 43 dd d1 3c 4a c3 ca 3c
       0.03854221 -0.045220204 0.025618201 0.024751324
000170 51 4f 15 be 47 e3 11 be 47 41 1c 3d 79 fc 29 3d
       -0.14581038 -0.14246856 0.03814819 0.041500542
000180 dd db 8a bd 85 67 ec bd 11 37 3a be 42 8f 16 be
       -0.06780217 -0.11543182 -0.18185069 -0.14703086
000190 b6 4d 33 3d e0 c9 89 bd 69 08 82 3d db 54 1d 3d
       0.043775283 -0.06727958 0.0634926 0.038411003
0001a0 fc dc 18 3d 74 b4 65 3c 5b 9b 86 3d 60 48 66 bd
       0.037320122 0.014020074 0.065726005 -0.056221366
0001b0 a9 f5 0b bd 5f eb 64 bd 06 00 e5 3c 93 8a a7 be
       -0.034169827 -0.05588853 0.027954113 -0.3272291
0001c0 3d c4 d7 3c 0f ca 6c 3e 92 9f 50 3d 85 34 06 3e
       0.02633869 0.23123954 0.050933428 0.13105972
0001d0 05 45 9d bc 8a 39 c5 bc 3f 7e 98 bd 18 1d 19 3c
       -0.01919795 -0.024075288 -0.074459545 0.009345315
0001e0 ff 77 58 bd 85 c4 5f be 24 af 98 3d b2 a2 90 bc
       -0.052848812 -0.2185231 0.074552804 -0.017655704
0001f0 7a bf 0f 3d 04 ba 23 3d c9 ea 29 bc 55 10 d9 3d
       0.035094716 0.03997232 -0.010370919 0.10598818
000200 b5 0b e0 bb 50 4f ee bd 30 3e 5b be ba ae 40 3d
       -0.006837333 -0.116362214 -0.21410441 0.047041632
000210 97 bd 53 bd 62 f6 a8 3c 5a b1 01 3d e8 41 16 be
       -0.05169448 0.020625297 0.031663276 -0.14673579
000220 54 7c 36 3c ef 9a 02 bc d8 b2 af bc 93 7b a0 3d
       0.011138041 -0.007971509 -0.021447584 0.0783607
000230 a7 a7 4c be 94 df b2 3d 37 4d 2f be 29 a5 d5 3d
       -0.1998583 0.087340504 -0.17119299 0.104318924
000240 0c 44 27 3e 4f e8 60 be 39 50 9c 3d fd 8f 99 3d
       0.16334552 -0.21963619 0.07632489 0.07498167
000250 72 59 8d bc cb 9b 3e bd ef 07 a0 3d 45 98 e5 3b
       -0.017254565 -0.046535295 0.07814013 0.0070066773
000260 9f 6d 13 bd b9 d4 1e 3d 04 46 93 bc ae 01 f4 bb
       -0.035993215 0.038777087 -0.017977722 -0.0074464893
000270 bd d0 f0 bb 7e 41 49 bd f6 91 99 bd 09 8b 87 bc
       -0.0073491023 -0.049134724 -0.07498543 -0.01654579
000280 4c d1 92 3d 0d 60 ec 3c b3 61 01 3d 48 eb d8 bc
       0.071688265 0.028854394 0.031587314 -0.026479378
000290 78 25 37 bc 92 43 fb 3c 8e bf 9a bd c9 bd b9 3c
       -0.011178367 0.030671868 -0.075560674 0.022673504
0002a0 29 16 c0 3c 25 e2 e2 bd 45 ed e7 bc 95 77 ca bd
       0.023448067 -0.1107829 -0.028311381 -0.0988609
0002b0 22 e8 c6 3c 38 10 d3 3c 83 09 5d bd 39 01 17 be
       0.024280611 0.02576457 -0.05396415 -0.1474656
0002c0 2f f9 40 bd d9 c7 c4 bb ed 8e 98 3d 44 59 1c 3d
       -0.04711264 -0.006005269 0.07449136 0.038171068
0002d0 56 e2 8b 3b d4 c1 b2 bc 35 2e 96 bd b9 11 13 bd
       0.0042689247 -0.02182094 -0.07333032 -0.035905574
0002e0 be a7 3d 3c d3 a5 1a be c7 34 01 bd b0 05 5b 3c
       0.011575637 -0.1510232 -0.031544473 0.013368055
0002f0 fc 53 e2 bd d4 41 6d bd ba e4 95 bd 94 3e 64 3c
       -0.11051175 -0.057924107 -0.07319017 0.013930935
000300 21 02 3f be 06 e0 73 bd 1a 99 9e bb cd 16 80 bc
       -0.18653156 -0.059539817 -0.0048400285 -0.015635872
000310 6e 19 cf 3b 71 2f 69 3d a2 3f 65 3d a8 7f 1b be
       0.00632017 0.05693001 0.055968888 -0.15185416
000320 18 6a 1b 3c a2 57 9c bd 5a bb d2 3b 32 cb c7 3c
       0.009485744 -0.07633902 0.0064310255 0.024388883
000330 56 77 a9 bd c0 a0 22 3d c6 58 b2 3d 0b d7 6d 3c
       -0.08274715 0.039704084 0.087083384 0.014516602
000340 07 f1 13 bd 39 64 82 bc 01 cd d1 bc a4 81 5a bd
       -0.036118533 -0.01591693 -0.025610449 -0.05334629
000350 a7 f0 a9 bd 44 0e ff bc 21 a9 80 3c b9 97 c7 bd
       -0.08297854 -0.031134732 0.015705647 -0.09745736
000360 73 3f 5b bc b2 d2 91 bd b7 fd fa 3c f0 d2 3c bd
       -0.013381827 -0.07120265 0.030638559 -0.046099603
000370 33 de bd 3b 4a 12 5c bd 80 d4 8a 3c b9 12 ed bd
       0.0057943105 -0.05372838 0.016947031 -0.11575837
000380 54 d2 c4 bc 30 6d 84 bc 83 0c 8d 3d da 46 ab bd
       -0.024026074 -0.016165346 0.06887152 -0.08363123
000390 84 01 86 be 4b 1f 00 bd 08 c7 9d be 8b 43 16 3d
       -0.2617303 -0.031279843 -0.3081591 0.036685508
0003a0 09 4e 5b ba 01 46 3e be 45 b7 60 bd a2 db 9d 3c
       -0.0008365815 -0.18581392 -0.05486228 0.019269768
0003b0 ab 07 1d bc 0d 71 f2 bc a3 cf 54 3b 85 39 23 3d
       -0.009584348 -0.029594922 0.0032472394 0.039849777
0003c0 ce 7a 78 3d 44 a3 96 bc e0 88 a3 3d 95 3e 1e bc
       0.06066399 -0.018388398 0.07985091 -0.009658475
0003d0 74 a2 b8 3c 01 88 16 3d bb 91 91 3e e4 4d f6 3b
       0.022538401 0.036750797 0.28431496 0.0075166095
0003e0 c1 c9 e2 bc 2f 86 56 bd dc ef 79 3d f6 98 16 bd
       -0.027684094 -0.05237406 0.061019763 -0.03676697
0003f0 f1 7e ac bd e3 f3 8e ba ff ab 08 bd 38 6c 06 bd
       -0.0842265 -0.0010906424 -0.033367153 -0.03281805

advantage.bias f4 [4]
000000 0a 4f 10 bd 72 64 2e 3d 23 1b 8f bc 4a 22 ec bc
       -0.035231628 0.04257626 -0.017468994 -0.028824944

value.weight f4 [1, 150]
000000 52 25 4e 3d 43 3d 99 3a 84 24 51 bd fc bf 08 3e
       0.05032856 0.0011691231 -0.051060215 0.13354486
000010 06 89 51 bc c0 8a 59 3c 78 cc 5e ba ce a0 19 3c
       -0.012789017 0.0132777095 -0.0008499096 0.009376718
000020 48 b7 48 3d 23 e3 8c bc 3e 40 90 3c 47 84 a2 bb
       0.049002916 -0.017198151 0.017608758 -0.0049596163
000030 81 60 bf 3d 45 c7 16 3d 00 33 43 bc 5f 9d c1 ba
       0.093445785 0.036811132 -0.011914015 -0.0014771632
000040 01 27 28 3e 17 d0 83 3d 1b d4 c2 bc 4f d9 31 bb
       0.16421129 0.06436174 -0.02378278 -0.0027137583
000050 57 4a 73 bc 6a 4d 1f bd 38 bf db 3d ec 29 30 3c
       -0.014849267 -0.038892187 0.107298315 0.010752182
000060 7c a2 c4 3d a8 6a a2 3d e3 a6 cb bb a4 5e 9a 3d
       0.09601304 0.07930499 -0.006214963 0.075375825
000070 5f f2 21 3e 8d 9c b2 ba 3f 44 89 3d 6a 52 c9 3d
       0.15815113 -0.0013626978 0.0670247 0.09830172
000080 05 78 15 3d 8a 95 4d 3c f5 53 ad 3c 47 cc 09 3c
       0.036491413 0.01254786 0.021158198 0.00841052
000090 13 81 50 3b e4 8e 18 bb 8d 2c f4 3d 7e 13 09 bd
       0.0031815215 -0.0023278529 0.1192256 -0.033465855
0000a0 31 e4 c8 3d 46 f3 67 3d 1b 79 1e bd 97 1e e5 3c
       0.09809149 0.056628488 -0.038689714 0.027968688
0000b0 ab 62 72 3d d0 45 86 bd ae 6e cd 3c 37 9e 08 bd
       0.05917613 -0.065562844 0.02507719 -0.03335401
0000c0 b1 fd 48 3e 43 74 1a 3d e6 13 8e bb 0c 4f d4 3c
       0.19628026 0.037708532 -0.004335868 0.025916599
0000d0 71 5b 17 3e 41 e3 f4 bb 55 cc 15 3b 3a 3e d2 3b
       0.14780976 -0.00747338 0.0022857387 0.0064161094
0000e0 9d 1f 50 3b a2 f6 c5 3d de 41 55 3b d5 60 30 3d
       0.0031757124 0.09666182 0.003254048 0.043061096
0000f0 08 e1 9e 3a 9b cc 44 3d 2b e8 d8 3d 5a 2d 26 3d
       0.0012121508 0.04804669 0.105911575 0.040570594
000100 0f df 5f bc ee 8f 7f 3d f6 d3 7e 3c 01 97 3f bd
       -0.013664021 0.06239312 0.015553465 -0.046774868
000110 95 04 83 3d 7b 12 34 3e 3e a0 8c bd 49 5d 55 3d
       0.06397358 0.17585175 -0.06866501 0.052090917
000120 46 a2 83 bd fc 88 11 3d 4c b4 65 3d f7 d4 6e bd
       -0.064274356 0.03553103 0.056080148 -0.058308568
000130 a7 2c 5d bc 15 a2 39 bd 4b 2c b6 3c a7 ff 20 bc
       -0.0134994155 -0.04532059 0.022237917 -0.009826577
000140 32 46 20 3d 31 21 55 bb 52 a2 2b b9 7e e9 f3 3c
       0.039129443 -0.0032521004 -0.000163683 0.029774424
000150 0a 90 4b 3c cd ff 31 3e 45 d9 a7 bc 22 59 52 3d
       0.012424478 0.17382737 -0.020489344 0.051354535
000160 df 6b 2b 3b 8f bf 5c bd 89 1c 80 bb fb 85 42 3c
       0.0026156825 -0.053893622 -0.0039096517 0.011872764
000170 16 28 ed bc 06 c5 77 3c ec aa f2 3d 70 5f 33 3b
       -0.028949779 0.015122658 0.11849007 0.0027370118
000180 3f 71 f1 bc a7 31 c1 3a 64 59 38 3e f9 4e 08 3d
       -0.029472945 0.0014739529 0.1800285 0.03327844
000190 dd d1 15 3c 4f d8 51 3d b7 e2 9b 3d a9 9f b2 ba
       0.009144274 0.05123168 0.07611602 -0.0013627905
0001a0 85 58 f5 bc 04 55 b0 3c 0c 4b 3b 3b fe e6 46 bd
       -0.029949436 0.021524914 0.0028578667 -0.048560135
0001b0 dc 5f 05 3e 1a a0 8c bd f5 87 60 bd d5 22 a0 3c
       0.13024849 -0.068664744 -0.05481716 0.01954786
0001c0 0b b2 7d 3c 75 09 88 3d 15 ff 60 3d 4f 15 88 3d
       0.015484343 0.06642429 0.054930765 0.06644689
0001d0 08 6a 8d 3d 9f bc ea bb d3 78 1e 3e 80 b1 8b 3c
       0.069049895 -0.0071635987 0.15475778 0.017052412
0001e0 22 ba 56 3c 39 f4 a2 bc a6 86 dc 3c 0f 09 8a 3b
       0.013105901 -0.019891845 0.026919674 0.0042125056
0001f0 8f 10 ac 3d 58 8b 41 bd 09 f9 b5 3c b7 85 0f bd
       0.08401596 -0.04725203 0.022213476 -0.03503963
000200 27 78 38 3b a3 b4 ee 3d c5 99 41 bd ff 22 65 bd
       0.0028147788 0.116555475 -0.047265787 -0.055941578
000210 c6 71 34 bd 2b 70 36 ba 04 c5 2f 3e 4b f2 c1 bc
       -0.044053815 -0.00069594634 0.17164999 -0.023675105
000220 f5 65 a5 bc 16 cc 1a 3a 76 84 1a 3d 59 fc 0e bd
       -0.020190218 0.0005905045 0.03772398 -0.034908626
000230 b9 d0 d8 bd dc e4 91 bb 87 f4 bc bd ff ee 02 bc
       -0.10586686 -0.004452331 -0.092263274 -0.007991551
000240 a9 81 0b 3d 59 ba 53 3e 37 dd 16 3d 62 0b 89 3d
       0.0340592 0.20676555 0.03683206 0.06691624
000250 b6 3f 14 3e b5 0f 29 3d
       0.14477429 0.041274745
