2D Discrete/models/d3qn/d3qn_8x8.pt (torch, 20626 bytes, 5 tensors)

hidden.0.weight f4 [64, 64]
000000 e6 4d 94 bc bb f4 af bd 3a fc b5 bd e9 26 7e bd
       -0.018103551 -0.085916005 -0.08885999 -0.062048826
000010 9e 93 68 bd 58 52 60 bd c2 1b 99 bd 0f b7 07 bd
       -0.056781404 -0.05476603 -0.074759975 -0.033133563
000020 f0 6e 8e 3c bd 02 0d bc 14 89 2b 3d 24 ab c1 3d
       0.017386883 -0.00860661 0.041878775 0.094564706
000030 76 a9 ec bd ba c4 d8 3d e0 8a 84 bd c8 3c c3 bd
       -0.115557596 0.105843976 -0.06471801 -0.095330775
000040 ce e1 d5 bd cc 5f 89 bd f0 47 f1 bd 68 c8 94 bd
       -0.104434595 -0.06707725 -0.11781299 -0.07264787
000050 07 e0 c5 bc 30 b0 07 bd e5 5a e3 3d e7 17 07 3e
       -0.024154676 -0.03312701 0.11101321 0.13192712
000060 ce 99 71 3c 11 53 99 bd de d8 f4 bd ea be de bd
       0.014746143 -0.07486547 -0.11955427 -0.10876258
000070 10 82 26 bc 64 19 19 bd c8 02 32 3e 94 72 02 3e
       -0.010162845 -0.03737773 0.17383873 0.1273902
000080 ae e7 99 bd 22 1b 81 bd 4c e5 fa bd 87 7f 5b 3d
       -0.075148925 -0.06304003 -0.12250766 0.053588416
000090 33 ef d3 3c 96 84 fb bd 13 bf 2c 3e fa 2e e8 bd
       0.025870895 -0.12281148 0.16869764 -0.11337085
0000a0 5a 5c 47 3d b0 18 de bd 56 85 d2 bd 80 f4 a9 3a
       0.048672058 -0.108445525 -0.10279338 0.0012966543
0000b0 b0 44 2b 3d 46 63 99 3d 98 f7 87 bd 44 bd f6 bd
       0.041813552 0.07489638 -0.06639022 -0.12047818
0000c0 12 d8 8c 3d 4c 87 bb bd aa 57 9c bd ee 59 32 3e
       0.0687715 -0.09156665 -0.07633908 0.17417118
0000d0 20 a0 8b 3e 2d 5f 00 3e eb ee 2d 3e 02 de fe bd
       0.27270603 0.12536307 0.16985671 -0.124446884
0000e0 72 f4 08 3d f5 09 05 bb e6 3b 42 bc 20 62 8c bd
       0.033436246 -0.0020300124 -0.011855101 -0.06854653
0000f0 ce d1 7b bd e8 37 ea bd d9 dd 96 3d b4 d4 3a 3d
       -0.061479382 -0.114364445 0.07366533 0.045613006
000100 e5 cb 97 3d 48 9c 40 3d 00 15 6f bb d0 ad 99 bd
       0.07411937 0.04702404 -0.0036481023 -0.07503855
000110 f4 6c f9 bd 00 d2 7e 3d 08 09 8b 3c 80 dc e7 bc
       -0.12178984 0.06221199 0.01697208 -0.028303385
000120 62 13 99 3d 78 4a 00 bd 80 3f 43 bd 80 78 25 3b
       0.074744 -0.03132102 -0.04766798 0.0025248826
000130 f6 6c ad 3d 78 56 8c bd c0 0c cb bd b8 22 74 3d
       0.08468048 -0.0685243 -0.09914541 0.059603423
000140 cc f2 6d bd e0 73 9b 3c aa 52 fc bd d0 04 96 bd
       -0.058092877 0.018976152 -0.123204544 -0.07325137
000150 cc 77 6d bd 52 c6 ef bd a6 16 fb bd 6c bb df bd
       -0.057975575 -0.117077485 -0.12260179 -0.1092442
000160 ae 62 86 3d c6 58 bc bd be ab 90 bd 58 4b cf 3d
       0.065617904 -0.0919662 -0.07064007 0.101217926
000170 e0 c4 4d 3d 74 51 81 bd 30 b7 98 bc f4 da 5b 3d
       0.050236583 -0.06314364 -0.018642038 0.053675607
000180 fa a2 84 bd f0 2c 2b 3c 58 ba 87 3c 9c 39 04 3d
       -0.06476398 0.010447726 0.016568348 0.032281503
000190 80 d5 4f bc a0 df 71 3c fa e4 10 3e 98 b0 8a 3d
       -0.01268518 0.014762789 0.14149848 0.06771964
0001a0 26 25 d4 bd 2c 24 13 3d 1c 00 42 3d c8 d0 94 3c
       -0.10358648 0.035923168 0.047363386 0.01816596
0001b0 a2 9a 87 bd 06 fb cc bd ec 00 0e bd 80 b5 32 bb
       -0.06621291 -0.100088164 -0.034668848 -0.0027268827
0001c0 00 52 fd bb 16 36 e1 bd f8 3c 4d 3d 48 77 27 3d
       -0.0077307224 -0.10996644 0.050106972 0.04088524
0001d0 fa 80 9a bd 40 51 34 bd 10 1a 7f bd 11 c3 9f 3d
       -0.075441316 -0.0440228 -0.062280715 0.07800878
0001e0 20 8a 6b bd d0 a9 e5 bc 4c 20 99 3d 4c 57 c2 3d
       -0.057504773 -0.028035074 0.07476863 0.09489307
0001f0 98 15 d2 3c 94 66 09 bd 20 2a a6 bb b8 b6 43 bd
       0.025645062 -0.03354509 -0.0050709397 -0.047781676
000200 89 91 dd bc fa c4 1c 3c 4a 8c a2 bd 10 8a b0 bd
       -0.027046936 0.009568447 -0.07936914 -0.08620083
000210 14 0c cd bd a6 ea 49 bd fd a6 c5 bd 88 82 cd 3d
       -0.10012069 -0.049296044 -0.09650991 0.100346625
000220 47 0b 9a bd 07 b9 a5 bd 5c 55 2a 3d ba 52 f1 3d
       -0.07521682 -0.08091932 0.04158531 0.11783357
000230 c4 66 49 3d 30 1d 70 bc 2f 3c 89 bd f6 42 e4 bd
       0.04917027 -0.014655396 -0.06700932 -0.11145584
000240 d6 11 8f bd b3 6c 71 3d 26 2e 97 bd cb fe 12 bc
       -0.06985824 0.058941554 -0.07381849 -0.00897188
000250 6c d1 40 3d ba f4 a1 bd 7e 2e fa 3d 34 5d 08 3e
       0.04707472 -0.07908006 0.12215899 0.13316804
000260 43 83 b4 bd fe 1a c4 bd ec 0e 5c 3d 70 a7 e9 3d
       -0.08814099 -0.09575461 0.053725168 0.11408889
000270 58 68 cd bc e8 eb 28 bd eb 16 a5 bd 74 0f eb 3d
       -0.025074169 -0.041240603 -0.08061012 0.11477557
000280 8e fc e2 bd c4 d5 a9 bd bc 8f ef bd 7e f6 fe bd
       -0.11083327 -0.08292726 -0.11697337 -0.124493584
000290 2a a0 b8 bd 9f 03 a0 bd e8 61 2b 3e 35 8f a1 bd
       -0.09014924 -0.07813191 0.16736567 -0.07888643
0002a0 ce 7a 5b 3d aa 7f 91 bd 9a ba 87 3d 58 82 05 3d
       0.053583913 -0.07104428 0.06627388 0.03259501
0002b0 24 3b 73 3d f0 c5 d7 3d 2c 18 f1 bd 4a 7f 09 3e
       0.059382573 0.105358005 -0.117721885 0.13427463
0002c0 6a 7f 95 bd 5d e8 6a 3e e6 aa b6 bd 16 97 84 3e
       -0.07299693 0.22940202 -0.08919315 0.2589652
0002d0 ac ae 9d 3e 14 2b de 3d 5c e8 68 3e c0 16 e3 bd
       0.30797327 0.1084806 0.22744888 -0.110883236
0002e0 c6 18 31 3c 3d 60 21 3e f5 4f dd 3d 3c 3a 37 3e
       0.010809129 0.15759368 0.10806266 0.17893308
0002f0 f8 2f f0 bd e1 b7 0e 3e ce ff ec bd 74 3b 7d 3d
       -0.11727899 0.13937332 -0.11572228 0.061824277
000300 3c c4 ec bd f0 55 d7 3c 84 18 43 bd d0 3f 19 bd
       -0.11560866 0.026286095 -0.0476308 -0.037414372
000310 9c ed ed bd 80 42 99 3b 70 81 41 3c a6 b4 b9 3d
       -0.11617586 0.004677117 0.011810645 0.09067659
000320 ec 1e de 3d 18 ad aa 3c 80 60 b5 bb 48 97 62 3d
       0.10845742 0.02083449 -0.0055351853 0.055320054
000330 f2 36 ba 3d 5c fa 7d bd 30 61 bd 3c b0 35 b4 bc
       0.09092511 -0.06200634 0.023117632 -0.021998256
000340 30 32 98 3c b8 29 b4 3c 70 bf 15 bd 24 28 f7 3d
       0.018578619 0.02199255 -0.036559522 0.12068203
000350 e4 1e be 3d 60 78 f1 bb 90 30 47 3c 8e ce 93 3d
       0.09283236 -0.007369086 0.012157574 0.072171316
000360 5c ac ec bd 1a ae fb bd c8 f0 93 bc 54 5c b7 bd
       -0.115563124 -0.122890666 -0.01805915 -0.08953157
000370 b4 41 a4 bd 06 e5 d4 bd a2 ae e6 bd 78 d0 7b bd
       -0.080203444 -0.10395245 -0.11263777 -0.06147811
000380 30 10 57 bc 28 27 ef 3d 90 12 75 3c c0 37 f5 3d
       -0.013126418 0.1167739 0.014958039 0.11973524
000390 e0 18 ed 3c 00 06 65 bc f0 f7 78 bc c8 40 9b 3d
       0.028942525 -0.013978481 -0.015195832 0.075807154
0003a0 e0 97 ee 3d 10 10 0d bc b6 42 f0 bd e4 42 d3 3d
       0.116500616 -0.008609787 -0.11731474 0.10315493
0003b0 c0 3c 9a bd ae 11 f2 bd f8 92 8d bc b0 d9 eb 3d
       -0.075311184 -0.118197784 -0.017281994 0.1151613
0003c0 be 5c 89 3d 60 36 9a bd 9c d0 41 bd 20 a0 aa 3b
       0.06707142 -0.075299025 -0.047318086 0.0052070767
0003d0 ce 23 f3 3d 72 d9 b2 bd 72 3d ec 3d 10 31 2e 3c
       0.118720636 -0.08732881 0.11535157 0.010631815
0003e0 7c 61 c4 3d 7a 0c b3 bd 80 6e a2 ba 4a 17 c0 bd
       0.09588906 -0.08742614 -0.0012392551 -0.09379442
0003f0 30 b8 21 bd 98 96 ef bc 9a 9a 90 bd 8e 76 c9 3d
       -0.039482296 -0.029246613 -0.07060738 0.09837066

hidden.0.bias f4 [64]
000000 49 e1 a1 bd 00 ef 14 be 89 90 cb 3c 79 cb 02 be
       -0.07904298 -0.14544296 0.024849193 -0.12772931
000010 4b c5 b7 3d 55 bf 21 3e b8 8b df bd 10 5f 7e 3e
       0.089731775 0.15795644 -0.10915321 0.24840951
000020 e2 77 f5 3c 36 42 0a be 31 29 88 3d 3c c6 e0 bd
       0.029964391 -0.1350182 0.06648482 -0.1097531
000030 bc db 04 bd b2 8a 0f bd 68 7c eb bd 3b 02 89 bd
       -0.032436118 -0.03504438 -0.11498338 -0.066898786
000040 c5 e6 35 3e 94 ae 13 be 3c 3b 19 3e e3 21 2d bd
       0.17763813 -0.14422065 0.14964002 -0.042268645
000050 4a eb fd bd c5 b0 1a 3b da 95 03 be 5d 57 14 be
       -0.123983935 0.0023603898 -0.12850133 -0.14486451
000060 7e 99 47 3e 63 8a c7 bd f1 0f fc bd 5a fb c8 bd
       0.19492146 -0.09743192 -0.12307728 -0.098135665
000070 8d a4 1a be b8 5d 12 3e 50 07 f6 3d 4f 0a 2a bd
       -0.15101834 0.14293563 0.120131135 -0.041513737
000080 1e 00 39 3e e7 11 24 be eb ae 23 be bd 5b b2 3d
       0.18066451 -0.16022454 -0.15984695 0.08708904
000090 c9 7c 7f 3d ad b4 3a be 98 3b 29 be cd 7a 12 be
       0.062374864 -0.18232985 -0.1652664 -0.14304657
0000a0 9f 7f 19 be 49 41 31 3e 88 50 d5 bd 78 a8 df bd
       -0.1499009 0.1731006 -0.10415751 -0.10920805
0000b0 bf 10 5c bc ee 20 29 3e d2 aa 38 be 80 e6 9e 3d
       -0.013431727 0.16516468 -0.18033913 0.07758808
0000c0 83 49 16 be f9 59 16 3d 48 c6 0e be fc 77 1e be
       -0.1467648 0.0367069 -0.13942826 -0.15475458
0000d0 29 85 8b bd a0 6a a4 bc 36 36 ea 3d 0a 69 46 be
       -0.06812508 -0.020070374 0.11436121 -0.19376007
0000e0 ee 4f 86 bd 4b 4b 4c 3e d0 20 33 3d e9 a8 bf 3c
       -0.06558214 0.19950597 0.043732464 0.023395972
0000f0 82 ad 1c be ef 84 02 bc 97 f0 00 be 42 3e 11 be
       -0.15300563 -0.007966264 -0.12591778 -0.14183906

advantage.weight f4 [4, 64]
000000 6c 3d 14 bd 3a 99 45 be 3a b4 04 3e 59 01 a7 bd
       -0.03619139 -0.19296733 0.12959376 -0.08154554
000010 1c 0d 63 3d 5b b4 7e bb e4 29 07 3e 1d 68 32 be
       0.055432424 -0.0038864824 0.13199574 -0.17422529
000020 b7 ad 95 bd f7 28 a8 3d e3 0d 85 be d4 6e ce bc
       -0.07308524 0.082109384 -0.25987157 -0.025199331
000030 ee 05 0f 3e 03 8d 80 3e b3 48 7d 3c f0 d3 40 3c
       0.13967106 0.25107583 0.015459227 0.01176928
000040 5a 23 36 be 20 5d f0 3d 96 5c e9 bd 23 1f 5a 3e
       -0.17786923 0.11736512 -0.113946125 0.2130094
000050 46 65 65 bc 73 13 a7 3e 49 36 54 3c 48 aa 12 3e
       -0.014001196 0.32632026 0.012952396 0.1432277
000060 39 ae 62 3e 8b 87 e9 3c c8 39 d7 3d df 20 10 3d
       0.22136773 0.028507015 0.10509068 0.0351876
000070 a0 f6 d9 3c 18 db 1d be 0f c1 ea 3d e1 b0 dc bc
       0.026606858 -0.15415609 0.11462604 -0.026939811
000080 ff 55 8f 3d ef 98 5d bd fb 79 4e 3d b3 48 69 bd
       0.06998824 -0.054100927 0.0504093 -0.056954097
000090 2e c8 32 3d a2 9a eb 3c 77 71 1e 3e 1d 90 84 bd
       0.043647937 0.028760258 0.15472971 -0.064728
0000a0 0f bb 31 3e 72 dc 84 3c 18 af b3 bd f8 a7 79 3c
       0.17356513 0.016218398 -0.08773631 0.015237801
0000b0 fc 83 ab bd e5 90 15 3d 92 3d 44 3e 49 09 21 3e
       -0.083747834 0.036515135 0.19164112 0.15726198
0000c0 26 b1 0b be 4b de f8 bc 57 98 60 3d d2 c8 88 3d
       -0.13641796 -0.030379435 0.054832783 0.066789284
0000d0 07 1f 55 3d e9 ab fb 3d 7c da 20 3e ab 6e 14 3e
       0.052031543 0.12288649 0.15708345 0.14495341
0000e0 00 1f 12 3e a0 02 97 3d 0e b3 d2 3c 66 bc 74 3d
       0.14269638 0.073735476 0.025720146 0.059749983
0000f0 2e aa ed 3d 1c 3f 1b 3e 4d c7 5d 3d 6e 1e 53 3d
       0.11604725 0.15160793 0.054145146 0.051542692
000100 b8 86 13 3d 5b 39 df 3d 8f 38 75 3d b0 15 ee 3d
       0.03601715 0.108996116 0.05986839 0.1162523
000110 ad 9d 48 be 2b ab 80 3c bc 64 51 be 8f f8 c2 3d
       -0.19591399 0.01570662 -0.20448583 0.09520065
000120 3b f9 80 3d 14 82 b7 bc a3 12 f5 3d 98 55 61 3c
       0.06297537 -0.022400893 0.11966445 0.013753317
000130 a2 5a e4 bd 52 4f bc be 03 db 68 3c d7 e8 1f 3e
       -0.11150099 -0.36779267 0.014212373 0.15616165
000140 ac 07 cb 3d c8 37 91 bd ea f2 8c 3e 20 f9 73 be
       0.09913573 -0.070907176 0.2752908 -0.23825502
000150 78 b7 c9 3d 80 46 d7 3d 8c 89 8f 3d 0d 89 86 3d
       0.09849447 0.10511494 0.07008657 0.06569109
000160 c6 9a 69 3b 91 97 f0 bc 94 8a e5 3d bd 38 90 be
       0.003564523 -0.029369147 0.11208072 -0.28168288
000170 a1 29 aa 3d 05 30 21 bd 10 42 14 3e b3 eb d5 3d
       0.08308721 -0.039352436 0.14478326 0.10445347
000180 4b 33 24 bd e7 75 73 bd a0 74 c8 bd a2 8a 69 bd
       -0.04008798 -0.059438612 -0.097878695 -0.057016976
000190 16 f5 fe 3d 81 fd e5 bb 9b 55 b1 bd 8f 77 94 bc
       0.1244909 -0.0070187454 -0.08658906 -0.018123416
0001a0 b7 fc 7b bb 1b 53 32 be b0 a5 78 3d 10 05 96 3d
       -0.003845019 -0.17414515 0.060704887 0.07325184
0001b0 24 56 2c bd 8b e7 4e bd 16 43 dd 3c e9 88 3e bc
       -0.042074338 -0.050513785 0.027009528 -0.011629322
0001c0 4d 69 97 3d 19 48 85 bc 64 bd be 3c d9 8a 10 be
       0.073931314 -0.01626973 0.023283668 -0.14115466
0001d0 fb c7 9f 3c 55 e8 91 3c 27 b8 9f 3d f5 9d 5d bd
       0.019504538 0.01781098 0.07798796 -0.054105718
0001e0 f9 68 3f be e2 df 93 bc a6 01 23 bd ca 3d 81 3d
       -0.18692388 -0.018051092 -0.039796494 0.063106135
0001f0 8a b9 78 bd fa a2 41 be c6 8c ef 3c b5 ce 67 3d
       -0.06072382 -0.18909827 0.02924193 0.056593616
000200 6d d4 05 bd f4 11 ab 3d 93 cd 84 bc 95 fb fb 3d
       -0.032673288 0.08353034 -0.016211307 0.12303845
000210 09 f4 02 3e 67 4d 8b bd cc ff ee 3d 28 dc 86 3c
       0.12788405 -0.06801873 0.11669883 0.0164624
000220 12 f5 72 bd 7b 0c 2f bd 4b 74 8f bd 2b 99 9e 3d
       -0.05931575 -0.04273651 -0.07004603 0.07744058
000230 3a 09 0e 3e 53 67 13 3e a8 79 85 3d b8 21 c6 3c
       0.13870707 0.14394884 0.06517345 0.024186
000240 c7 63 50 3e ef 3a 4b be bc 62 37 3e 1c a5 2a 3e
       0.20350562 -0.198467 0.17908758 0.16664547
000250 ad dc 61 3d 9c 0c 92 be 8e 9c 9f bd c2 69 84 bd
       0.055142093 -0.28525245 -0.07793532 -0.06465484
000260 be 6a 53 3d cb d1 b1 bd 69 26 c5 bd 0e ce 16 3d
       0.05161547 -0.08682593 -0.09626467 0.036817603
000270 d3 a1 e1 3d b8 46 bb bd f6 77 43 bd 0d 19 44 3c
       0.11017194 -0.09144348 -0.047721826 0.011968863
000280 e0 6c bf bd 48 e6 4d bd b0 e1 93 bd e2 62 e3 bd
       -0.09346938 -0.05026844 -0.07220781 -0.11102845
000290 2e 88 6a 3e 26 5f 5c bd 2e 1f 79 38 db 39 7a bd
       0.22903511 -0.053801678 5.9395265e-05 -0.06109033
0002a0 0c 27 10 3e 5e 06 78 bd 8d 95 72 bc d4 c1 99 3d
       0.14077395 -0.060552947 -0.0148061635 0.07507673
0002b0 54 b8 51 be 3b 89 1e 3e 71 07 1e 3d d7 65 e6 3c
       -0.20480472 0.15482037 0.038581315 0.028124733
0002c0 64 5f b2 3d a2 a5 01 be 9b 22 d3 3d 32 fb cd bc
       0.087096006 -0.1266084 0.10309335 -0.025144193
0002d0 80 6e 6f 3c 6f c2 76 3d ed 7d 90 3d 8e bb 70 3d
       0.014613748 0.06024402 0.070552684 0.058772616
0002e0 96 19 17 3e c4 33 06 3d bb 50 e8 bd 7b d3 96 3c
       0.14755854 0.03276421 -0.11343523 0.018411389
0002f0 11 ce 1a bc 50 14 0b 3e c6 0c 4e 3d 1b 53 91 3d
       -0.009448544 0.13581967 0.05030515 0.07095929
000300 91 48 a1 bd c8 59 e7 bc fd 7f 35 be 71 50 2b bd
       -0.07875169 -0.028241053 -0.17724605 -0.04182476
000310 77 9a 74 3d 75 00 c0 bc d9 f4 ef 3b 7e d0 13 3e
       0.05971762 -0.023437718 0.0073228893 0.14435002
000320 60 9e b5 bd db 80 9e 3d ee 01 9b 3d f5 2d 10 be
       -0.08868098 0.07739421 0.075687274 -0.14080031
000330 17 34 d2 3d 4c 8a 4d 3e b6 23 98 3c b1 b8 93 be
       0.102638416 0.20072287 0.018571716 -0.28851846
000340 e6 ce 62 be f6 21 64 bc 22 45 93 3d ad 37 a7 3c
       -0.22149238 -0.013924113 0.071909204 0.02041229
000350 74 1f d4 3d e8 fc 90 bd d5 e9 86 bd 70 fc 11 3e
       0.10357562 -0.07079488 -0.06587569 0.14256454
000360 ee 5a 31 be b6 86 21 3d 41 47 cf 3d f1 5f 29 3e
       -0.17319843 0.03943511 0.101210125 0.16540505
000370 85 06 12 bd ea 97 05 3e 04 ab d9 bd f2 a8 ae bd
       -0.03565075 0.13046232 -0.10628322 -0.085283175
000380 86 26 ab bd 7d 95 19 3d e7 44 39 bc a3 29 46 be
       -0.08356957 0.03749608 -0.0113079315 -0.1935182
000390 f3 7a 7c bc 38 0f 9e 3d d1 4f df 3d f4 2c 00 be
       -0.015410173 0.077177465 0.10903896 -0.12517148
0003a0 59 6a da 3c 2d 10 27 be c4 cc aa 3d 99 af 7c 3d
       0.026662039 -0.16314764 0.08339837 0.0616909
0003b0 67 ad d4 3d 9e c4 87 bd 66 4e a0 3c c8 ee 79 be
       0.10384636 -0.066292986 0.019568633 -0.24407494
0003c0 45 a1 f9 3d a1 4b 0d 3e aa bd 6b 3c 94 c8 bd 3d
       0.12188963 0.13798381 0.014388481 0.09266773
0003d0 69 a3 c6 3d c5 e7 6a be e4 56 36 be 79 d5 2d be
       0.09699137 -0.22939976 -0.17806584 -0.16975965
0003e0 37 fb d9 bc 36 24 91 3d 9f 62 8a 3d bb 79 a5 bd
       -0.026609046 0.07086985 0.06757092 -0.08079859
0003f0 06 2c 7a 3d da 2f 40 be 4d d8 6f 3d b1 92 39 be
       0.06107714 -0.18768254 0.05855589 -0.18122365

advantage.bias f4 [4]
000000 f9 5e 99 bd 86 4f 31 bd 2c f1 cd ba bc af 13 3c
       -0.07488818 -0.04328873 -0.0015712134 0.009014066

value.weight f4 [1, 64]
000000 7f 0e 02 bd c1 a8 d9 bc 9d fc 1a 3d a1 98 c6 bd
       -0.031752106 -0.026569726 0.037838567 -0.096970804
000010 9c db 1c 3e cd 94 85 3e 1a 35 dd bd 73 46 36 3e
       0.1531815 0.26090088 -0.10801144 0.17800312
000020 73 23 3c bc 5f da 87 3d b3 3c c0 bc 50 c9 a5 bd
       -0.011483061 0.06633448 -0.023466444 -0.08095038
000030 fa 59 8d bd 7d ee ed bd df 3f bc bd 3f 90 fc 3a
       -0.06901927 -0.11617754 -0.0919187 0.0019269063
000040 25 55 18 3e fa 91 81 3d b8 a6 c4 3d 89 ea db bd
       0.1487623 0.06326671 0.096021116 -0.107380934
000050 35 86 a9 3d 86 c5 a8 bd 39 9a 90 3d b1 a3 bc 3c
       0.08277551 -0.082407996 0.07060666 0.023027273
000060 6f e0 d3 3c c5 ab c5 3d 43 88 50 bd 08 97 0f bd
       0.025863854 0.09651903 -0.0509112 -0.035056144
000070 a4 6f 9f bd 03 02 a6 3d c6 25 bd 3d d4 f5 aa bd
       -0.07784966 0.081058525 0.0923572 -0.08347669
000080 83 c9 93 3d b2 2f 18 3b b7 7c 78 3d 03 7b 7f 3e
       0.0721617 0.0023221788 0.060665812 0.24949269
000090 29 70 c8 bc bf d3 90 3b 99 ed ef 3c 36 1d de bd
       -0.024467545 0.0044197734 0.0292881 -0.10845415
0000a0 52 8a 87 bd 1c d3 1f 3e 06 de 10 bd c6 02 fd bc
       -0.066181794 0.15607876 -0.035367988 -0.030885112
0000b0 cf 42 e2 3d b1 31 51 bd 62 13 20 3d 97 bf be bc
       0.11047899 -0.05107278 0.039080985 -0.023284717
0000c0 df 38 be bb 2f ab 12 3e 6f ac 3a bc 6d 8b 73 bb
       -0.0058051194 0.14323114 -0.01139365 -0.0037161962
0000d0 9b e4 fe 3d ac b0 83 bd 72 86 39 bd fa 1d 35 bd
       0.12445947 -0.06430182 -0.045294233 -0.04421804
0000e0 54 71 b3 3c ec c1 e0 3d 5d d5 33 3e 06 06 0e bd
       0.021904625 0.10974488 0.1756186 -0.034673713
0000f0 5c 61 f9 3d 29 e6 9c bd 99 ff d3 bb 88 f1 92 bd
       0.12176773 -0.07661087 -0.0064696786 -0.07174975
