2D Discrete/models/dqn/dqn_8x8.pt (torch, 36552 bytes, 6 tensors)

fc1.weight f4 [64, 64]
000000 d4 80 53 bd 4c 31 42 bd 70 2a 78 bc 10 d5 b0 3c
       -0.051636532 -0.047410294 -0.015146837 0.021585971
000010 6a 9f b2 bd d8 36 9a 3d 86 69 e1 bd 2c ee ef bd
       -0.08721812 0.07529992 -0.11006455 -0.117153496
000020 e4 a7 98 bd 3e cf 94 3d ce 23 de 3d 58 0b 99 bc
       -0.074538976 0.07266091 0.10846673 -0.018682167
000030 80 a5 0c bb 44 53 3e 3d b0 2f bb 3d 82 f1 ab bd
       -0.002146095 0.046466127 0.09139955 -0.08395673
000040 58 7a a3 3c 44 31 7e bd 76 01 eb bd c4 f8 2a 3d
       0.019955799 -0.062058702 -0.11474888 0.041741148
000050 a0 9e d0 3d e2 df c8 bd 18 d3 49 bd 4e 07 85 bd
       0.10186505 -0.09808327 -0.04927358 -0.06495534
000060 0a 0d cc 3d e0 1e ca 3b 00 7d ce bd 90 d5 87 3d
       0.099634245 0.0061682314 -0.100824356 0.06632531
000070 9a 37 a5 3d 14 2f 34 3d 86 b2 e1 bd 40 98 4b bb
       0.08067246 0.04399021 -0.11020379 -0.003106609
000080 84 de 18 3d ba 7b 87 3d 74 43 87 3d 98 50 22 3d
       0.037321582 0.06615396 0.066046625 0.03962764
000090 c8 49 07 3d b4 3a 0d 3d cc cb 58 3d 38 df fc 3c
       0.033029348 0.03447981 0.05292873 0.030868158
0000a0 40 e3 65 3c cc fe 8e 3d 60 53 72 3d b0 a9 30 3d
       0.014031231 0.069821924 0.059161544 0.043130577
0000b0 40 b2 b6 3d 84 15 f6 3d 60 a1 d9 bd 98 81 a1 bd
       0.08920717 0.120158225 -0.10626483 -0.07886046
0000c0 e4 3b 25 bd 38 15 0b 3d 60 ce 0f 3c 40 03 49 bc
       -0.04034032 0.033955783 0.008777231 -0.012268841
0000d0 60 66 5c 3d c0 7c 76 3c bb 07 ed 3d 80 bb 06 bd
       0.05380857 0.015044391 0.1157374 -0.032893658
0000e0 88 cc 3a 3d d8 99 64 bd f8 4d d9 3d 38 06 f0 bd
       0.045605212 -0.05581078 0.106105745 -0.11719936
0000f0 d0 b5 26 3d 44 a3 ae 3d f0 b5 94 3c 96 fa ea bd
       0.040700734 0.08527234 0.01815316 -0.11473577
000100 7b 29 51 3d 30 36 18 bd 10 5b 08 be b3 56 3d bd
       0.05106495 -0.037161052 -0.13315988 -0.04622526
000110 3a af 19 bd 6e 34 40 bc a7 cc ff bc 57 d3 dd 3d
       -0.037520625 -0.01173125 -0.031225516 0.108313255
000120 60 27 ee bd b5 4c 34 bd be d8 e5 3d 5a a0 d8 3d
       -0.11628604 -0.044018466 0.11222981 0.1057746
000130 e0 6c fa bc de 96 e4 bd 39 dd d8 bd c4 aa 2f 3e
       -0.030569494 -0.11161588 -0.1058907 0.17154986
000140 39 59 67 3c 53 1f 36 3c 09 08 e2 bd 36 7f 52 bc
       0.014120393 0.011115867 -0.11036689 -0.012847712
000150 f7 8d ea bd 87 af f7 bd 48 a1 e4 bd 8d 05 83 3d
       -0.11452859 -0.12094026 -0.111635745 0.06397543
000160 e4 78 50 3d a2 64 fd bd 50 c6 a5 bc 6a cd c2 3d
       0.05089654 -0.1237271 -0.020236164 0.09511836
000170 da 31 8a bd 60 ec a4 bd e2 25 f9 bd 07 41 23 3e
       -0.0674779 -0.080528975 -0.12165429 0.15942775
000180 de 00 4a bb af fd 0d 3c bb 0a 01 be 0a 51 ee bd
       -0.003082327 0.00866644 -0.1260175 -0.11636551
000190 18 c7 03 be de 6b da bd 24 b7 dd bd c2 28 09 3e
       -0.12868917 -0.10665105 -0.10825947 0.13394454
0001a0 f8 97 04 be 80 0e 14 be c8 ba d5 bc 10 4a ba bc
       -0.12948596 -0.14458656 -0.02609004 -0.022740394
0001b0 60 88 2a 3d b0 49 c6 bc e6 15 ee bd 3a eb e3 3d
       0.041633964 -0.024205059 -0.116252705 0.1112885
0001c0 19 20 8c 3d ae f8 14 bc bc 39 6d bd 32 ed c1 bc
       0.0684206 -0.009092493 -0.057916388 -0.023672674
0001d0 93 09 a9 3c 8b 00 dd bc b2 f9 0c be 92 91 10 3e
       0.020634448 -0.026977798 -0.13767126 0.1411803
0001e0 ce 35 ad 3d bd d3 93 bc 6e c5 87 3d 3b a3 64 3d
       0.08457528 -0.0180453 0.066294536 0.05581973
0001f0 71 c8 21 3e d0 44 0f be f4 65 24 3e a2 cf e8 3d
       0.15799119 -0.13991094 0.16054517 0.11367728
000200 1b 30 a1 3d 7c 83 59 3d 64 6f 7f bd 37 8d 10 3d
       0.078705035 0.05310391 -0.06236209 0.035290923
000210 40 7e 92 bd c0 6d 3c 3c e0 42 fe bb 10 c2 06 3e
       -0.071529865 0.011500776 -0.007759437 0.13159966
000220 d6 d4 80 3d 17 1b 16 3e 16 98 b9 bd 80 b3 c2 3b
       0.06290595 0.14658771 -0.09062211 0.005941808
000230 00 b9 30 3b b8 12 80 bd 20 8e da 3b 12 6a 22 3e
       0.0026965737 -0.0625357 0.0066697747 0.15860775
000240 00 91 9a 3b 78 eb 87 bd bd 50 a0 3c 14 de db bd
       0.0047169924 -0.06636709 0.019569749 -0.107357174
000250 b0 fe 23 bc 68 06 58 bd 49 83 df 3d 18 9f a9 bd
       -0.010009453 -0.052740484 0.109137125 -0.08282298
000260 fd 0f 5f 3d 64 cb fc bd 04 aa 93 bd 40 5b 56 bb
       0.054458607 -0.12343481 -0.07210162 -0.0032708198
000270 a0 32 9a 3d 86 49 a2 3d 98 69 9f bc 66 5b c3 bd
       0.07529187 0.0792418 -0.01945953 -0.09538917
000280 24 e7 43 3d f2 84 03 3e f5 2c fc 3c 1e cb 3c 3d
       0.047827855 0.12843683 0.030783156 0.046092145
000290 ea 80 0d 3d f0 ef d7 3c fe 3d ef bd 70 eb ec bc
       0.03454677 0.026359528 -0.11681746 -0.02892086
0002a0 f9 cd 72 3d cc 1f ab bd a4 b4 9a bd 08 ae 01 3d
       0.059278462 -0.08355674 -0.07553986 0.03166011
0002b0 10 fb a8 bc fc cc 52 3d c4 cc a1 3d 08 cb 66 bd
       -0.020627528 0.05146502 0.07900384 -0.05634597
0002c0 f4 91 5c bd a8 32 f7 3d 80 d8 04 3d 03 07 22 3d
       -0.05385013 0.12070209 0.032433033 0.03955747
0002d0 4b f3 1a 3d 05 fa 06 3d c0 2f 0b 3b 20 a6 a4 bc
       0.03782968 0.03295328 0.0021238178 -0.020098746
0002e0 14 6b 6f bd dc 82 cd bd a3 55 87 3c 70 4a 6e bc
       -0.058451727 -0.10034725 0.016520327 -0.0145441145
0002f0 4b 8f 72 3d 02 00 90 bd 30 59 67 bc 80 c8 60 3b
       0.059218686 -0.070312515 -0.014120385 0.0034299195
000300 20 62 5a 3d 40 56 89 bd 30 80 9b bd b0 75 38 bc
       0.053316236 -0.06705904 -0.07592809 -0.011258528
000310 36 80 b9 bd 36 e4 bf bd 18 c0 da 3c f0 11 74 bd
       -0.090576574 -0.093697 0.026702926 -0.05958742
000320 23 a9 99 3d 50 9c c0 bc a0 98 73 bd ca 57 e1 bd
       0.075029634 -0.023512036 -0.059471726 -0.110030726
000330 28 a7 9c bc 44 63 76 bd ba 2a cf bd f5 02 10 3e
       -0.019122675 -0.06015326 -0.10115571 0.14063628
000340 60 6f b5 3b c8 cf 0f bd d8 16 b9 3c 68 16 bc bd
       0.0055369586 -0.035110265 0.0225939 -0.09183961
000350 1b 1d 87 3d 60 5f 5d bd 62 39 e3 bd 98 43 f5 3c
       0.06597348 -0.054046035 -0.11094929 0.029939458
000360 76 fc a7 3d 86 c4 95 bd 3a e6 8e bd f0 2f d2 bc
       0.0820245 -0.073128745 -0.06977506 -0.025657624
000370 80 28 b5 3c 78 a8 e3 3d 50 73 df 3c 44 94 42 bd
       0.022114038 0.11116117 0.027276665 -0.04750468
000380 57 0e fa 3d 7f 8a c1 3d d0 b3 e7 bc b8 e1 fb bc
       0.12209766 0.09450244 -0.028283983 -0.03074728
000390 0a ce ab bd f2 10 dd bd 0a 81 88 3d 3c 55 42 3d
       -0.08388908 -0.10794248 0.06665237 0.047444567
0003a0 9c 0b ad bd ac 89 07 bd 58 0e f8 3d 40 32 5b bb
       -0.0844948 -0.03309028 0.12112111 -0.00334467
0003b0 00 1c 19 3a 40 04 54 bb 58 72 0d 3e 80 e4 dd 3b
       0.0005840659 -0.0032351166 0.1381315 0.006771624
0003c0 4c 85 2d 3d 98 fc 72 3d 4c 96 3a bd e0 2d 60 3d
       0.04236345 0.059322923 -0.04555349 0.05473125
0003d0 fa 91 b1 bd 88 a7 e0 bc d0 49 35 bc 2c 5f 52 3d
       -0.08670421 -0.027423635 -0.011064962 0.051360294
0003e0 24 1c d2 bd 70 3f 77 bd 80 3a 9b 3d 48 9b 37 bd
       -0.10259274 -0.060363233 0.07579517 -0.044825822
0003f0 70 d9 17 3c 1a 28 cc bd 92 77 ba bd 90 f7 04 bd
       0.00926815 -0.09968586 -0.091048375 -0.032462656

fc1.bias f4 [64]
000000 89 c6 f6 bd e1 fd a2 3d bb 80 2a be ae 1a 14 be
       -0.12049586 0.0795858 -0.1665067 -0.14463302
000010 8d 3a 0d be 0d bd 3a 3d 89 18 da 3d 87 a1 33 3c
       -0.13791867 0.04559045 0.10649211 0.010963804
000020 b9 5d d6 bd 43 c2 91 3d 3b 69 33 be 01 d7 06 be
       -0.10467095 0.071171306 -0.17520611 -0.13167955
000030 b6 86 7d 3d d3 ea c1 bd ef fe 11 3e d2 58 a1 bd
       0.06189605 -0.09468617 0.14257406 -0.07878269
000040 e6 f1 37 3c 1f f7 2a 3d 68 f3 fb 3d c4 68 06 3d
       0.011227107 0.04173958 0.123022854 0.032814756
000050 6f ab a1 3c c7 7b c5 bd fc 09 2f 3e be 0a 2f 3d
       0.019735066 -0.09642749 0.17093652 0.042734854
000060 40 62 19 3e d5 d4 9a bd 7b 2d c6 bd 7e ad 5f 3d
       0.14978886 -0.07560126 -0.096766435 0.054608814
000070 eb 13 31 be 3f f3 58 3e 7e b7 e1 3c c3 9f 11 3d
       -0.17292754 0.21186541 0.027553316 0.03555275
000080 bb f1 56 bd bb bb 23 3e 2a 35 0c 3e 7c e5 94 bd
       -0.052476626 0.15989582 0.13692155 -0.07270333
000090 e7 72 02 be f1 f4 bd bc d1 bc a3 3d 9c f1 90 bd
       -0.12739144 -0.023188086 0.07994998 -0.07077333
0000a0 e3 d2 4c bb aa dd e8 3d 6f 68 ef bd 88 b7 e9 3c
       -0.0031253628 0.11370404 -0.11689841 0.028529897
0000b0 31 c5 7b 3d ad ca 3e bd e9 3e f5 3d 0c 74 cd 3d
       0.061467353 -0.046580005 0.1197489 0.100319
0000c0 2a ac 78 bb 0b 47 73 bd a3 87 3b bd 49 4b 6f 3d
       -0.0037944415 -0.059393924 -0.04578365 0.058421407
0000d0 ce 2d b6 3d e8 74 22 bd e9 cf 24 3d 67 8b 93 3d
       0.08895455 -0.03966227 0.04023734 0.07204323
0000e0 89 5f e3 bd b0 d8 92 3d 42 16 3f 3e 65 80 21 3e
       -0.11102206 0.07170236 0.18660834 0.15771635
0000f0 99 c1 38 bc 2d ec 35 bb 08 cc 7e 3c 27 d6 fa bc
       -0.011276626 -0.002775918 0.0155515745 -0.030619694

fc2.weight f4 [64, 64]
000000 80 cf ab bb 15 51 21 be 7c 8e be 3d 99 b0 e4 3d
       -0.005243242 -0.15753587 0.093045205 0.11166496
000010 97 57 c0 3d 7a ba bb bc 67 d1 da 3d e2 79 60 bd
       0.093917064 -0.022916067 0.106844716 -0.054803737
000020 c9 11 57 bb 3a d6 9f bd 51 b6 f3 bc 02 9d d0 bd
       -0.0032816997 -0.07804532 -0.029750021 -0.10186197
000030 48 6f d0 bd 9d cf 2e be 4e fc 29 be 5a 5e d3 3d
       -0.10177475 -0.17071386 -0.16600153 0.103207305
000040 7e 38 95 3e 07 db 85 bd ca 75 ac 3c cb 6f 39 be
       0.29144663 -0.06535917 0.02105226 -0.18109052
000050 1e 93 bb bd d1 79 08 3e 79 94 51 be 0f 78 3e 3c
       -0.0915892 0.1332772 -0.20466794 0.011625304
000060 68 31 f2 bd 23 d8 0b 3e 6c 69 9a 3e 46 6d e0 3c
       -0.1182583 0.13656668 0.30158556 0.027395856
000070 08 99 9d bc 5f 63 db bd 81 d3 9a be ff 55 51 be
       -0.01923801 -0.10712313 -0.3023949 -0.20442961
000080 2d ae 1f 3e 45 84 51 3d 28 29 03 be 15 19 14 be
       0.15593787 0.051151533 -0.12808669 -0.14462693
000090 d1 fc 95 3d 43 08 5b 3e 55 04 bc bc 85 90 46 bd
       0.073236115 0.2138987 -0.022951284 -0.04847767
0000a0 75 ff 27 be 70 00 e2 bd 9c bc 64 3d 08 8e 22 3c
       -0.16406043 -0.1103524 0.055843934 0.009921558
0000b0 5c 69 0d bc 83 6d 25 3d 37 89 e1 bd 98 df 86 be
       -0.008631077 0.04038764 -0.110125 -0.26342463
0000c0 f7 00 a4 3e 58 4b 9d 3d 49 75 e6 3d 8e a1 a3 be
       0.32031986 0.07680386 0.11252839 -0.31959194
0000d0 50 48 96 3e e5 d7 a4 3d 52 e9 72 bc 5f 46 3a 3e
       0.29352045 0.08048991 -0.014826136 0.18190907
0000e0 8c c3 d7 3c 33 30 59 bd 14 33 1a be 61 ab a9 bd
       0.026338361 -0.053024482 -0.15058547 -0.08284641
0000f0 5f 48 cc 3d e0 ee 98 be 6c 63 23 3e 6b 50 92 bd
       0.09974741 -0.29869747 0.15955895 -0.07144245
000100 40 29 ce bd ed 16 3a bd 31 7e 37 be 66 39 81 3d
       -0.100664616 -0.04543202 -0.17919232 0.06309776
000110 73 07 ce 3c 87 50 bd 3d 32 f5 11 bd 48 21 e8 bd
       0.025150036 0.09243875 -0.035634227 -0.11334473
000120 ca e7 7b 3d f8 de 5c 3d a0 75 cb 3d 49 3b 33 bd
       0.06150035 0.053923577 0.099345446 -0.04375771
000130 1b 7c 1c 3d 2c c0 8b bd 90 97 42 bd 4d ff 1b be
       0.038204294 -0.06823763 -0.047507823 -0.15234108
000140 9d 57 47 bd 4d 01 37 be 84 a6 71 3d 3c f5 fe 3d
       -0.04866754 -0.1787159 0.058996692 0.124491185
000150 f1 72 75 3d e9 b6 65 bd 90 43 8c 3d 72 33 7c bc
       0.05992407 -0.05608264 0.06848824 -0.015393125
000160 ab e1 01 be e9 c5 92 3c a2 7e 87 bd c7 d6 b4 bc
       -0.12683742 0.017916637 -0.0661595 -0.02207507
000170 00 af 5b bd 97 40 d0 bd 74 ee 8f bd 31 30 58 3c
       -0.05363369 -0.101685695 -0.07027903 0.0131950835
000180 eb 8b f1 3d f8 c8 63 3c 59 b4 d6 3d d9 40 f2 bb
       0.11794265 0.013902895 0.10483617 -0.0073929843
000190 00 64 55 3d 0a 3c d5 bd 4f fa 6a bd 22 59 07 3e
       0.05209732 -0.10411842 -0.05736762 0.13217595
0001a0 b4 4a e3 bd bb ca 93 bd ce f3 d8 bd 5f 4f 7e 3d
       -0.11098233 -0.07216402 -0.10593377 0.062087413
0001b0 02 b9 84 3d f3 9a 8f 3c 49 98 25 3d cf bf b6 3c
       0.064806 0.01752994 0.040428434 0.022308258
0001c0 9c 07 7c bd 2b 30 58 bd fa bb 6e bd 3c 2c 81 bd
       -0.061530694 -0.05278031 -0.058284737 -0.06307265
0001d0 65 41 b3 3c 41 00 e9 3d 5d ae 89 3d ef 78 af 3d
       0.021881768 0.113770016 0.0672271 0.08567988
0001e0 2d 01 4b 3d d1 60 2a 3d b9 fd a4 bd 5d d9 da bd
       0.04956167 0.041596238 -0.08056206 -0.1068599
0001f0 ea 41 fc bd a5 77 09 bd da 5f d1 3c 16 9f b6 3d
       -0.123172596 -0.033561368 0.0255584 0.08917062
000200 17 59 10 bd 6a fc 24 be 4a a0 e9 3d 86 dc 67 3d
       -0.035241213 -0.16111913 0.11407526 0.056606792
000210 1c 35 2e bd 8c 53 0b be 26 3d 6f 3d cb 3a 31 bd
       -0.042531118 -0.1360609 0.058407925 -0.04326896
000220 c2 75 c4 bd 9a cc 46 be f8 03 8e bd f1 e5 02 3e
       -0.09592773 -0.19413987 -0.06934351 0.12783028
000230 09 c6 93 bd c2 92 cd 3d fd 3f dd 3c c6 1f f9 3c
       -0.072155066 0.100377575 0.027008051 0.030410659
000240 c3 06 18 3e 95 12 43 be eb f1 9a 3b d0 50 7a be
       0.1484633 -0.19050057 0.004728546 -0.2444489
000250 b0 54 d4 bd 9a 16 0e bd 52 85 38 bb 9b 68 b4 3d
       -0.10367715 -0.034689523 -0.0028155637 0.088090144
000260 2b 03 19 bd 01 f9 df 3d a5 9f 30 3e 6a e7 ca bd
       -0.037356537 0.109361656 0.172484 -0.0990742
000270 d6 ce 45 bd 72 12 d8 3c 9e 5a 10 3a 18 6a d8 3c
       -0.048292957 0.026375983 0.0005506667 0.026417777
000280 ee b3 de 3d e6 4d c7 bd d3 34 ee bc 9a 2e 90 3d
       0.108741626 -0.09731655 -0.029077923 0.070401385
000290 ac 02 85 3c 1b fe b1 3c 7f 8e 4b 3c cb 7c 89 bd
       0.016236626 0.021727612 0.01242411 -0.067132555
0002a0 33 09 1f 3e f8 b0 d6 bd 4f 5d a5 3d 35 cd 85 3b
       0.15530853 -0.10482973 0.08074438 0.0040833005
0002b0 d4 2c c0 bd 64 5c d5 3d 0e 6a 01 3c de 4c 7c bd
       -0.0938355 0.10418013 0.007898821 -0.061596744
0002c0 0b 60 39 3d db 72 bc bc 87 ed ee bd 17 a7 0d be
       0.04525761 -0.023003986 -0.116663985 -0.13833271
0002d0 8c 7f 10 bc 77 f4 50 3d 42 22 36 bd 63 03 b6 3c
       -0.008819472 0.05101439 -0.044466265 0.022218412
0002e0 4c b2 b0 3d d2 58 e8 bc a5 be d5 bd ba 33 11 bc
       0.086277574 -0.028362665 -0.10436753 -0.00886243
0002f0 97 34 47 bd 3e 3e 06 be d3 0b 51 bd 56 f2 c7 bd
       -0.048634138 -0.13109681 -0.051036667 -0.09763019
000300 5d ab 5d bd bd e9 fb 3a fe dd 18 bd e3 e6 6c 3d
       -0.054118503 0.001921944 -0.037321083 0.05783738
000310 c2 4a 8f bd be 87 37 3e 64 97 18 3e 20 8a bb bc
       -0.06996681 0.17922875 0.14901501 -0.022893012
000320 9e a7 72 3d a5 32 40 bb 11 22 b7 bd 5a 57 0c be
       0.059241883 -0.0029327061 -0.089420445 -0.13705197
000330 47 9f 22 3b f1 c7 5d be fe 95 0f 3d 9f 55 6a bd
       0.0024814175 -0.21658303 0.035055153 -0.05721056
000340 26 be 37 be 4a 5a 03 3c 59 35 2f 3e 89 b4 59 3e
       -0.1794363 0.008017132 0.17110194 0.21260275
000350 65 4c 2c 3e f9 26 0b bd 62 4b a8 bd cf 2b 23 3b
       0.16826017 -0.033972714 -0.08217503 0.0024897938
000360 5e 43 89 3d be ab 0f be 60 95 24 bc 61 f5 96 3c
       0.067023024 -0.14030358 -0.010045379 0.018427553
000370 1c 3e a1 bd 20 54 8b 3e 72 de fb bb 18 75 1a bc
       -0.078731745 0.2721262 -0.0076864297 -0.009427331
000380 fe 31 e8 bd 5c a9 98 3d 6a e1 f2 bc fb 8c d9 bc
       -0.1133766 0.07454178 -0.029648501 -0.026556483
000390 bb 5c 5c 3d 5d ff 0e bd 06 68 38 3e 1d e9 1d 3d
       0.053799372 -0.034911502 0.18008432 0.038552392
0003a0 15 b3 3d be 64 78 08 3e 8b 2c 23 3e a8 7c 0c bd
       -0.18525346 0.13327175 0.1593496 -0.03429857
0003b0 bb 55 da bc 08 42 f2 3c 93 15 19 3e 03 cb 48 bd
       -0.026652208 0.029572502 0.14949636 -0.049021732
0003c0 55 bf f7 3c 68 ea d3 bc fe 09 38 be 5d 95 dc bd
       0.030242601 -0.02586861 -0.17972562 -0.10770676
0003d0 cc b1 19 3d 2b 32 01 3e 1c 37 4b 3d d2 ba d6 bd
       0.037523076 0.12616794 0.049613103 -0.10484852
0003e0 69 6b c4 3d 9b 8e 02 3e 67 31 5d 3e 7f 95 c4 3c
       0.09590799 0.12749712 0.21600877 0.023997067
0003f0 d5 35 25 bc 35 1d fd bd 88 03 d5 bd 9d 18 bf 3b
       -0.010083635 -0.123590864 -0.10401064 0.0058317916

fc2.bias f4 [64]
000000 14 cb 3c 3d 8c a8 c4 bd 1d c6 70 bd d3 69 39 3e
       0.046092108 -0.0960246 -0.058782686 0.18106775
000010 e5 ed 2d 3e b0 2b 87 bd d3 ed 03 3e 78 9b d1 3b
       0.16985281 -0.066001296 0.12883691 0.006396707
000020 b4 7a f1 3d 72 b6 c4 bc f6 1f ab bd 34 43 d7 3b
       0.11790982 -0.024012778 -0.083557054 0.0065692905
000030 78 c0 1f bd c5 42 a9 bd b1 c1 99 b9 75 e7 9e bc
       -0.039001912 -0.082646884 -0.00029326745 -0.019397477
000040 84 ec 86 3d fc bb 08 be 21 74 f9 3d 57 34 79 bd
       0.065880805 -0.1335296 0.12180353 -0.06084093
000050 83 32 41 3d 1d 28 d6 3d a9 9a 19 3e 45 d8 34 3d
       0.047167312 0.1045687 0.15000404 0.044151563
000060 ed e1 dc bd b4 6d 3d 3e 80 43 ed bc 3c 91 0b bc
       -0.107852794 0.1849888 -0.02896285 -0.008518513
000070 41 80 ac 3d bf 8c f7 3d 2e 17 0a be ad ea fe ba
       0.084229 0.12087392 -0.13485405 -0.0019448601
000080 a7 fd 1a 3d 0a 39 1b 3d 28 bc 5e 3b 67 28 11 bd
       0.037839558 0.037896194 0.0033986662 -0.03543892
000090 c9 93 df 3d bb 7c 10 bd 32 af f3 3d be d4 b4 bd
       0.1091686 -0.035275202 0.1189865 -0.0882964
0000a0 ac 97 51 bd 97 38 b1 bc 02 61 95 3d 6d f2 3c 3d
       -0.051170036 -0.02163343 0.072938934 0.046129633
0000b0 eb 36 c8 3c cc 4b a0 bd 2a 19 b4 bd 9d 9c d4 3d
       0.02444025 -0.07826957 -0.08793862 0.10381434
0000c0 52 7d a1 bd 5d 42 09 be de db 1a 3e 75 e2 16 3e
       -0.07885231 -0.13404222 0.15122935 0.14734824
0000d0 ea f3 d0 bb 97 b7 3c 3e 98 70 e6 3d 98 77 6b 3d
       -0.006376733 0.18429409 0.11251944 0.0574871
0000e0 d5 60 d4 3d 2d 8c 67 3c 8f af 11 3e a9 e3 db 3c
       0.10370032 0.014132542 0.14227127 0.026841955
0000f0 53 18 bf 3d 90 f7 b5 3d 82 ac 06 bd 95 24 b5 3c
       0.09330811 0.088851094 -0.03287936 0.02211217

out.weight f4 [4, 64]
000000 1d 9c 0a 3c 9f 29 c4 3d 75 78 fd bd 3e de 36 3e
       0.008460072 0.09578251 -0.12376491 0.17858216
000010 4e 08 15 3c 90 cf 4a 3d b3 6d 86 bd 78 be 85 bc
       0.009096218 0.049514353 -0.06563892 -0.016326174
000020 1e 47 c1 3d 4a 91 ad 3d e0 5f 1d 3d 9a e1 25 3d
       0.09437393 0.08474977 0.03842151 0.040498354
000030 8c df bf bc e5 7f c8 bd 3e 0d 1c 3e a3 24 03 be
       -0.023422025 -0.09790019 0.15239426 -0.12806945
000040 a0 72 3a 3d ab 29 70 bd d2 aa 7d 3d 8d 19 a2 bd
       0.04551947 -0.058633488 0.061930485 -0.0791503
000050 9f ac 26 be f9 73 81 bc 9b 42 d4 3d 49 fe 3e bd
       -0.16276787 -0.01580237 0.103642665 -0.046629224
000060 f7 bb 3f 3e 41 00 0d bc 54 1d a5 3d c3 c9 02 bd
       0.18724047 -0.008606018 0.080622345 -0.031930696
000070 1d 17 7e 3c ce 3c 1f 3d 6f 57 ea bd 1e 70 96 bd
       0.01550844 0.038876347 -0.11442458 -0.073456034
000080 81 f6 aa bc 66 95 86 bd ef c3 17 bd 0b 2a 12 be
       -0.020869495 -0.06571464 -0.03705209 -0.1427385
000090 0d 8e 1a 3b dd df 4f bd dc ea 26 3e 42 54 5e be
       0.0023583204 -0.050750602 0.16300529 -0.2171183
0000a0 5a d4 41 bd 08 dd 6a 3d 82 f9 f1 bd bf d8 04 3d
       -0.047321655 0.057339698 -0.11815168 0.032433268
0000b0 62 5c 84 3d 86 62 84 3d 10 ce bb 3d 3a 68 21 3e
       0.06462933 0.06464104 0.09170163 0.15762416
0000c0 c7 83 cc bd 87 a0 94 3d 3c 41 99 bb 67 29 3a bd
       -0.09986072 0.07257181 -0.004676966 -0.04544964
0000d0 da ea 84 3b 9c 21 1b 3e 2c 56 01 3e c8 df 3d 3d
       0.004056317 0.1514954 0.12630528 0.046355993
0000e0 12 a6 15 3e 51 32 04 3c b0 e2 7d bd ac 35 07 3e
       0.14614132 0.008068637 -0.061983764 0.13204068
0000f0 97 94 4b 3d cc 99 98 3d 07 d8 53 bd 5b c2 2c 3c
       0.049702253 0.074512094 -0.05171969 0.010544385
000100 80 7b 9f be 07 17 0b 3b 1c 59 6e bd 36 8d d4 3d
       -0.3114891 0.0021223442 -0.05819045 0.10378496
000110 2f 9b 36 3d 4e ca d6 bc 14 b9 f6 3d d8 b8 e0 bd
       0.04458159 -0.026219513 0.120470196 -0.10972756
000120 eb 63 c0 3c 6b 50 48 3d fc 0b d2 3d 1a 46 32 bd
       0.023485145 0.048904818 0.10256192 -0.043523885
000130 01 4d d5 3c 42 81 cf 3d 92 36 88 be 3b 26 89 3d
       0.026037695 0.10132076 -0.26604134 0.06696745
000140 90 02 f2 3d fe 87 a4 bc d0 0f 93 be 17 6e d5 bd
       0.11816895 -0.020084377 -0.28723 -0.104213886
000150 f2 df 86 3c e1 57 19 3b 31 87 17 3e 0d 15 8e bb
       0.016464207 0.0023398327 0.14797665 -0.0043360055
000160 3c 41 ab 3d 3c e9 af 3d 45 c8 11 bd f4 eb d5 bd
       0.08362052 0.08589408 -0.035591383 -0.10445395
000170 32 ba 89 bd da 0b 4d 3d e8 50 9c bd 2a 33 23 3c
       -0.06724967 0.05006013 -0.07632619 0.009960929
000180 54 f4 09 be ce 61 48 3d e2 ef 5f be 9b fe 8c 3c
       -0.1347211 0.0489214 -0.21868852 0.01721125
000190 3e db 3b 3d 83 54 2d 3c d2 9f 34 bc 53 9e d7 bc
       0.045863383 0.010579231 -0.011024432 -0.026320612
0001a0 a0 ca fd bb 2f f7 24 bc 54 86 99 3c 17 53 45 bc
       -0.007745102 -0.010068699 0.01874081 -0.012043736
0001b0 73 28 c2 3c 06 b3 89 bd ee e9 a3 bd 8b 70 f0 3d
       0.023700928 -0.06723599 -0.08003603 0.11740216
0001c0 a1 55 ed 3b 71 a3 9a 3d 4f 23 f1 3d a6 4b ce 3d
       0.007242874 0.07550705 0.11774313 0.100730225
0001d0 f9 33 fa 3a 98 0c f9 3d ea 88 b3 3d cb f7 f8 bc
       0.0019088975 0.12160605 0.08766349 -0.030391594
0001e0 ba 80 76 3d 0c 91 b4 3c 20 b8 c2 3d bf 2c fc bc
       0.060181357 0.02204182 0.09507775 -0.030783055
0001f0 a2 c8 02 b9 f2 d3 90 be 56 5a b1 bd 7f 8f 40 3d
       -0.00012472508 -0.282867 -0.08659808 0.04701185
000200 e2 85 ce 3d 89 fd 62 3d f2 ae 4c bd de d5 02 3e
       0.1008413 0.05541757 -0.04997153 0.12776896
000210 b8 09 ef 3d 1b de 20 bc 74 95 c5 3d b6 93 b9 3b
       0.116717756 -0.009818579 0.096476465 0.0056633605
000220 b6 23 77 3d d7 40 a5 bd fc 28 d7 3d 3c da be bd
       0.06033679 -0.08069008 0.10505864 -0.09318969
000230 74 0c fe 3a c8 17 02 bd 63 93 a7 3c a4 84 a6 3d
       0.0019382373 -0.03176096 0.020456022 0.08130768
000240 1e 8d 30 bc 98 8b 2f bd 12 6d 0e 3e f1 bb 2e 3d
       -0.010775832 -0.042857736 0.13908795 0.042659704
000250 c9 7b 5e bc 56 e7 31 3d c8 23 4a 3d 16 32 3c 3d
       -0.013579317 0.04343351 0.04935053 0.045946203
000260 0f 77 a1 bd 20 03 f8 3d 87 6b 71 bd 8e 24 5d 3c
       -0.07884037 0.12109971 -0.058940437 0.013497485
000270 96 59 d1 3c 05 3c 44 3d f6 b8 d5 3d b0 39 67 bd
       0.025555413 0.0479088 0.10435669 -0.0564515
000280 15 ff 07 bc d4 48 41 3c 27 82 b8 bc 6c 8c 8f 3c
       -0.008300562 0.011797149 -0.022522999 0.017523013
000290 a0 86 86 bc 18 a7 94 bb e5 08 eb 3d 30 52 1a 3e
       -0.016421616 -0.0045365207 0.11476306 0.15070415
0002a0 63 5c 83 bd 11 26 21 bd ff be 9b bc 32 6f b6 bd
       -0.06414106 -0.039342944 -0.019011972 -0.089079276
0002b0 bb 98 a8 be 4c 91 dc bd 62 e0 98 bd 37 4a 22 3e
       -0.32929024 -0.10769901 -0.074646726 0.15848623
0002c0 db 00 53 bb be 2d 80 bc 23 3f c3 3d f7 e6 fc bb
       -0.0032196555 -0.015646812 0.09533527 -0.007717963
0002d0 b9 33 7e ba 7e 61 ae 3d 7d f2 8c 3d c9 b0 9f 3c
       -0.00096970383 0.08514689 0.068821885 0.019493477
0002e0 c5 47 23 3d 7e 83 aa 3c 66 e2 b7 3d 04 3a c3 be
       0.039863367 0.020814653 0.08978729 -0.381302
0002f0 a9 ad ca 3c 2e 80 df 3d 64 17 24 3c 07 7d 58 bb
       0.02474101 0.1091312 0.010015342 -0.0033033506
000300 4a ed a7 3c 0f dc 98 bc b6 61 3f bd fb d6 63 bc
       0.02049889 -0.01865962 -0.046724044 -0.013906236
000310 ba e4 3b 3d 0b 2e f0 bd 1d 60 ac 3c 5f 2f 0a 3d
       0.045872428 -0.11727532 0.021041924 0.033736583
000320 02 01 24 3e 99 fe b1 bc f4 26 90 3d b6 eb 8c bd
       0.1601601 -0.021727847 0.0703868 -0.06880896
000330 ca 34 0d be 42 25 96 bd c5 84 52 3d 3c 09 61 be
       -0.13789669 -0.07331325 0.05139615 -0.21976179
000340 9a db 5a 3e 97 ce 8e 3d 0b e8 b1 bd 91 c3 6f bc
       0.21372834 0.06972998 -0.08686837 -0.014634029
000350 dc 86 8f 3d 3d d8 c8 3d c1 77 be 3d 21 61 4a 3e
       0.07008144 0.09806869 0.09300185 0.19763614
000360 ee 18 18 3d 45 96 4d 3e 83 0f 57 bd cf 09 cb bd
       0.03713315 0.20076855 -0.052505028 -0.0991398
000370 c9 a6 03 3d c8 d3 1f 3e ce 4b 4c 3d 95 aa f9 3c
       0.03214148 0.15608132 0.04987698 0.030476848
000380 ad d3 03 3d 77 45 1f 3e db 1e 46 3d de 56 88 3d
       0.03218429 0.15553842 0.04836927 0.066571936
000390 68 0d 8a 3d 74 22 0b 3e a7 13 b7 3d 0e 87 83 3d
       0.06740838 0.13587362 0.08939295 0.06422244
0003a0 ec c3 54 3d 4c 5b 62 bd 90 0a ca 3d 5b 51 dd 3d
       0.05194466 -0.05526285 0.09865296 0.10806533
0003b0 4e c0 20 bc 20 7f 7e 3c 92 1c 84 bd 86 1e 3a 3c
       -0.009811474 0.015533239 -0.06450762 0.011359816
0003c0 f5 59 1b bc c6 c0 8a bd cc c2 97 bd 6b 62 e7 3d
       -0.009481897 -0.0677505 -0.074102014 0.112980686
0003d0 ae af ad 3c aa 69 58 3c 02 95 5a 3c 56 ab 89 be
       0.021201935 0.013208786 0.01334119 -0.2688853
0003e0 ba dd a4 bd dc 28 21 3c d0 ad 4b bd 89 e7 4f 3d
       -0.080501035 0.009836402 -0.049726307 0.05075792
0003f0 c1 e3 e7 3d 57 3d e5 bd 67 c0 14 3d 16 ef 79 be
       0.113227375 -0.1119334 0.0363163 -0.2440761

out.bias f4 [4]
000000 b4 c3 ce 3d 0a 94 82 3d fe dc eb 3d 07 35 e7 bc
       0.10095921 0.063758925 0.1151676 -0.028223528
