2D Discrete/models/dqn/dqn_10x10.pt (torch, 186076 bytes, 6 tensors)

fc1.weight f4 [150, 150]
00000000: 5a9d 913d c8d9 90bd 0dda 833d 9294 653c
00000010: 2d17 08bd f22e 4abd 332f 5b3d 5041 8a3c
00000020: e5d9 363d fe36 9bbd 7803 a338 7caa 783c
00000030: 3a11 3d3c b429 5d3d a9fc 573d ac4f 323c
00000040: e9e4 40bd b56a 5d3d 2cc7 6abd 84cc b73c
00000050: 6114 ed3c 8900 83bd 5628 8cbd 3cf1 8abd
00000060: 6fdf 473c aaa2 773d e1dd e4bc 2bd9 4b3d
00000070: 2521 893d b222 49bd 3036 74bd 9b80 cebc
00000080: a171 3bbd 99c9 383d eb1f f4bc beef fb3c
00000090: 3e06 903d c511 593d 66b3 803d e0d2 7e3d
000000a0: 9f02 b9bc 66d3 58bb 70d1 fabc 488d 60bb
000000b0: e4b0 84bd 886f 543d bcd4 643c b784 7d3d
000000c0: da82 b43b b16e 833d 6041 5abd 0b19 9b3d
000000d0: 4c98 d4bc 8e2e cdbc 447b 723d 4612 8e3d
000000e0: ec6c de3b 60d4 4e3d 6df5 65bd c20d babb
000000f0: c1bf a0bc 864f 8c3c d87e 093b f8d7 f53c
00000100: 80d5 a33d 2e2a ddbc 95d0 3ebc 8f19 f53b
00000110: 7b43 b83c d592 083d 3657 433d 2a4a 453d
00000120: 7644 973d b90f 9dbd 8008 9d3d ca21 41bd
00000130: 4b71 fa3c 16fc 0f3d b6b8 6639 3cb7 ae3c
00000140: 18c8 833d db4f ebbc 4b30 723d b0ac 98bd
00000150: 0a98 c13a f012 0c3d faa0 7ebd bd31 0bbd
00000160: 258f 20bd 3ceb b73c 49ba 313d 7d4f 8f3d
00000170: 5316 8dbd 0397 35bd 4c08 73bd 19d7 bb3c
00000180: 8095 7cbd 9bb2 853d 142c f2bc f5bf 3a3d
00000190: b4ed 4b3d f5dc a23d 83b4 69bd 5fc7 9d3c
000001a0: 719b 793d 728e cb3b e33f 9cbd 2087 dfbc
000001b0: cd8a 19bc f50a 99bc 7e62 a13d be2b 66bd
000001c0: 4e46 8b3d 76a6 c23c ca1f e53c b46a 8d3c
000001d0: fe46 8b3d 44fe 12bd e870 893d e26c 5f3d
000001e0: f74a 283d ea17 da3c f701 753b dc83 8a3d
000001f0: 5602 cbba 5298 8a3d 6036 7abd fcb0 80bb
00000200: 51a1 c23b 5f0f 623d a751 363d d187 c3bb
00000210: 44e3 89bd 5daa 93bd 5dae ba3c 36e1 133d
00000220: 4b78 b2bb 5d1b eabc e49b eb3c d87f 96bc
00000230: 2bfc 403d c842 1c3c b8ae 39bd 3521 923d
00000240: 799e 093d 662e 8cbd e2b3 723c 1abb adbc
00000250: 573a a53d e36b af3b 8e2d 2f3d a335 21bd
00000260: 8c44 55bd b1e9 6f3d d9e4 263d f995 2ebd
00000270: af15 153d ef48 8abd c113 a33d c088 19bd
00000280: 7bdd 34bc 7569 26bd 9cfa 913d a908 493d
00000290: c4df 033d 4930 58bd 2fbb 36bd dc19 423b
000002a0: 2035 13bd f716 a6bd 4e1a 143c 9973 8d3d
000002b0: 0075 27bd 93f3 dabc d90a 9a3c 4ff4 5e3d
000002c0: 22d7 7abd 5c32 323d 2bbc e5bc a9a6 3bbc
000002d0: e5d5 5f3d 4528 89bd 4b6a 563b 8b10 09bd
000002e0: 7dba 8ebc 0121 4ebd 3bdf 4b3d eca1 55bc
000002f0: 2cfe a4bd 130f 923c 63a8 7f3d d476 03bd
00000300: a37d 3ebd ab82 2cbd 3391 15bd e0c3 6ebc
00000310: b52a 213d 715c 893d 5c86 333d 0559 473d
00000320: b3bc 903c 227d 07bd b953 67bc 1994 49bc
00000330: eb5e 3ebd 8c6c 1d3d 99a6 c83c 0df7 593b
00000340: 4831 64bd 14bd 96bd 7a9f 86bd c244 8f3d
00000350: 30eb a63c a904 8e3d e681 d73c c2c0 943d
00000360: e926 a13d f07f e73c 3dc1 a63d c7fa a2bd
00000370: 6e8e 55bd 04e3 a43d 8a38 193c 1856 8e3d
00000380: fd9f 033d a172 94bd 1c27 6f3d 0a18 0f3c
00000390: 4176 f5bc 6a06 80bd 0f44 e8bb bd82 c53c
000003a0: 5fda a3bc 508a 283d dd6e 3cbc 15c9 4f3c
000003b0: d2ec 82bd 2f04 6b3d d363 cb3b ca47 423d
000003c0: c37b 9abd 6ad3 0f3d f967 9c3d f1b4 71bd
000003d0: a0fb 7dbc 61d9 64bd 4dcb 5f3d e9c5 1c3d
000003e0: da96 96bd 30bf 75bd 78ba 883d de9b 9ebd
000003f0: 00cb 42bc a1b6 e1bc ebfc 8a3d 4571 013d
0.071100906 -0.070727885 0.06438074 0.014012473 -0.033225227 -0.049361177 0.05351181 0.016876847
0.044641394 -0.07578848 7.773092e-05 0.015177365 0.011539752 0.05399485 0.05273119 0.010883253
-0.047093306 0.054056842 -0.05731885 0.022436388 0.028940381 -0.063965864 -0.06843631 -0.06784293
0.012199267 0.060457863 -0.027937831 0.049767654 0.06695775 -0.049105354 -0.05962199 -0.025207808
-0.04576266 0.045114134 -0.029800376 0.030753966 0.070324406 0.052995462 0.062842175 0.062212825
-0.022584258 -0.0033084988 -0.030617446 -0.0034263898 -0.06479052 0.051864177 0.013966735 0.061894145
0.005508763 0.06417597 -0.053285003 0.07573136 -0.025951527 -0.025046613 0.059199587 0.06937079
0.006787887 0.050495505 -0.05614226 -0.0056779096 -0.019622685 0.017127763 0.0020980146 0.030010208
0.07999706 -0.026997652 -0.0116464095 0.0074798535 0.022493115 0.033343155 0.047690593 0.04816643
0.07386105 -0.076690145 0.07667637 -0.047151364 0.0305716 0.035152517 0.0002200332 0.021327607
0.06434649 -0.028724601 0.059128087 -0.074548125 0.0014770043 0.034197748 -0.062165238 -0.03398298
-0.039199013 0.022451036 0.043390546 0.06997583 -0.06889024 -0.04433347 -0.059334084 0.022929715
-0.06166601 0.06528207 -0.029562034 0.04559322 0.04978724 0.079523005 -0.057056915 0.019260107
0.060939256 0.006212049 -0.07629373 -0.027286112 -0.009371472 -0.018681983 0.07880114 -0.05619406
0.06800519 0.023761015 0.02796926 0.017262794 0.0680065 -0.035887018 0.06710988 0.054547198
0.041087117 0.026622731 0.0037385204 0.067634314 -0.0015488367 0.06767334 -0.061087012 -0.003927348
0.0059396406 0.05519044 0.044511463 -0.0059671183 -0.067328006 -0.072102286 0.022788221 0.03610345
-0.005446469 -0.028577501 0.028760858 -0.018371508 0.047115486 0.009537406 -0.04533264 0.0713524
0.033598397 -0.06844787 0.014813395 -0.021207381 0.08067768 0.0053534373 0.042768054 -0.039357793
-0.052067325 0.058572475 0.04074559 -0.042623494 0.036397632 -0.06752192 0.07962752 -0.03748393
-0.011039133 -0.040627915 0.07127878 0.049080525 0.03219582 -0.052780423 -0.044612106 0.0029617464
-0.035939336 -0.08109849 0.009039475 0.06906814 -0.040883064 -0.026727473 0.018804 0.05443221
-0.061240323 0.043505058 -0.028043827 -0.011453309 0.054647345 -0.06697134 0.0032717164 -0.033463042
-0.017422909 -0.050324444 0.049773436 -0.013039093 -0.08056292 0.017829454 0.062416445 -0.032095745
-0.046506535 -0.042116802 -0.036515426 -0.014573067 0.03934737 0.06707085 0.043829307 0.04866888
0.017668104 -0.03307832 -0.014119082 -0.012303376 -0.04647724 0.038433596 0.024493502 0.0033258826
-0.05571106 -0.073602825 -0.065733865 0.069955364 0.020375818 0.069344826 0.026307058 0.07263328
0.0786875 0.028259248 0.08142326 -0.07957988 -0.052137785 0.08051112 0.009351859 0.06950015
0.032135 -0.07248426 0.058386907 0.008733759 -0.029963614 -0.062512234 -0.0070881913 0.024110192
-0.020001588 0.04114753 -0.011501041 0.012682219 -0.06392826 0.057377037 0.0062069683 0.047431745
-0.07543137 0.03511373 0.07637019 -0.05901045 -0.015501887 -0.05587137 0.054637242 0.03827468
-0.073529914 -0.059996784 0.06676191 -0.07744573 -0.011889219 -0.027552905 0.067865215 0.031602163

fc1.bias f4 [150]
00000000: 13a0 92bd 0f0d 193c 7b97 423c f676 573c
00000010: a638 9e3d 87bc 47bc 9c88 a6bd 83dc 223d
00000020: 0184 4b3d d03a 89bd 44b5 813d f0ea 50bc
00000030: d87a 3fbd 4843 863c 3612 323d 7513 49bd
00000040: 318a 053d d4b8 c03c e823 adbc 4385 0d3c
00000050: 2145 2a3d e282 163c 429d bf3c a371 1bbc
00000060: 4013 79bd 8787 8dbc 983c a43d 8c88 ff3c
00000070: 3589 41bd 86c0 2abd 775c 72bd 2854 4e3d
00000080: e81f 4c3d 75cb 15bd 92aa 57bd dc4a a1bd
00000090: 8ce1 f4bb 2edf 29bd 69e8 1dbd 3ae6 64bd
000000a0: 94a6 40bd 7264 153d d313 b23c a7fa 84bd
000000b0: 116e 823d 3117 86bd 8863 16bc adfb b13c
000000c0: 0d08 53bd 6817 c53b 82ce 5bbd 1740 e4bb
000000d0: 6753 ee3c 8524 84bd 15fe 913d f78f a4bd
000000e0: 5849 18bd f0d4 21bd 81d0 673d 8f4b 743c
000000f0: 54b0 413c b9e4 853d c41e 3bbd a24c 453d
00000100: 12fb 833d 7235 0cbd ed70 79bd f7a3 67bd
00000110: 1023 873c cda7 973c 8e44 ac3c 629a 33bd
00000120: 554a 74bd 9ebe ffba dac8 b33b cfbb 76bc
00000130: 269d a6bd cac8 0bbd 9626 7f3c 537c 9ebd
00000140: 9d71 a23d e31a a3bd c0e7 343d d5b9 6a3d
00000150: 9173 433c 6e71 a3bd 3f56 923d 9793 0cbd
00000160: d7b6 a2bd 5305 4f3b 6c70 51bd db17 523c
00000170: b447 07bb 0378 a73c c8a6 8fbc b9f5 9d3d
00000180: 43b1 593d dc7a 08bd 35b2 88bc ea67 223d
00000190: fa79 c8bc fc4d 083d cefb 7bba a960 15bc
000001a0: b809 f53c 149e 75bb 4920 713c 365b 16bd
000001b0: 68ea 8d3c 920e a53d b7e7 cdba 70fd a53d
000001c0: 125e 923c 5905 d43c 9a35 3a3d e505 41bd
000001d0: 6e30 1c3d e04b b2bc f7b8 603d aa7b 5c3d
000001e0: ec3f a4bd 631d 743c d7aa 343d 5f10 9e3d
000001f0: bb60 c5bb f72f 193d 06ae f7bb a907 193d
00000200: 6cd2 973d e5a6 683d 98c6 4cbc 8523 9a3d
00000210: 89c2 683c a275 f6b9 fb16 303c 380e ec3b
00000220: e59b afbb 354d f73c 00d6 b03c ee1b d63c
00000230: af6b 8a3d 625f 033d 04ee 7f3c 4a8b 94bc
00000240: e253 ac3c 04ed e0bc 893a 9e3d da37 5ebd
00000250: d5f2 913d 5efb 7bbd
-0.07159438 0.009341492 0.011876936 0.013150921 0.077256486 -0.0121909445 -0.08131525 0.039761078
0.049686436 -0.06700671 0.06333402 -0.012751326 -0.046748012 0.016389504 0.0434744 -0.04909082
0.032602493 0.023525633 -0.021135285 0.008637729 0.041569833 0.009186478 0.023390416 -0.009487542
-0.060809374 -0.017276539 0.0801937 0.03119304 -0.04724999 -0.04168751 -0.059170213 0.050373226
0.049835116 -0.036570985 -0.052652903 -0.078756064 -0.0074731763 -0.041472606 -0.03855172 -0.055883624
-0.04703386 0.036472745 0.021737969 -0.06493121 0.0636865 -0.06547392 -0.009179004 0.021726454
-0.05152135 0.006014753 -0.053663738 -0.006965648 0.029092504 -0.06452278 0.071285404 -0.080352716
-0.03717932 -0.039509714 0.05659533 0.014910593 0.011821825 0.06537766 -0.045683637 0.048168786
0.06444372 -0.034230657 -0.06089871 -0.056552853 0.016496211 0.01851263 0.021028783 -0.043848403
-0.0596412 -0.0019511764 0.00548659 -0.0150594255 -0.081354424 -0.034127034 0.015573164 -0.07738557
0.07931826 -0.079641126 0.044166327 0.05730613 0.011929409 -0.07980619 0.071453564 -0.03432044
-0.0794503 0.0031588867 -0.051132604 0.01282307 -0.0020642104 0.020442968 -0.017535582 0.077128835
0.053147566 -0.033320293 -0.016686538 0.03964988 -0.024472225 0.033277497 -0.0009612412 -0.009117284
0.02991186 -0.0037478255 0.01471717 -0.03670808 0.017323688 0.0805942 -0.0015709315 0.0810498
0.017867122 0.025881456 0.045461275 -0.047124762 0.038132124 -0.021764696 0.054863896 0.053828873
-0.08020005 0.014899584 0.044108238 0.07717966 -0.006023494 0.03739926 -0.007558587 0.03736082
0.07413182 0.056799788 -0.01249852 0.07526306 0.014206537 -0.0004700842 0.0107476665 0.0072038434
-0.0053591602 0.030188182 0.021586418 0.026136365 0.0675882 0.032073386 0.015620712 -0.018132824
0.021036092 -0.027456768 0.077260084 -0.054252483 0.07126395 -0.06151902

fc2.weight f4 [150, 150]
00000000: 8d2b 9d3d e6cf 08bd 9fd1 89bd 4205 483d
00000010: 226d 583d 390b 03bd 63a4 223d 8feb 9c3d
00000020: d547 483d 2407 b83c e841 983d 0304 173c
00000030: 6beb 95bd f267 d6bc cc06 04bc 0ced 76bd
00000040: 9030 243d 0116 4f3d 64a7 85bc 82e2 173c
00000050: c42f b2bc e9c5 4d3d 9859 7a3d d67f ecbc
00000060: 91f4 3d3d 44ca 16bd 19cb 2f3d 2501 0e3d
00000070: ab0c 0e3d 2c5a efbc 3db7 9ebb 46be 1b3d
00000080: 9d1a 6d3d 9dc9 9b3d 51c8 bebc f083 99bd
00000090: b853 81bd cb69 5c3b d1d1 8b3d 89dc 053d
000000a0: ddb8 31bd a3bd 8b3c c8a0 a1bb c8e6 d93c
000000b0: 9df2 88bd 3f00 3f3d 5e7f 563d 6b04 003d
000000c0: ad05 93bc 3e00 58bd 6ee3 85bd 4c33 6b3d
000000d0: 7323 7ebd 554f 96bd 95cc 7cbc 6d27 7c3d
000000e0: 8fac 05bc a923 90bd bc0e ab3c d3c0 083d
000000f0: 3bd7 a03c 5c43 d4bc 7467 9e3d 3654 50bd
00000100: 386e 9cb9 198c f7bc a8c8 ba39 94cd 383d
00000110: ffe3 f43b c326 963d d28a 533d 2f30 733d
00000120: 88a0 e5bc 10f3 0e3d 4591 633d 7e0e 2c3d
00000130: 31e9 d4bc dfef a33d f28d 543d 9491 22bd
00000140: 9c6e 14bd 6b18 2fbd 9be0 ea3b c2b1 65bd
00000150: 922d 003c cfe4 5bbd e73b 363d 76c0 9c3c
00000160: df86 083d dc57 a53c 9c49 babb 620f 7ebc
00000170: 73d5 fbbc 6092 1abd 7e08 78bb c260 933d
00000180: ea53 85bd 2f24 a33d 45ff 8a3d ca54 9bbd
00000190: 58fb 5fbd d37b e3bc de28 2ebd af7f 6dbc
000001a0: 24d4 5fbd 3dc0 87bc 33c2 a6bb 0c2f 103d
000001b0: a7c1 8bbd 3220 89bd 7e3b 90bd 4ae5 7fbd
000001c0: b5db d33b ebc2 babc 83dd 873d c6b3 ccbc
000001d0: 8706 d7bc 5b40 75bd 4d1e 1a3c 4d91 b73a
000001e0: 7246 9b3c 56b6 933d f6a8 4f3d 4e8d 803b
000001f0: 184b 6ebd 4667 46bd 5a24 693d 9374 92bd
00000200: cbc7 08bd 860e 4bbd 399f 5c3d f1ee 143d
00000210: 5b35 0d3d 3fc9 9ebd 66e3 183d 872b f2bc
00000220: 59a9 64bd 4779 6d3c d4cb 85bd 5e91 a9bc
00000230: 301b 80bd a225 febb f75a d83b 2244 eebc
00000240: 5e19 03bd 9398 b6bc 28ae 8a3d 7c99 3b3d
00000250: 2dd4 b13b 4f0c a33d 6b95 3e3d 6ca1 803d
00000260: 3175 8f3d 325c 79bc 742c 643d 6761 3c3d
00000270: 3f7f 533d 1f64 4fbc 71cd 813d 47a6 bd3b
00000280: 5f02 8b3c 28c9 51bd f05c fdbb d2e5 8fbd
00000290: 8d40 7fbb b86c 2d3c 49c6 e6bc 8847 76bd
000002a0: 6b7e e33a 6168 8c3d 9025 023d a3bc 2f3d
000002b0: 2d8f 8abd 6051 543d 3a18 0dbd 4bcf 98bd
000002c0: b336 d73c bc6d b5bc 22bd 3bbd 9391 803d
000002d0: 902b 2e3d f2af 80bd 6684 71bd 1cbd 34bc
000002e0: 9279 03bd 8713 a0bd a1fe 92bd afb8 9a3d
000002f0: a9a5 67bd 6aeb a13d 4018 78bd 51e3 853d
00000300: 4f26 21bb 3de2 27bd 1d4a 9ebc 7f4a 943d
00000310: e305 4b3d d7c7 443c 1974 5abd 09ad 16bd
00000320: 6874 863d 2ec5 713c 093f 483d 9e27 77bd
00000330: 3818 d53c 0e98 843d 1aae b23c 82d1 4e3d
00000340: 763c b03c d415 65bd acae 8d3d 2062 8fbd
00000350: d7da 96bd 7c1d efbc 2768 a0bd 2d78 22bc
00000360: de67 92bc 7006 2cbc 8432 df3c 0867 863d
00000370: 334a 1f3d baf9 8ebc 191a b1bb a59f 04bd
00000380: 127c 3c3d 0662 813c 6e53 0fbd 7523 1fbd
00000390: eb07 5d3d 63b1 933d e066 643d c645 8b3d
000003a0: 050c 04bd b9de 2e3d cd33 863d d11c 9c3c
000003b0: dea0 34bd 6539 69bd d48b 2ebd a767 31bd
000003c0: a42c dc3c e5f0 8ebd 07e8 42bd b3ae 17bd
000003d0: a455 473d 9236 95bb 9b33 94bd 9de5 6c3c
000003e0: dfb1 303c fa31 903b 5d73 213d 3409 69bd
000003f0: 431f 363b ad3c 2cbd 4114 96bd 8740 c4bc
0.07674322 -0.033401392 -0.06729435 0.04883314 0.052838452 -0.031993125 0.039707553 0.07662117
0.04889663 0.022464342 0.074344456 0.009217265 -0.07320293 -0.026172612 -0.008058261 -0.06028466
0.040085375 0.050558094 -0.01631517 0.009270312 -0.021751292 0.05023757 0.0611206 -0.02886955
0.046375815 -0.03681399 0.0429183 0.03466906 0.03468005 -0.029217802 -0.004843621 0.038023256
0.05788671 0.07606814 -0.023288878 -0.07495868 -0.06314796 0.0033632393 0.06827129 0.03268102
-0.04338919 0.0170582 -0.0049324967 0.026599303 -0.066869 0.046631094 0.05236756 0.031254213
-0.017947042 -0.052734606 -0.065375194 0.057421967 -0.062045526 -0.0733935 -0.0154296355 0.061561037
-0.008158817 -0.07038052 0.02088105 0.033387017 0.01963388 -0.025911026 0.07734576 -0.05086156
-0.00029836758 -0.030218171 0.00035626185 0.04511793 0.0074734683 0.07331612 0.05164606 0.059372123
-0.028030649 0.03489977 0.05555846 0.04200601 -0.0259901 0.08004736 0.051893182 -0.039689615
-0.036238298 -0.042747896 0.0071678883 -0.056077726 0.007823365 -0.053685006 0.04449072 0.019134741
0.033331748 0.020183496 -0.0056850445 -0.015506597 -0.030741429 -0.03773725 -0.0037846859 0.071961895
-0.06510146 0.07965886 0.0678697 -0.075845316 -0.05468306 -0.027769005 -0.042519443 -0.014495774
-0.054645672 -0.016571159 -0.0050890683 0.035201117 -0.06824046 -0.06695594 -0.07042597 -0.062474526
0.0064654 -0.022798022 0.06634047 -0.024988066 -0.02624823 -0.059875827 0.009406638 0.0014005095
0.01895449 0.07212512 0.050698243 0.003923095 -0.058177084 -0.048438333 0.056919433 -0.07151141
-0.033393662 -0.049574398 0.053862784 0.036360685 0.034474712 -0.077532284 0.03732624 -0.029561771
-0.055825565 0.014494247 -0.06533018 -0.0206992 -0.062551856 -0.007755951 0.0066026407 -0.029085223
-0.032006614 -0.02228955 0.06771499 0.04580067 0.0054269047 0.07961332 0.046529215 0.06280789
0.07004774 -0.015219735 0.055706456 0.045991328 0.051635023 -0.012658148 0.06338013 0.005787644
0.016968904 -0.05121723 -0.0077320263 -0.070262566 -0.0038948387 0.010585003 -0.028170722 -0.06012681
0.0017356401 0.06855846 0.031774104 0.042904507 -0.0676559 0.051835418 -0.034446932 -0.07461413
0.0262712 -0.022147052 -0.045834668 0.06277766 0.042522013 -0.06283559 -0.058964156 -0.011031415
-0.03209836 -0.078162245 -0.07177473 0.07554757 -0.05655447 0.0790623 -0.06057 0.06537498
-0.0024589484 -0.040987242 -0.01932245 0.072407715 0.04956616 0.012010536 -0.053333376 -0.036786113
0.065651715 0.014756484 0.04888824 -0.060340516 0.026012525 0.06474315 0.021811534 0.05049277
0.021513205 -0.05592902 0.06918082 -0.07001138 -0.07365959 -0.029188864 -0.078323655 -0.009916347
-0.017871793 -0.010499582 0.027245767 0.065626204 0.03888912 -0.017453063 -0.0054047224 -0.03237881
0.04601676 0.015793812 -0.034991674 -0.038852174 0.05396263 0.07211568 0.05576217 0.068004176
-0.032238025 0.042692874 0.06552849 0.01905671 -0.044098727 -0.0569395 -0.04261382 -0.04331174
0.026876755 -0.06979541 -0.04758456 -0.03703184 0.048665658 -0.0045536244 -0.072364055 0.014459041
0.010784595 0.004400489 0.03941666 -0.056893542 0.002778963 -0.042050052 -0.07328082 -0.02395655

fc2.bias f4 [150]
00000000: 2c21 973d 5d6d 483d 78f4 35bd 64c6 823d
00000010: f9e0 a13d c152 823d d99c 0dbd 409b 203d
00000020: fcec 103d 78e2 f43c 00c3 0139 01e0 7cbd
00000030: 0fcf e9bc 8be2 c9bc 24da 8d3d e9fc 093a
00000040: 7b4a 45bc 9ff4 303c 9c90 77bd 064b 96bd
00000050: bad8 6abd ccb2 56bb 85c3 f7bc 1f29 efbc
00000060: fe44 50bd 0d1d d13c d77b 303d 3b26 89bc
00000070: c82d 86bd e479 693d 8f16 06bd e9ef 363d
00000080: f421 393c bf58 e7bb 0f76 813d 003c 1e3d
00000090: e188 8b3d 905b 913d 34e5 4c3d d3b8 04bd
000000a0: 843f 373d 0819 db3c f1aa 86bd 2518 c53c
000000b0: 15d9 85bd d606 11bd 985e 9fbd 6c82 8cbd
000000c0: 24df 0a3d c360 91bd 0c79 99bd 8f62 82bd
000000d0: 5874 673c b119 443d b266 8abd 6140 dc3c
000000e0: 0259 a4bc 399a 083d 9f82 81bc dd8d 8e3d
000000f0: 88ac 683c 8f02 46bc 41fd 163d b565 7dbd
00000100: 8ee2 e1bc 956b 7cbc 17c8 833c d390 283d
00000110: 8881 9b3d cfc5 703d 7f70 3c3c 2c2e 4bbd
00000120: 93bc 923d 4b2f a23d 1863 31bd 3a29 b33b
00000130: 3048 e53c 6282 b9bc 60aa 823d 7112 123d
00000140: 18ac 1ebd bdf3 a9bc 15a4 83bb b57d 65bd
00000150: 4baf 4cbd bac0 f43c 1283 173d 59f4 ef3c
00000160: 2dae 923d 958a b73c 6d7d 203d 9fc9 4f3d
00000170: ad78 9e3c 8075 bcbc 41a9 4ebd 9345 a6bd
00000180: 1eba 58bd 9768 fb3b 05b5 0ebd 59f2 793c
00000190: c84e 8f3d 25c6 703b a5c6 3bbd de7c 103d
000001a0: 62a5 3abc 785a 863c 7c61 8fbd f173 843c
000001b0: 6731 923d 1f1d 6c3c 3a34 92bc 3eb1 a4bd
000001c0: a0d7 d03c d465 83bd 8f1f 2dbc 1955 a1bd
000001d0: 938b c0bb db78 373d d935 eb3b 49fc 4fbd
000001e0: 22e7 793d 5c9c 6fbd a4ee 9abd f6d7 6abd
000001f0: 90e0 89bd 3dde 083d 3e41 aa3b 8a96 423c
00000200: 031b 0bbd 1239 72bd bf7e 85bd 83b2 2f3d
00000210: 02ab 82bc 5257 4abc 479c 0abd d8c0 77bc
00000220: 6deb 6bbd 1927 723d 9eb2 86bd 281c a73d
00000230: 7f4b 80bb 076a 8c3d 0156 953d 5bd8 6cbd
00000240: 980f 313d e4a2 233d 51a8 7f3d a60b f93c
00000250: 7b5e 98bd 97d9 80bd
0.07379374 0.048932422 -0.044422597 0.06385496 0.07904238 0.0636344 -0.03457341 0.039210558
0.035382256 0.029893145 0.00012375042 -0.061737064 -0.028541116 -0.024644157 0.06926373 0.0005263822
-0.012041683 0.01080051 -0.060440645 -0.07338528 -0.057335593 -0.003276038 -0.030244598 -0.029194413
-0.050847046 0.025526548 0.043086853 -0.016741863 -0.06551701 0.05700101 -0.032736357 0.04466239
0.011299599 -0.00706014 0.06321346 0.03863144 0.06813217 0.07097542 0.050023273 -0.032402825
0.044738308 0.026745334 -0.06575573 0.024059365 -0.06535546 -0.03540691 -0.07781714 -0.068608135
0.03390421 -0.07098534 -0.07493791 -0.06366455 0.01412686 0.047876064 -0.06757869 0.026886167
-0.020061973 0.033350203 -0.015809355 0.06960652 0.014201291 -0.012085571 0.036862615 -0.061864574
-0.02757385 -0.015406509 0.016086621 0.04115374 0.075930655 0.058782395 0.0115014305 -0.04960458
0.07164874 0.07919177 -0.043307394 0.005467561 0.027988523 -0.02264518 0.06380153 0.03566212
-0.03873834 -0.020746106 -0.004017363 -0.056028087 -0.04997186 0.029877055 0.036990233 0.029291319
0.07162128 0.022404948 0.039182115 0.05072939 0.019344652 -0.023005247 -0.05045438 -0.08118739
-0.05291187 0.00767238 -0.034840602 0.015255534 0.06997448 0.0036739197 -0.04584374 0.035275333
-0.011391969 0.01640056 -0.070010155 0.016168566 0.07138329 0.01441124 -0.01784717 -0.08041619
0.025493443 -0.064159065 -0.010566606 -0.07877559 -0.0058760135 0.04479299 0.00717805 -0.050777707
0.06101144 -0.058498725 -0.07565048 -0.057334863 -0.06732285 0.033415068 0.0051957658 0.011876712
-0.033961307 -0.059136458 -0.065183155 0.04289485 -0.015950684 -0.01234992 -0.033840444 -0.015121661
-0.057597566 0.059119318 -0.06577037 0.08159667 -0.00391525 0.068561606 0.072917946 -0.05782352
0.043227762 0.039950266 0.06241638 0.030401062 -0.07439896 -0.06291502

out.weight f4 [4, 150]
00000000: a6b0 843d 2e1b 3fbd 0809 54bd 7f77 a3bd
00000010: e135 efbc 451a ee3c 7e91 883d fde3 6cbd
00000020: 3c02 6b3d 4e5d 24bd 188f 4c3d 5ab5 223d
00000030: 25d9 9a3d 41ab 2e3d fd8c 0e3d d879 a53d
00000040: 93ec ecbc 3f7b 953d eb54 8ebd 028b cc3c
00000050: 81cb d53c 345f 2d3d 0207 a63d 51cc 5c3d
00000060: 36b7 6a3c 088a 82bd f644 8fbd 3fab 343d
00000070: d940 e9bc b3a2 0abc b877 eb3c fb45 a7bb
00000080: 3a1f df3c 3c73 52bd 6084 933c 8c40 37bc
00000090: cd43 593d 6655 9d3d 269c 143d 7d48 493c
000000a0: a29d 353d 8ca5 adbc 0655 383d f994 b23c
000000b0: 376f a23d 72f8 d3bb 460f 643d 41bd 78bd
000000c0: 74d3 8ebb 45ea b83b c956 3b3d 490c 6a3d
000000d0: 3aa9 1ebd a109 993d 091f 2cbd 2069 a03c
000000e0: cb97 333d bbfa 8b3a 1cd2 573d ce29 a63d
000000f0: 1f1d 8dbd efed e53c 75dd 253d 85d4 4ebd
00000100: b83d a93c f1e1 b8bb f130 14bd 9f16 753c
00000110: 6905 01bb b143 4d3d 871e 94bd de0c 77bd
00000120: af13 943d bd01 86bc 9473 f53c 0c48 433d
00000130: bc42 7bbd 7de3 483c d6ac 8b3c 5aa2 c83c
00000140: 43cd 81bd c453 29bd d2da 843d a3c9 8dbd
00000150: 4c72 9abc 455a 5c3d 0746 e7bc 2f88 513d
00000160: 7282 0dbc a7f4 6ebd 82ce 9e3c bd21 7f3d
00000170: 78cc 733d 667d 94bd 5342 493c 2435 903d
00000180: 2c46 7ebc c881 a1bd 7375 08bd baf8 a03c
00000190: 2c6f 343b e02c 8a3d a2b7 75bd 524f e1bc
000001a0: e12a c0bc df45 353c 2db0 3cbd a95d e5bc
000001b0: 36ea 09bc 666b 1f3d 72e2 12bc fcc8 7a3d
000001c0: 2cfa 7f3d fa42 5e3d 88e3 823d ec83 ab3c
000001d0: a9ce 873d db5c 3ebd beed 623d ee35 8e3c
000001e0: 8a7e 93bd 17ee 99bd 549c 00bd 8656 933d
000001f0: 5e2a 47bd 5a54 65bc 4628 813b 9213 5f3d
00000200: 5dcd d23b 7b8a a53d 2371 893d 8444 47bd
00000210: 2eee 1f3d 0eec 103c a651 6abd 1d01 7dbd
00000220: fd84 fd3c 6077 debc fb50 f53c b68e dd3c
00000230: d6dd 943d dad3 893d 3d51 7fbd bed1 8d3d
00000240: 953e 95bd 86f1 c43b a7ae 713d 742f 75bd
00000250: c339 02bc 8acb 7f3d 1df6 24bd 750e 4ebc
00000260: c96c 8a3d 0b79 39bd 44bd b2bc c8d1 0bbd
00000270: 738e 1b3d 8029 66bc cce4 633d a545 60bd
00000280: 315b d8bc 2e58 9cbd 1d0a 823d c8ec 61bd
00000290: 6f01 2ebd 858c f83b 9d8d 903d d04f d4bb
000002a0: b382 283c d23b 8fbc f607 6fbd f732 18bd
000002b0: f9c9 df3c e06d 45bd 552b a33c c3eb e1bc
000002c0: 43c2 64bd df6d 31bb 7943 5dbb 42c3 f4ba
000002d0: 8a8b 61bb 8f2a 1bbc 0dfc 163c 422e 32bd
000002e0: 67d1 2ebc 07f1 573d 0f31 82bd 812e 14bd
000002f0: 4c0e 973d cbef 31bd 77ac 55bd 7432 9cbb
00000300: 7700 7e3d 2b17 1f3d 482f 303d 47b7 843d
00000310: eddf 44bc 5fa4 313d a2cf 353d 7ab9 e5bb
00000320: d3d4 9c3d 24a1 2b3d 2350 27bd f4e0 343c
00000330: 4624 853d 2d7a 03bd 5751 763c 8bd3 39bc
00000340: ed56 4fbd e6e2 843d 4ac6 753c 2fc2 973d
00000350: e01b a0bd e5a4 e83c ce63 15bd 67c4 3c3d
00000360: e33c a63c 26de ad3c 7359 5abd 1c16 f0bc
00000370: 5717 503b 9563 3f3d 259b 1b3d 1f55 833d
00000380: e986 8b3d 1aa2 c638 94e9 a5bd 8e0d 363d
00000390: b7d2 1ebc 42f6 2abc 048e 953c f424 223d
000003a0: ebc5 a1bd ddac 91bd a064 5fbd ae8a d4bc
000003b0: 49bd f0bc cf0c 90bd 5141 fbbb 08cf 16bd
000003c0: e315 973d 20c2 8c3d 1168 51bb 6c06 36bd
000003d0: 01f5 70bd a6a0 13bc bd3b 3fbd 340f 7a3d
000003e0: 2220 14bd 35d0 4b3d 1bd4 a2bd ee15 223d
000003f0: b460 11bd 83ab 653d 04ee 8a3d 22dc 69bd
0.064790055 -0.04665678 -0.051766425 -0.079817764 -0.029200496 0.02906526 0.066683754 -0.057834614
0.057375178 -0.040128045 0.049941152 0.03972373 0.07560948 0.04264379 0.034802426 0.080798805
-0.028921401 0.07298898 -0.069497906 0.024968628 0.026098015 0.04232712 0.081068054 0.05390579
0.014325907 -0.063739836 -0.06995575 0.044108626 -0.028473305 -0.008461642 0.02874361 -0.005104778
0.02723657 -0.051379427 0.018007457 -0.011184823 0.053043175 0.07682304 0.036281727 0.012285349
0.044339783 -0.021197103 0.04500296 0.021799551 0.07931369 -0.006468826 0.05567863 -0.06072736
-0.0043587033 0.0056431615 0.04573706 0.057140622 -0.038735606 0.0747254 -0.042021785 0.019581378
0.043845933 0.0010679582 0.05269061 0.08113442 -0.0689032 0.028067557 0.0404944 -0.050495643
0.020659313 -0.0056421687 -0.036179487 0.014959007 -0.0019687063 0.050113384 -0.07232385 -0.060315005
0.07230317 -0.01635825 0.029962339 0.04767613 -0.06134294 0.012261269 0.017050188 0.024491478
-0.06337979 -0.04133965 0.06487049 -0.06923225 -0.01885333 0.053797025 -0.028231634 0.051155265
-0.008637058 -0.058338787 0.01938558 0.062288035 0.05952117 -0.0725048 0.012283879 0.07041386
-0.01551966 -0.07886082 -0.033315133 0.019649852 0.0027532084 0.067468405 -0.05998958 -0.027503643
-0.023457946 0.011064022 -0.04606645 -0.027998762 -0.008417657 0.038920783 -0.008965122 0.06122683
0.062494442 0.054263093 0.063910544 0.020936929 0.06631214 -0.046475273 0.05540251 0.0173597
-0.0720187 -0.07516115 -0.031399086 0.071942374 -0.04862439 -0.013997162 0.0039415685 0.054462023
0.0064331726 0.08083054 0.06711032 -0.048649326 0.039045505 0.008845342 -0.057206772 -0.06176864
0.030947203 -0.027156532 0.029945841 0.027045589 0.07268874 0.067298606 -0.062333334 0.06924771
-0.07287327 0.006010237 0.059004452 -0.059859708 -0.007948342 0.06244997 -0.040273774 -0.012576689
0.0675903 -0.04528145 -0.021818765 -0.03413561 0.037977647 -0.01404798 0.05563812 -0.05475392
-0.026410671 -0.076340064 0.06349585 -0.055157453 -0.042481836 0.0075851106 0.070582606 -0.006479241
0.010285067 -0.01748458 -0.0583572 -0.03715798 0.027317988 -0.048200488 0.019918123 -0.02757824
-0.055849325 -0.0027073545 -0.003376214 -0.0018673914 -0.0034415447 -0.009470596 0.009215367 -0.043501146
-0.010670043 0.052720096 -0.063570134 -0.036177162 0.07375774 -0.043441575 -0.05216643 -0.0047667567
0.062012162 0.038840454 0.04301384 0.0648027 -0.012016279 0.043369647 0.044387467 -0.007010636
0.076577805 0.041901723 -0.04084791 0.011039961 0.06501059 -0.032098938 0.015034041 -0.01134194
-0.05062001 0.0648859 0.015000889 0.074100845 -0.07817817 0.02839894 -0.036472134 0.04608574
0.020292705 0.021224093 -0.05330796 -0.029307418 0.0031752193 0.04672583 0.037989754 0.0641272
0.068128414 9.4715695e-05 -0.08101192 0.04444652 -0.009693793 -0.010434689 0.018256195 0.039586022
-0.07899078 -0.07113049 -0.054539323 -0.025945034 -0.029387133 -0.07033693 -0.0076676984 -0.036818534
0.073772214 0.06872964 -0.0031952898 -0.044439718 -0.058827404 -0.00901047 -0.04668783 0.061049655
-0.036163457 0.04975911 -0.07950612 0.039571695 -0.035492614 0.05607177 0.06783679 -0.0570947

out.bias f4 [4]
00000000: 29fc 7a3c 30af 653c 020c 953d 1a07 80bd
0.015318909 0.014018819 0.07277681 -0.062513545
