2D Discrete/models/d2qn/d2qn_10x10.pt (torch, 186086 bytes, 6 tensors)

fc1.weight f4 [150, 150]
00000000: 7d85 8abd 4320 16bd 2355 fbbc c179 dabc
00000010: 9c6b 71bd 2032 0bbd 54f7 f9bb acb6 67bc
00000020: 3f8f b4bc 463c 21bd d653 dcbb dec8 b5bc
00000030: bfc3 8a3c 8ac2 87bc 1137 52bc d322 89bc
00000040: ed5f 95bd 5875 01bd 7887 aa3c dc68 78bd
00000050: 1e61 84bd 2dc3 36bd 1af4 ef3c ad83 4abc
00000060: 2d45 1e3a 1ac3 bdbc b50a a4ba bc32 0dbd
00000070: 88fc ef3c bf3c 543d 341f e5bc ac82 19bd
00000080: f987 3cbd 1d79 88bc bfa9 863d d2f6 8bbd
00000090: ba9d 6abd 42fc 43bd 8c36 893d 4200 47bc
000000a0: a052 97bd 5a19 40bd e828 17bd 52ae bb3c
000000b0: 013d 813b 3dd2 59bd d150 a23d ed4e 05bd
000000c0: 67a6 053d 6b2d 8dbc f412 afbc 7a1a 9cbd
000000d0: e38c e3b9 5e78 52bc f1ed 9f3d c429 99bd
000000e0: 7e1d 0d3d 56e5 703c 2d38 bf3c 339f 35bc
000000f0: 70fc 91bd 3f46 3abc c42d 93bc 29b0 7dbd
00000100: e5b5 a5bd 5c6d 63bc d73c 87bd 37df 53bc
00000110: bedf 303c 42a8 5cbd 4e79 c5bc c59b 283d
00000120: 30f7 07bd 67c3 3cbc acf5 373c 9c39 2b3d
00000130: 0ef0 b7bc 28f0 63bc 5ecd 0dbd ce64 0dbd
00000140: 4787 18bc 973e 873d 48a9 b23b f144 5dbb
00000150: 2c8b 8dbd 6e0e 1fbd e37a e8bc 39f8 86bd
00000160: 220b 343d b3c7 8bbc 7d29 8fbd cd4d b1bc
00000170: 19be 4a3d e43b 893d 1df3 7abb 7ca1 3bbd
00000180: e013 d2bc 61fd 6b3d 0921 8d3c bb55 2f3e
00000190: 48ec f0bc 9985 a23c ae9b 87bd 0a40 27bc
000001a0: 9fcf 2cbc 9818 a7bd 9cac 9bbd ed82 39bd
000001b0: 2ecd 0bbd 725f 073e a494 60bd 51ae 023d
000001c0: bb84 fcbb f4d0 f43c 7541 a23d a0f2 8abd
000001d0: f9e8 4ebd 790d 5d3d b818 863d 8607 24bd
000001e0: 0910 5fbd d93b 9abd 66c4 28bd 1d2f 78bd
000001f0: 78a7 afbc 4851 2d3d 2e0f 323d cb2b 98bd
00000200: bede cc3c 5b6a 27bd 8fbf a2bd 5934 993d
00000210: 0a00 53bd a880 413d 90e5 3e3d d4ac 11bb
00000220: 8ce3 393d f964 783d 6ac3 27bd e44e 713e
00000230: a9bc 98bd bf78 77bc 259d 7cba 1c22 733d
00000240: 0613 963b 735f 833d 2761 9b3d 15e8 e7bc
00000250: b784 a63c 3d61 8b3d 76e6 acbd cfed 533d
00000260: 987e 253d 95b1 1b3d ba99 263d e45d a6bd
00000270: e51f eebc 6f7d acbd 15df ec3a d820 873d
00000280: b0cb e7b8 6999 d13d 7f0c 323d 4eae 443d
00000290: 16d2 993d 90c4 13bd 82c1 babd 434c b3bd
000002a0: f7c8 163d 3fb7 993d 56d2 0c3d f8c0 f63d
000002b0: d1ba 44bc 2d67 173e 2b96 89bd 1c76 0abc
000002c0: f940 ebbc cbfc ed3c 955e 5e3d 28e9 813d
000002d0: b024 c73c 88b2 3c3d 8d83 bdbc 4efa 493d
000002e0: d5ff db3c 3ba7 7abc 1a1e 4b3d 11e4 473d
000002f0: 3423 2c3d 80e5 64bd d484 243d d47d 91bc
00000300: b501 34bd 4b64 c7bd d8e3 3c3d 6227 79bc
00000310: 8702 0a3d 4483 9e3d be89 0d3d 0b79 a1bd
00000320: ef86 0f3d e9f4 b73a e528 b8bd b263 f53d
00000330: 7548 33bc 9e19 77bd d09d 933c 3dd2 bebc
00000340: 119f 8a3b 48df 083e a9d2 ac3d aa57 793d
00000350: 5920 c13d efd4 cd3d 507b 953d f4ef 9c3d
00000360: 2381 d0bd 0321 073d f2c5 083d 710d 1b3c
00000370: 419e 783d e61d 233b 59ad 32bd 777c c13d
00000380: 1c80 3abc a578 c33d f4ee e53c cf75 cdbb
00000390: 5844 233d 55fe 10bd 818e 70bd 1f24 553d
000003a0: fc02 87bd a2c7 b0bc c529 b2bd ca03 99bd
000003b0: a9a2 42ba 0e03 6c3d ce23 67bd bc48 803b
000003c0: 0ef9 8abd ef47 513d 78a0 e43d 0387 803c
000003d0: 2527 4abd 0449 a0bd b3a7 433c ec92 803d
000003e0: 99db 9e3d 34b8 81bd 89a2 4dbd 664a 853d
000003f0: 057d 093d 5d72 a23d 9c06 34ba 731a 813d
-0.06763742 -0.03665186 -0.030680245 -0.026669385 -0.058940515 -0.03398335 -0.0076283608 -0.014142673
-0.022040961 -0.03936412 -0.006723861 -0.022190508 0.016939042 -0.016572256 -0.012830512 -0.016740238
-0.07293687 -0.03160605 0.02081655 -0.060646877 -0.06463836 -0.044619728 0.029291201 -0.0123604955
0.00060375297 -0.02316432 -0.0012515398 -0.034472212 0.029295221 0.051815744 -0.02796898 -0.037478134
-0.04602811 -0.016659314 0.06575345 -0.068341866 -0.057279326 -0.047847994 0.06699857 -0.012146058
-0.07388806 -0.046899177 -0.036904246 0.02291027 0.00394404 -0.053179014 0.07925571 -0.032545973
0.032629397 -0.017233571 -0.021371342 -0.076222375 -0.00043401783 -0.012846081 0.078090556 -0.07478669
0.034451954 0.014703115 0.023342216 -0.011085319 -0.07128227 -0.011369287 -0.017966159 -0.061935578
-0.08091334 -0.013881054 -0.06603401 -0.012931637 0.010795532 -0.0538714 -0.024105694 0.04116418
-0.03319472 -0.011521197 0.011228006 0.041802987 -0.022453334 -0.013912238 -0.03461968 -0.034519963
-0.009309596 0.06603735 0.005452309 -0.0033763016 -0.069113106 -0.03883212 -0.02837891 -0.065903135
0.04395593 -0.017062997 -0.06990335 -0.021643544 0.049497698 0.06700876 -0.003829188 -0.0458083
-0.025644243 0.057614688 0.017227666 0.17122547 -0.029409543 0.019839095 -0.066214904 -0.010208139
-0.010547548 -0.08158988 -0.07601282 -0.045290876 -0.03413122 0.13220003 -0.054829255 0.031904522
-0.0077062524 0.029884793 0.07922641 -0.06784558 -0.05051515 0.053967927 0.065476835 -0.040046237
-0.05445865 -0.07530946 -0.041202925 -0.060591806 -0.02144216 0.042313844 0.043471508 -0.07430228
0.025008556 -0.040872913 -0.07946693 0.07480688 -0.05151371 0.047241837 0.046605647 -0.0022228258
0.04538302 0.06064317 -0.040957846 0.2356525 -0.07457859 -0.015104472 -0.00096364535 0.0593587
0.0045799045 0.0641469 0.0758689 -0.028308908 0.020326955 0.06805656 -0.084423944 0.051740464
0.040403932 0.038011152 0.04067395 -0.08123377 -0.029067943 -0.08422362 0.0018071855 0.06598061
-0.00011052878 0.10234339 0.04346895 0.048017792 0.07510774 -0.03607613 -0.0911894 -0.0875478
0.03681275 0.075056545 0.03438028 0.120485246 -0.012007431 0.14785452 -0.067180954 -0.008451011
-0.028717505 0.029051205 0.05428942 0.06343299 0.024309486 0.0460687 -0.023134017 0.049310975
0.026855389 -0.01529866 0.049589254 0.048801485 0.04202576 -0.05588293 0.040165737 -0.017760195
-0.04394694 -0.09735926 0.046115726 -0.0152071435 0.033693817 0.07739881 0.03455519 -0.07884415
0.035040792 0.0014034781 -0.08992175 0.11981906 -0.010942568 -0.060327165 0.018019587 -0.023293609
0.004230388 0.13366425 0.08438618 0.06087462 0.09429998 0.100503795 0.072989106 0.07662955
-0.10180881 0.032990467 0.0333919 0.009463654 0.060697798 0.0024889647 -0.04362235 0.09447568
-0.011383083 0.095444955 0.028068043 -0.0062701474 0.0398601 -0.0353988 -0.058729652 0.0520364
-0.06592366 -0.021579567 -0.08699373 -0.07471426 -0.0007424751 0.0576201 -0.05643063 0.0039149206
-0.06785785 0.05109399 0.111634195 0.015689379 -0.049353737 -0.078264266 0.011941838 0.06278023
0.07756729 -0.06333962 -0.050203834 0.06508331 0.033566494 0.07931969 -0.000686744 0.06303873

fc1.bias f4 [150]
00000000: 1cc8 bcba 2459 b23d aae4 493d ec70 97bd
00000010: 8020 c23d 4a82 d8bd bdac fd3b 0301 a2bd
00000020: 36d9 763d 2bbe 923d 077d 8bbd ba09 99bd
00000030: e768 a8bd 289f aabb 2433 86bd a424 cb3d
00000040: 01c2 a93d a885 0b3d 4f75 c7bd b6b1 83bd
00000050: 1919 c2bb b633 4ebc 4940 acbd 0125 1bbd
00000060: 83d3 0c3d a79d b53d b180 b3bd 0af8 723d
00000070: 2f20 bdbd 0586 b5bd f42c 893d 759e ff3a
00000080: d63d ba3d 41a3 b9bd 1f9f 893d e8e6 ed3c
00000090: d8c3 93bc 8d6f 063d b78d d8bd 4117 0e3e
000000a0: 4620 1cbd 7fb0 e8bd a19e 6a3b 6e71 d1bd
000000b0: 45cb 973c 54b4 163d 5173 8c3d c507 afbd
000000c0: 6d39 2fbd 8215 8d3d 0316 d03c 6b3c b6bd
000000d0: 5938 89bc 24f1 f4bc daf0 8c3d 41a5 dabd
000000e0: 17c1 b5bd c723 aabd 84d0 8bbd c4c1 a8bd
000000f0: 363a ccbd 5033 383d 3233 c6bd 5387 b6bb
00000100: ab2e bbbd 8005 bc3d 3cf0 a23d 5427 b8bd
00000110: 9c7d 9ebd 7fd7 d1bd 2edf 87bd e751 0a3d
00000120: 40c7 af3d f833 9e3d fc1f 27bd ec55 bebd
00000130: a59f c03d 6fb7 d8bd 0e0f 89bd 969f c83c
00000140: e103 97bd 0321 8dbd f1cd 91bd 95bb c13d
00000150: 4443 d5bd 7033 0cbe 7720 63bb 041b 36bc
00000160: daab e1bd 6284 77bd f742 88bd f6a4 0abe
00000170: a8bb aabd 54bd 113d ea9f 8bbd 612b 91bb
00000180: 5081 d73d 7bdc 35bc 4b87 a93d 8f86 4a3d
00000190: 5418 5cbd 4da8 ccbd 3cf5 b4bd d000 bf3d
000001a0: ef6f 933d d0dc fabc c7b0 d4bc 51b8 81bd
000001b0: 6b1c 563d 688b c63c c1bf 1ebd 69e1 e5bd
000001c0: c9f5 d33d 31b1 c6bd ccfd ef3c b3a6 89bc
000001d0: 1e88 1a3d 5f70 fc3c 469e aabd 88d9 a1bd
000001e0: cce5 843d e9cb c2bd 14b2 6b3d f054 adbd
000001f0: d067 013d 05bb 5f3c 1918 bbbd 220e 803c
00000200: 483a b4bd 2c19 d73d 5af2 f63d 3ccc 943a
00000210: be3c 863d abce f33c 4469 64bd 0b17 c6bd
00000220: a8af 35bc f8a2 c93d 33b6 5e3d ff24 b4bd
00000230: 67f1 f0bd c2b1 6dbb 116d 85bd 2b63 a0bd
00000240: 8f35 8abd af23 a1bd 8afa cb3d a3f5 e23b
00000250: 4506 973d ad86 c0bd
-0.0014402899 0.087084085 0.049290337 -0.07394585 0.09478855 -0.10571726 0.0077415393 -0.07910349
0.060265742 0.07165178 -0.068109564 -0.07472558 -0.082231335 -0.005206961 -0.06552723 0.09919098
0.082889564 0.03406301 -0.09739172 -0.0643038 -0.005923402 -0.012585571 -0.08410699 -0.037877087
0.0343814 0.088679604 -0.0876478 0.05931858 -0.09234654 -0.08863453 0.06698027 0.001950218
0.090938255 -0.09064341 0.06719803 0.029040769 -0.018037722 0.032821227 -0.10573905 0.13876058
-0.038116716 -0.11361789 0.0035800117 -0.10226713 0.018529544 0.036793068 0.06857932 -0.08546404
-0.042779375 0.06888868 0.025401121 -0.088982426 -0.016750501 -0.029900141 0.06881876 -0.10676051
-0.088747196 -0.08307605 -0.068268806 -0.08240083 -0.0997204 0.04497081 -0.096777335 -0.005570331
-0.091397606 0.091807365 0.07955977 -0.08991876 -0.07738802 -0.10246181 -0.06634365 0.033769514
0.08582926 0.07724756 -0.040801987 -0.09293732 0.0940545 -0.10581862 -0.066923246 0.024490159
-0.07373787 -0.06891062 -0.07119358 0.094596066 -0.104132205 -0.13691497 -0.0034656802 -0.011114839
-0.11019106 -0.060428984 -0.066533975 -0.1353949 -0.08336574 0.035580948 -0.068176106 -0.00443022
0.10522711 -0.01109993 0.08277758 0.04944473 -0.05373414 -0.09993038 -0.08835837 0.09326327
0.07199084 -0.03062287 -0.0259632 -0.06333984 0.052273195 0.024236396 -0.03875709 -0.11224634
0.10349614 -0.09701765 0.029295824 -0.016803121 0.037727468 0.030815301 -0.083309695 -0.07902819
0.06489143 -0.09511549 0.057542875 -0.08463466 0.031593144 0.013655429 -0.09135456 0.015631739
-0.08800179 0.10502848 0.12057944 0.001135237 0.065545544 0.029761633 -0.05576445 -0.09672364
-0.011089243 0.09845537 0.054372977 -0.08796119 -0.11764794 -0.0036269282 -0.065149434 -0.07831415
-0.06748497 -0.07868134 0.09959896 0.006926255 0.07374243 -0.09400687

fc2.weight f4 [150, 150]
00000000: 04cc 8a3d 8bf5 7b3d 0340 903d 5a33 993c
00000010: 5aad 96bd 332e 25bd b301 51bd b38b 613c
00000020: 73e6 c8bc 5ce5 96bd 0f16 683d e252 efbc
00000030: e557 89bc c833 263c 52e1 823d a5b7 efbc
00000040: 5e82 c73c aaec b23c 0bcf 813d a40b c13c
00000050: 1d70 69bd 731f fabc 8851 88bd 5115 33bd
00000060: d3b4 97bd fb74 b7bd d74a ac3c 5a71 d2bc
00000070: f2c9 9ebd 230a 9bbd e38f 843d e4d4 903d
00000080: 6d94 91bd 1745 ec3c 121f 98bc 439e 8dbd
00000090: b709 4bbd 13c3 33bd 4a58 853b 1349 3abd
000000a0: 6fe6 8abd 8d50 02bd 8b04 b4bc 5c19 ce39
000000b0: 2363 383d 1423 84bd b64e 0a3c 082f 863c
000000c0: 06be 3cbd 5cf3 5e3d a72e 7c3d f28f e13b
000000d0: 20cc 23bd 30ea f9bc fc1b 5cbc b48c 133d
000000e0: ef7e 87bd cf02 0e3d 2852 bdbc 5278 0dbd
000000f0: 4a66 2c3d 6978 91bb fe77 273d f80f 9ebd
00000100: 2142 443d 9bb4 fbb8 6a7c 3f3d f0be e1bc
00000110: b399 a53d c388 f8bb 4e09 de3c e6d6 97bd
00000120: a407 03bc 537f 863d 2624 9f3d dbef 1a3d
00000130: 9eec bdbc 3044 f23c 6ccb 3ebd 0741 263d
00000140: 9a4a ae3a d362 3e3d f895 853d b126 f93c
00000150: 4327 09bd e79c bbbc b616 a43b 995e b3bd
00000160: 5c3f 163b 7c9e 2a3d 993d 9fbd 9f8b 813c
00000170: c553 abbc 1d3e 703d 28ef c43b 8585 18b9
00000180: 0a0e 823c f3e6 b7bb 3347 78bc 06d1 093c
00000190: 090c a9bc e743 f4bc 803e 96bc d655 643d
000001a0: a73f 72bd 8f2b 153d 39c8 49bd 9e50 ac3c
000001b0: a14f 013c 72a2 063d 9d56 b7bc 6c7a 1ebb
000001c0: 4755 febc 3c31 1abd e2f5 843d 58f0 aabd
000001d0: 4c27 363d a87f 993c 0d18 643d 9ad4 8e3d
000001e0: 91d2 cdbc 95e1 32bd 37a7 8c3c 64a1 b1bc
000001f0: 3074 28bd 9fe9 50bd 9630 68bc 1c23 83bd
00000200: 0670 9b3c aa67 a1bc be06 95bd 37c8 17bd
00000210: 0349 583d 2502 e33c bd02 06bc 8b07 9c3c
00000220: 480e ae3c f941 5dbd 74ab cbbc 3188 813d
00000230: ec5a 94bd 6ac0 7a3d 9b8b 383d fc01 89bd
00000240: ff14 723d a24a 9dbc 3062 8dbc 00cd 03bd
00000250: d5ff 7dbd 58c1 53bd e956 8ebd 6d62 913d
00000260: f204 f53c 1de5 a5bc 5540 98bd 5239 3f3d
00000270: 3a2f a73d 6564 303d 809f 6ebc b0c5 da3c
00000280: 78b7 79bd 49b9 56bd 018a a6bd c6e9 1b3d
00000290: e788 103d 206a 733c dd88 8f3d 7711 883d
000002a0: a7d6 c53c 4c54 44bd a4bd 9c3d 1925 be3c
000002b0: 028a 09bd d3c2 9c3d 7dc1 8dbd 7fed 7b3d
000002c0: 2a11 ab3c c39a c0bc 7058 79bd e2f7 523d
000002d0: 8db9 133d cc77 6dbd 4151 9abd 215e 1e3d
000002e0: 01ea b03b 66d4 9abd 7cc4 2b3d 825d 883d
000002f0: 3ee4 43bb e6e6 e4bc 265f 893d 2f9f ff3c
00000300: 824a 4d3d 49b8 b23c f281 80bd 5c1f 99bd
00000310: 2c4e 55bd 7054 553d fc9e 853d 562f 96bd
00000320: 7cbb 69b9 70c7 8cbd ce26 bf3c 71b7 193d
00000330: d451 893d 4ef5 c6bb 1ef3 d33c ddb0 663d
00000340: 69b1 713d 87b5 4cbb 24ca 873c cdca 56ba
00000350: 2341 5dbd f84c 9b3d 2288 4cbd b509 6bbd
00000360: 196e bb3c 0dc7 58bd 3ad4 a6bd 1789 43bd
00000370: af63 2c3d 8617 8d3a 6410 a13d 798e 923d
00000380: e3a3 5f3d 0967 1cbd ee12 393c 61ca efbc
00000390: 82f4 83bb 7105 953d 6897 193d 11e2 c23c
000003a0: 02b6 243d eb08 6ebd 444f 8b3d 7064 11bd
000003b0: a5f1 373c fa56 f3bc 89fe 8f3b 7d93 b93c
000003c0: f905 a43d e357 a4bd e551 43bd fe12 72bc
000003d0: d3f0 943d 6188 c43c 6880 553d 1d03 663d
000003e0: 9657 993d 3f4e 90bd 15f6 b6bc 7b58 df3c
000003f0: f842 0bbd 90e0 03bd 7a8c 09bd f20f 8d3d
0.06777194 0.061513465 0.07043459 0.018701244 -0.07357283 -0.040327262 -0.05102701 0.013766217
-0.02452395 -0.073679656 0.05666166 -0.029214326 -0.016765544 0.010144182 0.06390633 -0.029262373
0.024354156 0.021841366 0.063383184 0.023565121 -0.056991685 -0.030532574 -0.06656176 -0.0437215
-0.07407536 -0.08957859 0.02103178 -0.025688816 -0.07753362 -0.07570293 0.06472757 0.07071856
-0.07108388 0.028841538 -0.018569503 -0.06914952 -0.04956981 -0.04388721 0.0040693628 -0.045479845
-0.06782233 -0.0318151 -0.021974823 0.00039310276 0.04501642 -0.06452003 0.008441618 0.016379848
-0.046079658 0.054431304 0.06156793 0.0068836147 -0.03998959 -0.030507177 -0.013434406 0.036022857
-0.066160075 0.034670647 -0.023110464 -0.034538575 0.042089738 -0.004439403 0.040885918 -0.077178895
0.047914628 -0.00012002253 0.04674951 -0.027556866 0.080859564 -0.0075846626 0.027104046 -0.074140355
-0.007997427 0.06567254 0.07770567 0.0378264 -0.023184117 0.02957353 -0.046580717 0.04058936
0.001329738 0.046480965 0.06522745 0.030413957 -0.03348471 -0.022901965 0.00500759 -0.087582774
0.0022925949 0.04165505 -0.07775421 0.015813647 -0.020913968 0.058652986 0.006009955 -0.0001454559
0.015875835 -0.005612248 -0.015153694 0.0084116515 -0.020635622 -0.029817535 -0.01834035 0.055745922
-0.059142735 0.036418494 -0.049263213 0.021034535 0.00789252 0.032869764 -0.022380168 -0.0024181856
-0.031046523 -0.03764461 0.06492211 -0.08346623 0.04447107 0.018737629 0.055687 0.06974144
-0.02512482 -0.043672163 0.017169578 -0.021683402 -0.04112643 -0.05100405 -0.01417174 -0.06403181
0.018974315 -0.019702751 -0.072766766 -0.037056174 0.052804004 0.027710984 -0.008179364 0.019046566
0.021247044 -0.054017995 -0.024862029 0.063248046 -0.072439045 0.061218657 0.045055013 -0.066898316
0.059102055 -0.019200627 -0.017258734 -0.032177925 -0.06201156 -0.05169806 -0.069501705 0.07098851
0.029909585 -0.020250851 -0.07434145 0.046685524 0.081633046 0.043064494 -0.014564395 0.026705593
-0.060965985 -0.052422795 -0.08131791 0.03806474 0.03528681 0.014856845 0.070085265 0.06643956
0.024150206 -0.047931954 0.076533586 0.023211049 -0.03357888 0.07654347 -0.069216706 0.06150579
0.020882208 -0.023511296 -0.060875356 0.05150593 0.036065627 -0.057975575 -0.07535029 0.038663987
0.005398989 -0.07560043 0.04193543 0.0665846 -0.0029890682 -0.027942132 0.06707601 0.031203834
0.050119884 0.02181639 -0.06274785 -0.074766845 -0.052076504 0.05208248 0.065244645 -0.07333247
-0.00022290455 -0.06873977 0.023333933 0.03752846 0.067050606 -0.006071723 0.025872763 0.056321014
0.059007082 -0.0031236128 0.01657588 -0.0008193672 -0.054017197 0.0758304 -0.049934514 -0.057382304
0.022879647 -0.052924205 -0.08145948 -0.04773816 0.042087253 0.0010764457 0.078644544 0.07156081
0.054599654 -0.0381842 0.011296017 -0.029271306 -0.0040269503 0.072764285 0.037497908 0.023789437
0.04021264 -0.058113974 0.06802228 -0.035496175 0.011227046 -0.02970456 0.0043943566 0.022653336
0.08008952 -0.080245756 -0.047685523 -0.014775036 0.07272496 0.023990812 0.05212441 0.056155313
0.07487409 -0.07046174 -0.022334138 0.02726387 -0.033999413 -0.03219658 -0.033581235 0.06887807

fc2.bias f4 [150]
00000000: 8218 8abd 1dcc 9dbd 4563 ba3a b62a 03bc
00000010: 11ad 123c 58b1 b3bb 3820 47bd aa31 93bd
00000020: f7cf 88bd d8d4 e7bb 52a9 c5bc e0b1 a23d
00000030: 1909 bcbd 7936 27bd 6677 55bc e638 89bd
00000040: 6d23 6fbd 5d51 50bd d4cc 90bc 9073 dbbc
00000050: 05cf 9ebd fe7b 28bd 71ea 57bd c6fb 3fbd
00000060: 8792 4ebc daf5 d8bb 4edd 96bd 60d5 90bd
00000070: 546d 2cbd 72f1 eb3d d9b0 3dbb d002 14bc
00000080: 327a 67bc b67f 78bd 8711 b3bc b125 a1bd
00000090: be44 d43d eea7 72bd c899 10bd 50e8 df3d
000000a0: 3787 54bd f313 69bd 9f97 abbb 3486 54bc
000000b0: 2c07 8ebd a228 90bd 0890 05bd 50f0 32bd
000000c0: 07e6 8abd 4b42 b8bc 4e4f b13a a408 f7ba
000000d0: 96d4 4abd 4d1a d3bd 36d1 513b 7bff 073c
000000e0: bc9a a9bc 18e8 033c a67e 2fbd 7d61 8bbc
000000f0: 4f81 38bd 08d3 5dbd 57e7 5fbd 3131 34bd
00000100: 1f29 7b3d 8af8 1b3e a065 e5bc 49d7 fb3d
00000110: 6c67 84bd 79cb 6cbd c87d 9c3b 59bf 0ebd
00000120: 9595 c63d 25dc fdbc 8503 163c 44b7 96bd
00000130: 175a c0bd d1ca 53bb 5f6d 11bd f899 bbbc
00000140: 6345 56bd 60c5 b7bb 21c9 bcbc 1a10 9cbd
00000150: 2603 ee3d e14f 9fbc 4f0d acbc 781c 46bd
00000160: 199f 633d acf1 afbd 70a0 973c f39e 4abd
00000170: 3d10 dfbc c61d 83bd a635 04bd ad14 13bd
00000180: 935f 22bd 5dc9 293c bfd7 853d fba6 c6bb
00000190: d1db 1dbd 3179 b2bd d6a2 68bc 19b4 9bbc
000001a0: 1424 01bd b73a 133b 19fb 61bd aa6e b9bd
000001b0: f451 0b3e c1ba 00bd c81f cdbb 300a c63a
000001c0: 6b18 c5bc 8bc3 cbbd ccd0 52bd 8e72 75bd
000001d0: 1370 00bd f5c2 8bbd 057e d1bd 5a09 043e
000001e0: 1bc4 09bd da1f cfbc 3582 c83b ac94 8dbd
000001f0: f09c 73bc e0f8 57bc 95ef 41bd a98b 28bd
00000200: aa29 73bd 3f35 27bc 12d2 49bc fb4c 823c
00000210: a31d d6bc 8038 cfbc 4c9e da3d 6904 b5bb
00000220: 4271 5cbd d79c dd3d 0aee 78bc 2220 453d
00000230: aab8 66bd e5b6 223e c85b e3bc 4fef 4abd
00000240: 45d7 3abc 88c4 6fbd d6d9 053e 0aac 8ebc
00000250: 918a 3a3c de37 52bd
-0.06742956 -0.07704947 0.0014220258 -0.008005789 0.008952395 -0.0054837875 -0.04861471 -0.07187207
-0.06680291 -0.0070749335 -0.02412859 0.07944083 -0.09181423 -0.040823434 -0.013028955 -0.06700306
-0.058383394 -0.050858844 -0.017675795 -0.026788503 -0.077543296 -0.041133873 -0.052713815 -0.04687097
-0.012608177 -0.0066211047 -0.07366429 -0.07071948 -0.04209645 0.115206614 -0.002894452 -0.009033874
-0.014128255 -0.06066867 -0.021858944 -0.07868517 0.10364674 -0.05924218 -0.035302907 0.10932982
-0.051886763 -0.05690379 -0.0052365805 -0.01297145 -0.06934962 -0.07039 -0.032608062 -0.04368621
-0.067821555 -0.022492548 0.0013527663 -0.001884718 -0.049519144 -0.10307751 0.0032015569 0.008300657
-0.020703666 0.008050941 -0.04284539 -0.01701426 -0.045045193 -0.054156333 -0.054663982 -0.043992225
0.061318513 0.15231529 -0.02800256 0.12296922 -0.06465039 -0.057811234 0.0047757365 -0.034850452
0.09696499 -0.030988762 0.009156113 -0.07359174 -0.09392183 -0.0032316933 -0.035504695 -0.022900566
-0.052312266 -0.0056082457 -0.023045124 -0.07620259 0.11621694 -0.019447269 -0.02100244 -0.048366994
0.05557165 -0.08591017 0.01850912 -0.049467992 -0.027229423 -0.06402163 -0.032277726 -0.03590839
-0.039641928 0.01036295 0.06535291 -0.006062386 -0.03853971 -0.08714522 -0.014198979 -0.019006776
-0.031528547 0.0022465417 -0.055171106 -0.090543106 0.13605481 -0.031428102 -0.006259892 0.0015109237
-0.024059495 -0.09949406 -0.051468655 -0.0599237 -0.031356882 -0.068242945 -0.102291144 0.12894192
-0.033634286 -0.025283743 0.0061190375 -0.069131225 -0.01486896 -0.013181895 -0.047347624 -0.041148815
-0.059365906 -0.010205566 -0.012318151 0.015905848 -0.026137179 -0.025295496 0.10674724 -0.0055242074
-0.05381895 0.108209305 -0.015193472 0.048126347 -0.056328453 0.15890081 -0.027753726 -0.04954463
-0.011403863 -0.058537036 0.13071379 -0.017416019 0.011385576 -0.05132281

out.weight f4 [4, 150]
00000000: d862 4a3d 3e1d 783d 251f 3a3d 22ef 083d
00000010: 568d 27bc f77a cc3c d2d6 543c 2d37 283c
00000020: 7253 fe3c 7a68 463c fe40 133c ad21 8e3b
00000030: 4953 80bd 8ab2 eebc 0992 31bc 58d2 873c
00000040: 71ed c93c acba 5ebd e6b0 e4bc d86b b33b
00000050: 0ee4 b93c f0c0 043c ea67 e9bc 6019 3cbc
00000060: c0c4 da3b 67d7 86bc 25d7 a33c 5473 733d
00000070: 7ed1 7d3d 1bc7 cc3c 4d11 36bc 96df f6bc
00000080: 0d1b 38bd d0c3 4b3d 55ab fd3c 89fd 023d
00000090: 1311 7d3c 5e38 3d3d 21f7 0c3d 8057 31bd
000000a0: 9ca3 36bb 05fb b9bc 07e4 503d fe3d 6bbd
000000b0: b4f2 1c3d 48d1 ec3c 107c 9ebb 1258 0b3c
000000c0: 5a9d 40bd 57a3 de3c ea78 103c b824 3c3c
000000d0: bf06 623c dc1b 5cbc 5cf6 85bc 5bbc 733c
000000e0: 9f90 a1bc 6691 a8bc 8347 3ebc 55eb 91bd
000000f0: f386 423c 9382 12bd 3d90 01bd 892a ad3c
00000100: 3f3d 83bd 1ced cc3c 2782 7b3c 1fed 2a3d
00000110: 33a3 40bd 5a5e 9e3d 643e 523d a6b4 1dbd
00000120: 2bf2 5ebc 2e8b ef3c ead6 433d 9b0b 433d
00000130: 9312 ee3b 86ab 26bd 852b 5e3b af75 bcbc
00000140: fb5d 5abd b9d5 1dbd 9cdd 84bc 6b2b bdbc
00000150: 98e2 2e3b d925 a4bc 5e14 aebb e035 14b9
00000160: 54e3 8c3c a688 4b3d 0ca8 95bc a881 1e3d
00000170: ca08 93b9 0cf9 64bd c2a2 0b3d 4300 533c
00000180: baf0 7e3c d829 60bd c715 a93c 0e59 c8bc
00000190: a74c 933c 4e14 e4bc 9087 1dbc 3482 29bc
000001a0: f0df 713d 7dc4 0e3d f74b 36bc 47c1 8ebd
000001b0: 90fd ca3b 3306 793c 7b4c 0d3d b054 173b
000001c0: 0ede 813d 1fb0 8a3c 8a46 493d 80ea 7ebc
000001d0: fd38 e8bc 0037 803c bd6f 8cbd fea3 723c
000001e0: ed94 8c3d 9cd0 483d 9798 75bc 5219 a33c
000001f0: 73e3 3abc 6459 3e3d c7c6 25bd d153 20bd
00000200: ded2 88bd 400a 2e3d 2b79 84bd 1e8e 82bc
00000210: 0904 4e3d 7714 4bbd 353b b73c 9743 9bbc
00000220: 4c42 9fbb a2b2 353c 12fa df3c e46a 68bd
00000230: b125 9fbc a703 d93c 35ae 5fbc be58 053d
00000240: 248e 02bd ecca 40bd 9ad7 58bb 2b9b 56b9
00000250: b5a0 22bd 4d09 4fbd 7e70 3fbd 301b e13b
00000260: beb7 fbbc 9936 493c f1f7 88bc a565 ee39
00000270: 8b76 29bd 9be7 1abd 6a22 bb3c 69c6 4a3c
00000280: c1fa 1c3d d4a1 0d3e 9d98 4ebd 0ff0 6b3d
00000290: aba5 14bd 112a 4f3d 7690 8b3d 9fac e9bc
000002a0: e3d8 823c a0dd 02bd 0b91 0e3d a675 b13c
000002b0: c87a 8e3c 3a62 3dbc 7909 d2ba cca3 42bd
000002c0: dda5 36bd c99c ee3c 4e39 9abd db6e 063e
000002d0: ebdc ba3d ec95 e6bc 03c4 d6ba acce 183c
000002e0: cf91 e03c 7573 de3c 5a02 123e 0cc6 9d3c
000002f0: 3080 223b 68e0 123e b10e 913c 3d78 1abb
00000300: a8e0 94bd 25ad a83d 4ff0 52bc c310 2ebd
00000310: f503 f73b 24da 4c3d 7adf 44bc 9c77 cf3b
00000320: 5927 8b3d 9ad1 b43a 10b1 973d 7e68 893c
00000330: a80c c0bb 7b1e 30bc 1f69 943c 4a3c edbc
00000340: 3790 8cbc e6d8 05bd c95d 283c 09a5 393d
00000350: c7b7 0fbe 8fd4 d33b 3761 983d fa03 2b3e
00000360: 8acf 31bd 713c c73d 634a 79bd cfab c2bc
00000370: b409 4ebc d695 46bd b4f2 de3d d8af 543d
00000380: c33b a0bc 0e92 d13c 9459 203d 055d 71bc
00000390: 9591 e63c fc71 e7bd 2e8b 11bd 6515 b8bb
000003a0: d212 4dbd 8e1e ac3a b5e0 f23d eb78 f63c
000003b0: f7b3 1f3d 6f9e edb9 6d04 b63d cd2f dd3c
000003c0: a6e4 2abd cf88 72bc 7b47 20bc 0336 8bbd
000003d0: 878d 023d d1db 3fbd 56e8 943d 67bb 06bc
000003e0: 2a0d 853d ed21 843c 0574 873d 7f0d 0c3d
000003f0: 249c b43d 9e4c 5a3b 4e03 5d3d 7c99 56bc
0.04941067 0.060574763 0.045439858 0.03343118 -0.010226568 0.024960978 0.01299067 0.010267061
0.03104565 0.01210987 0.008987663 0.0043375106 -0.062658854 -0.029137868 -0.01083804 0.016579792
0.024649354 -0.054377243 -0.027916383 0.0054755025 0.022691753 0.0081026405 -0.028491933 -0.011480659
0.0066762865 -0.016460134 0.02000005 0.059436157 0.061967365 0.024997285 -0.011112523 -0.030135911
-0.044947673 0.04974729 0.030965487 0.03198007 0.015445965 0.046196334 0.034415368 -0.043296337
-0.0027868515 -0.022702703 0.050998714 -0.057432167 0.038317397 0.028908387 -0.0048365667 0.008504884
-0.047025062 0.027177496 0.008817891 0.011483364 0.013795554 -0.013434377 -0.016352825 0.01487645
-0.019722281 -0.020577144 -0.011613729 -0.07124964 0.011872995 -0.035769057 -0.031631697 0.021138446
-0.06408166 0.025015406 0.015350855 0.041730043 -0.04703064 0.0773284 0.05132903 -0.038502358
-0.013607542 0.02924117 0.04781238 0.04761849 0.007265398 -0.04069092 0.0033900451 -0.023005335
-0.053312283 -0.0385339 -0.016218953 -0.023091992 0.0026685353 -0.020037578 -0.0053124866 -0.0001413445
0.017198242 0.049690865 -0.018268608 0.03869787 -0.00028044573 -0.055901572 0.034090765 0.01287848
0.015560323 -0.054727405 0.020640267 -0.024456527 0.017980887 -0.027841713 -0.00961484 -0.010345984
0.059051454 0.034855355 -0.01112651 -0.069704585 0.006194778 0.015199232 0.034496766 0.002309125
0.06341182 0.016929684 0.049139537 -0.015558839 -0.028347487 0.015651226 -0.0685725 0.014809607
0.06864343 0.04902707 -0.014989994 0.019909535 -0.011406767 0.04647197 -0.040472772 -0.039142434
-0.06680845 0.042490244 -0.064684235 -0.015936907 0.050296817 -0.049580064 0.0223671 -0.018953128
-0.004860198 0.011089953 0.027340923 -0.056742564 -0.019427152 0.026491 -0.013652374 0.032555334
-0.031873837 -0.04706852 -0.0033087493 -0.00020466435 -0.039704043 -0.05054598 -0.04673814 0.006869696
-0.030727264 0.0122810835 -0.01671979 0.00045470629 -0.041372817 -0.037818532 0.022843558 0.012376406
0.038325075 0.13831264 -0.050438512 0.057601985 -0.036290806 0.050577227 0.06814663 -0.028524695
0.01597256 -0.03194964 0.034806293 0.021662544 0.017392531 -0.011559064 -0.0016024552 -0.04751949
-0.044591773 0.029127495 -0.07530461 0.13128226 0.09124168 -0.02814766 -0.001638532 0.009326618
0.027413277 0.027154664 0.1425871 0.019259475 0.0024795644 0.14343417 0.0177072 -0.0023570203
-0.07269412 0.0823615 -0.012874677 -0.042496454 0.0075383135 0.050012723 -0.012016172 0.006331397
0.06794614 0.0013795376 0.07406819 0.016773459 -0.0058608837 -0.010749455 0.018116532 -0.028959412
-0.01715861 -0.032677554 0.010276266 0.045323405 -0.14034949 0.006464548 0.07440417 0.16700736
-0.043410815 0.09728325 -0.060861956 -0.023763565 -0.012575556 -0.04848274 0.10886136 0.05192551
-0.019559747 0.02558234 0.03914793 -0.01473165 0.02814559 -0.11301038 -0.035533123 -0.005617785
-0.050066777 0.0013131665 0.11859266 0.030086955 0.038989987 -0.00045322205 0.08887563 0.027000332
-0.041721962 -0.0148031255 -0.009782667 -0.06797411 0.031873252 -0.046840493 0.07270877 -0.008223391
0.064966515 0.016129458 0.06613926 0.03419256 0.08818844 0.0033309828 0.05395823 -0.013098117

out.bias f4 [4]
00000000: cf49 1a3d 3450 f53d 54bf 673d 5d25 273d
0.037668046 0.11978188 0.05657895 0.040807117
