2D Discrete/models/d2qn/d2qn_8x8.pt (torch, 36882 bytes, 6 tensors)

fc1.weight f4 [64, 64]
00000000: a8e5 043d bf4b 323e 3c7b 6fbd ce85 f6bd
00000010: 4cbf d23c b853 e8bd 403e c43c 7abd ebbd
00000020: 529f 8dbd 9c81 453d bea8 b5bd f8f1 833d
00000030: ece6 d6bd 885d 673d fbe3 653d 480f fb3c
00000040: 3834 bfbc 12ee c7bd d22a d9bd cad4 aa3e
00000050: a5a4 863e ecdf 7f3e e414 303d 28eb 8cbd
00000060: 4809 39bd a536 e33d 00d4 193c 7c24 b2bd
00000070: aeda 953d e0f0 71bd 48fd d6bc c4ea 81bd
00000080: 18c0 ccbc 248d cabd d51c 9b3e dcd3 0c3d
00000090: 24be bcbd 3ab1 ad3e f058 b73c ebfa 513d
000000a0: 104d 6a3c e419 003d e280 d4bd 4856 89bd
000000b0: 6a52 b03d 00cb e1bc 38ab 97bd e00a a6bd
000000c0: c2ed b7bd 6a42 b83c ac14 6bbd 2279 98bd
000000d0: b4d8 383d 861f c9bd b0d5 083d 66cd 203d
000000e0: 42bf 9bbd 1417 26bd b9e4 033e 8e2f 1b3d
000000f0: a077 bf3b 70af e2bc 0062 95bb 8a21 e8bd
00000100: 74cb 08bd 2d5e e33c 7be2 363c d8f5 bc3c
00000110: d4f2 c0bd 9885 cc3c d820 f63c 74fd 4fbd
00000120: 34d7 b5bd b407 19bd dc95 0c3d 5825 6fbd
00000130: 3255 f3bd 20d7 65bc 8898 57bd 6a8b 813d
00000140: 2c0c b8bd 69d5 ff3d 9806 2abd e8fa a9bc
00000150: 541c 2d3d 24f2 68bd 5a3b fcbd 1021 50bd
00000160: 2a24 293c 22af 363d 4ada b73d 2c01 853d
00000170: aaa9 913d 0025 223a 3812 e63c 2097 39bc
00000180: 33a9 103e e072 24bc f7d4 0e3d 007e f539
00000190: 4052 27bd 0429 cbbd a012 6ebc ecf6 303e
000001a0: 3c98 2cbd 1309 a83c 920f aabd 4af7 fd3d
000001b0: ae9f f03d 18aa 28bd b07e 5a3c e2e5 80bd
000001c0: 1a63 0c3e 985f 2abd 404a ea3c b849 de3c
000001d0: 843e e1bd 38f6 b0bc 4088 e2bc f04a 643c
000001e0: 6855 ddbc 6085 b03c 2000 ed3b 25c2 e73d
000001f0: 6178 903d c29f c3bd bedb 0c3d 105d 953d
00000200: d8c9 1dbe eeba b5bd d863 1fbe 0608 2dbe
00000210: e457 c0bd ab96 6bbd 7151 543d 029a 2bbe
00000220: 5f36 2bbe 98e6 37be 1235 aa3d 806c 9d3c
00000230: 88eb a3bc d0fb 60bd 221d c03d 8e5d 9dbd
00000240: 0f1e 84bd 1368 4cbd ae93 31be 2980 51bd
00000250: 45c4 29be 92f1 1dbd f6aa 3ebe 1fe2 39be
00000260: 5aab febd bcbb 24be c28d 983d 808b 443c
00000270: 686a a33d 343f 68bd 8a58 883e aa25 533e
00000280: 1d2d 29be e1bc a4bd c0fa 28be f906 96bd
00000290: e0e9 22be 14e9 9abd f497 103e b511 9e3d
000002a0: d147 ad39 ca9f 28be 2036 70bc 42e5 fcbd
000002b0: 9669 a03d b427 4c3d 5097 c13e 785a 353e
000002c0: 76a1 65bd 9fe1 a03d 29a0 2ebe b57d d33d
000002d0: aae9 a43d 611f 053e c15a 233d 097f 743d
000002e0: e8be 103d 2c3c 4e3c 481e 27be 8ba8 113e
000002f0: 0684 0b3e 5ecb 2ebe 0bbe 573e 3abd d53d
00000300: d031 533c cc92 0bbd 7879 3fbd 21ad 003d
00000310: 497c fd3d a06e 76bc 7248 123d 843c 17bd
00000320: 14f7 56bd 838e 0f3e 8cb0 aabd 7c05 cfbd
00000330: 140b 4d3d aeb7 e43d 14db 26bd 3d27 be3d
00000340: 58ae af3d 7047 cdbc ecfc 203d e8de 89bc
00000350: 88f1 30bd 5cd5 bbbd d5cd c93c a0f7 a73c
00000360: 2065 df3c 567b 9fbd d8c5 ab3d 148a 9dbd
00000370: 580e f0bc c2db 843d 5a87 cb3d d01c 2ebd
00000380: dc6f c3bd 13b6 bb3d 0fb3 f93d 10c3 e5bc
00000390: 0421 f7bd f0e0 ab3c a1d5 373d 89ba 583d
000003a0: 809e 42bd 90d6 fabc 8ef3 a13d e079 dd3d
000003b0: a833 f2bc 448c b3bd 3ebe 1f3d aea5 aabd
000003c0: 0810 86bd f8f5 e03c f23c a2bd 40b3 37bd
000003d0: 9915 2d3d 5c1c e9bd af29 093d 38de b6bc
000003e0: 2034 74bd 0032 153d 551c 053d f82f a8bd
000003f0: f043 b0bd 9b84 103d 8083 99ba 6841 263d
0.03244558 0.17411707 -0.058467135 -0.1203724 0.025725983 -0.11344093 0.023955464 -0.11510749
-0.069151536 0.04821931 -0.08870076 0.06442636 -0.104932636 0.056485683 0.056125622 0.030646935
-0.02334033 -0.09762205 -0.106038705 0.3336547 0.2629749 0.24987763 0.042988673 -0.0688079
-0.045174867 0.11094407 0.009388924 -0.08698365 0.073171005 -0.059067607 -0.02624382 -0.06343606
-0.024993941 -0.09890202 0.30295435 0.034381732 -0.09215954 0.33924276 0.022381276 0.051264685
0.0143006 0.03127469 -0.10376145 -0.0670591 0.08609469 -0.027562618 -0.07405704 -0.08107543
-0.089808956 0.022492606 -0.05739276 -0.07444979 0.04512854 -0.09820466 0.033406913 0.039258383
-0.07604839 -0.040549353 0.1288022 0.03788715 0.005843118 -0.027671546 -0.0045588017 -0.11334522
-0.033397153 0.027754867 0.011162396 0.023066446 -0.09421316 0.024966046 0.030044958 -0.05077882
-0.08878937 -0.037360862 0.034322605 -0.058385223 -0.11881484 -0.014028341 -0.0526357 0.06325419
-0.089866966 0.12491877 -0.041510195 -0.020749524 0.042263344 -0.05687155 -0.12316008 -0.05081278
0.010323564 0.044600613 0.08977182 0.06494364 0.07112439 0.0006185323 0.02808486 -0.011327535
0.14127044 -0.010037154 0.034871068 0.0004682392 -0.040849924 -0.099199325 -0.014530808 0.17281693
-0.04213737 0.02051214 -0.08303751 0.12400682 0.117492065 -0.04117784 0.013335869 -0.06293847
0.13709679 -0.04159507 0.028599858 0.027134761 -0.10998252 -0.021601781 -0.02765286 0.013933882
-0.027018264 0.021547973 0.007232681 0.11316327 0.070542105 -0.09551956 0.03438925 0.07293141
-0.15409029 -0.08873545 -0.15565431 -0.16897592 -0.09391764 -0.057516735 0.05183548 -0.16757968
-0.1671996 -0.17959058 0.083109036 0.019216776 -0.020009771 -0.054927647 0.09380557 -0.0768386
-0.06451046 -0.04990394 -0.17341492 -0.051147614 -0.16578777 -0.038560458 -0.18619904 -0.18152665
-0.124350265 -0.1608724 0.07448913 0.01199615 0.0797928 -0.0567009 0.2663005 0.20619836
-0.16521116 -0.08043838 -0.16501904 -0.07325549 -0.15909529 -0.075639874 0.14120466 0.07718221
0.0003305064 -0.16467205 -0.014661342 -0.12348415 0.07832639 0.04984255 0.37810755 0.17710292
-0.056062184 0.07855534 -0.17053284 0.10326711 0.080523804 0.13000251 0.03988147 0.059691463
0.035338312 0.012587588 -0.16320145 0.1422445 0.13624582 -0.17069766 0.2106859 0.10436483
0.012890294 -0.034075543 -0.0467467 0.03141511 0.12377221 -0.0150410235 0.03571362 -0.036922947
-0.052481726 0.14019208 -0.08334455 -0.10108468 0.050059393 0.111678466 -0.040736273 0.09284828
0.08578175 -0.025058478 0.039303705 -0.016829923 -0.043199092 -0.091715544 0.024634281 0.020503819
0.0272699 -0.07787196 0.08387345 -0.07692352 -0.029303715 0.06487228 0.09937926 -0.042507946
-0.0954282 0.09165587 0.12192356 -0.028047115 -0.12066844 0.020981282 0.044881467 0.05291227
-0.04751444 -0.03061989 0.079077825 0.108142614 -0.029565647 -0.08766988 0.03899979 -0.08332382
-0.065460265 0.027461037 -0.07921781 -0.04484868 0.042256925 -0.11382362 0.03348702 -0.022322759
-0.059620023 0.036424637 0.032497723 -0.08212274 -0.08606708 0.035282712 -0.0011712164 0.04058972

fc1.bias f4 [64]
00000000: 8646 9dbd 3597 34be 402f 1a3e 4a6d 18be
00000010: 7ec3 293e 7b8e d13d 7c2c b83d 2cc0 01be
00000020: bf84 6a3e 46d9 053e 76fa 87bd 50e5 22be
00000030: f5a0 ecbd f56b d03d ad58 f6bd 6ead b83d
00000040: 7277 6bbd f412 2cbe 483c 0e39 4dfe 123e
00000050: 18ae c63d 313f 8a3d db74 2c3e b0ba 613d
00000060: 1776 873d e7cc b6bd 4f0b b23a fc21 fdbd
00000070: 7c0a 963d b196 b23d cdf4 38be d48d 45bd
00000080: 3298 22bd 8b23 8ebd 1d65 b9bd 967f 0dbe
00000090: 23a9 273e 14f2 00be 197e 9438 bc95 06be
000000a0: 6d40 75bd 1488 8fbc fbce 223e c1e7 01be
000000b0: 7570 c5bd 0756 f5bd 2eab 3ebe 2ce2 93bc
000000c0: d9b3 113e 7b9e 813b d3cd 4abe 90b4 263e
000000d0: 8c82 cf3d fdba 32be 0cc4 c1bd 8c07 23be
000000e0: 90fe a43b f1ae 19bd 496f 2fbe f402 7fbd
000000f0: 8461 41be 2310 1d3e 1ab8 7ebc f0fd 87bd
-0.07679467 -0.17635806 0.15057087 -0.1488544 0.1657848 0.10232254 0.0899286 -0.12670964
0.22902201 0.13071164 -0.066395685 -0.15907788 -0.115541376 0.10176841 -0.12028632 0.09017454
-0.05748696 -0.16804105 0.00013564632 0.1435482 0.097011745 0.06750334 0.16841452 0.05510968
0.06614321 -0.08925801 0.0013583692 -0.12359998 0.073262185 0.08720148 -0.18062134 -0.04823096
-0.039695926 -0.06940373 -0.09052489 -0.13818201 0.16373114 -0.12592345 7.0806775e-05 -0.13143057
-0.059875894 -0.017520942 0.1589927 -0.12686063 -0.0964059 -0.11979299 -0.18619987 -0.018052183
0.14228763 0.00395566 -0.19805078 0.16279817 0.10132322 -0.17454143 -0.09461221 -0.15920848
0.005035229 -0.037520353 -0.17132296 -0.062258676 -0.18884856 0.15338187 -0.015546823 -0.066402316

fc2.weight f4 [64, 64]
00000000: 4e6e efbc 9777 05be c706 9a3c 2d56 773d
00000010: e21d 6c3c b720 883c 5f5b 9dbd 5ee1 123e
00000020: d2b5 9a3e 8f4d b7bc 9556 5ebe dbfb f03c
00000030: 76e9 cbbd 3a16 a0bd 77e5 3abc 0b3a f13d
00000040: d678 193e d678 6fbd 0818 90bd 0d57 a93d
00000050: a1ab f2bd a558 913d 4cf2 b437 0061 57bd
00000060: 780a c8bd a714 453e 8607 673c 2f28 27ba
00000070: 6c6a d83c dd9e e83d 1458 37bd 4a6f 8bbd
00000080: 8fb0 d53d 1951 cebd 05cc 1fbe 8cc1 163e
00000090: b89c 0f3e f67a 63be 4d22 7dbd dc3e f03d
000000a0: 07c5 5e3e 1880 bd3d 3be3 013e 5974 2a3d
000000b0: 475e d73c 47ed 4b3d 5dec d4bb e4d5 173e
000000c0: 92cd 73bd afb9 043e 79b5 51bd 76be 593d
000000d0: c9b6 433c fe63 8bbe 08e7 393d 3746 64be
000000e0: d600 20be ddfc 353e 1912 b8bc 717f 3c3e
000000f0: 7103 6d3d 2ef6 e5bc dee2 a7bd 5736 debd
00000100: f968 b03c 4ec2 703b 90e5 1ebb e495 4abd
00000110: 25ed 31bd 4d34 99bd 3922 99bd 216c f9bd
00000120: b5fe ac3d 28d6 b4bc ed3e d7bc d8d6 193d
00000130: 1418 7abd 36ca 033e bc10 a93d 9ae5 033e
00000140: 894b 953d b115 02be ecb8 1a3e 2932 5d3d
00000150: 51e8 52be 27ab 053d 0735 d5bb 69ce ad3d
00000160: b0fd 05bc 9607 4dbd 398b b2bd ac8c de3d
00000170: 4b69 543c 922e 573d 42a1 89bd 53ef 0dbe
00000180: d939 da3b 5d2e 36bd 20a8 c9bd 77cd b33d
00000190: 2d6c 84bc 0e26 02be 8bea 87bd 623d d1bc
000001a0: f619 283e 4cc1 f23d d1f3 d03d 08c2 63bd
000001b0: 736c 88bc 7a40 07bd b06b cd3c 3eb9 0d3d
000001c0: aee8 813d 9513 2ebc 6ba8 bdbd 8900 0d3e
000001d0: 6138 03bd 00f1 9abe 4d3b c1bc f45e 74be
000001e0: a15d fdbd 791a d1bb 41db c83d 5101 353e
000001f0: abbc c1bc 3ab4 073e fe0b 503c 42d0 a5bd
00000200: 35c2 8dbc e7c5 4ebe 8d94 7e3c bccc eb3d
00000210: 5724 a2bd a9f5 2abe eceb 7cbd 39c9 12bc
00000220: 1ad3 bd3d 2a28 08be 0ffc 01be 7c71 2b3e
00000230: 271c c8bd 2b72 4b3d 95f9 b6bb 6eac a03d
00000240: a9dc 0cbe 2043 cfbd d052 86bd c32b b4bd
00000250: b5b0 ffbd 9dc9 b9bd df03 d8bc 801d bfbd
00000260: 91e2 81bd e7af 4f3e d7fe f43d e218 bfbd
00000270: e508 06be aea6 5ebe dcd6 1cbe b162 e83d
00000280: 158e cabd 40c9 303d ecbd 26bc 6dae f5bd
00000290: b8bc a0bd 3779 95bb 6ab4 b03b 65fb 5bbc
000002a0: 6692 463e 1492 4abe cdde ed3c 0184 7abc
000002b0: 249d 41be 6f6b 21bc 92aa 703d 5969 103e
000002c0: da0f 89be 3032 0ebd d4b7 7cbd 5855 0a3e
000002d0: 4a1f 38be 8f38 e83c 85cc 263e 1639 77bd
000002e0: dcf3 28be 1bab 87bd 6b08 57be 690c 483d
000002f0: 482a 9bbb 6dc1 5cbe 3cf9 9abd f49d 073e
00000300: fe7a 5abd ebbf a73c af44 e9bd 9610 72bd
00000310: 5376 e23d 1662 63bd b9db 15be f747 373d
00000320: 0d36 293e 53d5 08be 6319 6abe e1b1 25be
00000330: 04b9 d63d 0dc0 12bb 5523 59bd 846a e73d
00000340: 42c2 6bbd 280f d33a 6685 01be bbc5 85bd
00000350: 2856 b53d 26ac 1e3e 6dd9 5bbd 848f 2fbc
00000360: 54d1 ab3d 4008 003e 8803 b03d bf4e 3c3c
00000370: 46ba 0d3e fa46 45bd ae04 0bbd 928c 853e
00000380: c279 aa3d 0380 92bd 2ca5 2d3c 244c 8c3c
00000390: 5d79 27bd a377 56be 78e6 143e d71a e03d
000003a0: 45eb ccbd b791 dcbd 0a2d 0c3e 58a0 80bd
000003b0: ca28 03be a2c6 fabd f02b 0cbd e3e0 5c3c
000003c0: 4fc5 023e e368 0c3e eaea c53c c5d8 dfbc
000003d0: 77c3 f1bd 8640 083e 82da 5dbe 7206 163e
000003e0: dc2a 35bd 6b09 153e 1b3f cabd 302c 47bc
000003f0: c5a2 1cbd 463d 443c 4feb f1bd 84da 733b
-0.029227402 -0.13033901 0.01880206 0.060384918 0.0144114215 0.016617162 -0.07683443 0.14343783
0.30216843 -0.02237585 -0.21712716 0.029416969 -0.099566385 -0.078167394 -0.011407248 0.11778649
0.14987502 -0.058464848 -0.070358336 0.08268557 -0.11849142 0.07096986 2.15705e-05 -0.05258274
-0.09767622 0.1924616 0.014100915 -0.0006376532 0.026417933 0.11358426 -0.044761732 -0.06808336
0.104340665 -0.10074062 -0.15605171 0.1472227 0.14024627 -0.22214875 -0.06180029 0.117307395
0.21754847 0.092529476 0.12684338 0.041614864 0.026290072 0.049786832 -0.0064979033 0.14827687
-0.05952222 0.12961458 -0.051198456 0.053160153 0.011945435 -0.27224725 0.045386344 -0.2229241
-0.15625319 0.17772241 -0.022469567 0.1840799 0.05786461 -0.02807149 -0.08197568 -0.10850208
0.02153443 0.0036736908 -0.0024245717 -0.049459353 -0.04343905 -0.07480679 -0.074772306 -0.12178827
0.08447019 -0.022074774 -0.026275123 0.037558407 -0.06105812 0.12870106 0.08255145 0.12880555
0.07289798 -0.12703587 0.15109605 0.054002915 -0.20596434 0.032633927 -0.0065065655 0.08486635
-0.00817816 -0.050056063 -0.08717961 0.10866675 0.012964557 0.052534647 -0.067202106 -0.13860826
0.006659728 -0.04447781 -0.098465204 0.08779424 -0.016164863 -0.12709829 -0.066365324 -0.025541965
0.16416153 0.11853275 0.10202754 -0.055604964 -0.016653275 -0.033020474 0.025075763 0.03460049
0.06343208 -0.010624786 -0.09260639 0.13769735 -0.03203619 -0.30261993 -0.023587847 -0.23864347
-0.12371374 -0.0063813296 0.09807444 0.17676283 -0.023649534 0.13252345 0.012698172 -0.08096363
-0.01730452 -0.20192681 0.015538347 0.11513659 -0.079170875 -0.16695274 -0.06174843 -0.008959108
0.0926878 -0.13296571 -0.12693809 0.1674251 -0.09770995 0.049669426 -0.0055839517 0.07845388
-0.1375605 -0.10120225 -0.06558764 -0.087974094 -0.12484876 -0.09071658 -0.026369033 -0.093317986
-0.06342042 0.20281945 0.11962669 -0.09330918 -0.1308933 -0.21743271 -0.15316337 0.11346949
-0.09890381 0.043160677 -0.010177117 -0.1199616 -0.07848495 -0.004561569 0.005392601 -0.013426636
0.19391784 -0.19782287 0.029036904 -0.015290261 -0.189076 -0.009852274 0.05875642 0.14102687
-0.26769906 -0.03471583 -0.06169875 0.13509119 -0.17980686 0.028347282 0.16288956 -0.060357176
-0.16499275 -0.06624433 -0.20999305 0.04883996 -0.004735265 -0.21558161 -0.07567069 0.13243848
-0.05333995 0.020477256 -0.113900535 -0.05909785 0.11057725 -0.055513464 -0.14634599 0.044746365
0.16524525 -0.13362627 -0.22861247 -0.16181137 0.10484508 -0.0022392303 -0.05301221 0.11299613
-0.057558306 0.0016102539 -0.12648544 -0.06531855 0.088543236 0.15495357 -0.05367415 -0.010715369
0.083895355 0.12503147 0.085944235 0.011493384 0.13840589 -0.04816339 -0.03394001 0.2608381
0.08324005 -0.071533225 0.010598462 0.01712615 -0.040887225 -0.20944075 0.14541042 0.10942619
-0.100058116 -0.107699804 0.13689056 -0.06280583 -0.12808529 -0.122449175 -0.03422159 0.013481352
0.1277058 0.13711886 0.024159867 -0.027325043 -0.1180486 0.13305864 -0.21665385 0.14650896
-0.044230327 0.14554374 -0.09875318 -0.012156531 -0.038241167 0.011977499 -0.1181246 0.0037209103

fc2.bias f4 [64]
00000000: 57ad c13d d7c8 123e ffe7 953d af4a 063e
00000010: b42a 903d 40b4 0fbe 72ed 27bd 10de 813d
00000020: 3e84 a2bd 779a 323d 41ea bdb9 28d3 bfbd
00000030: e981 3dbd 4e26 d9bd e4ba 903d b26e 5bbd
00000040: 35cf 823d 5363 6f3d 303f c33c a2a2 fdbd
00000050: e730 fc3a 09bd a9bd 91b3 b9bd 11dc 453e
00000060: 496c a03d 7df5 243c 9cf9 a63d 30d6 993a
00000070: e481 293c b3ec 48bd a280 d63d 2453 3e3d
00000080: 102d a5bd 07cf dcbd 07c2 083e 9e32 7a3d
00000090: 9179 953c 0fbb 06be a284 c9bd 3be3 323e
000000a0: 38d2 12bd 141a 403e 064a c7bd 161a ea3d
000000b0: 05b7 163b 39d5 1f3e a9aa b0bc 6edf 0bbe
000000c0: 64ea d13d b322 d4bd 0c1f 02be 77e1 b13d
000000d0: a7d6 7e3c c0e2 d63d 5eef b6bc 3b42 c03d
000000e0: 41b6 54bd 683a 56bc a8d9 7ebd 7ffd b3bd
000000f0: 8601 693e 32d3 43bd 158d 343d b212 3a3d
0.0945689 0.14334427 0.0731964 0.13114427 0.07039395 -0.14033604 -0.04099793 0.06341183
-0.079353794 0.04360434 -0.00036223422 -0.09366447 -0.04626647 -0.10603009 0.070668966 -0.053572364
0.06387178 0.058444332 0.023833841 -0.12384535 0.0019240648 -0.08288009 -0.09067453 0.1932223
0.07833154 0.010068295 0.08153078 0.0011736806 0.01034591 -0.04905386 0.104737535 0.046466008
-0.080652356 -0.10781675 0.13355266 0.06108343 0.018246444 -0.13157295 -0.09839751 0.17469494
-0.03584501 0.18759948 -0.09730916 0.11430757 0.0022997272 0.15608682 -0.021565752 -0.1365945
0.102497846 -0.10358181 -0.12707156 0.08685582 0.015554107 0.10492468 -0.022330936 0.093876325
-0.051931623 -0.013075449 -0.062219292 -0.08788585 0.22754487 -0.047808833 0.04407986 0.045427985

out.weight f4 [4, 64]
00000000: 15c5 143e 0423 b53d 08a5 2f3e 9244 303e
00000010: a585 25be a0ad af3d 975c e6bd b1b3 9b3d
00000020: 1440 133d 6115 1b3c e91f bdbd 26a5 713d
00000030: 0062 e53d 9caa 073d abac 933d 8348 173d
00000040: d286 11bd d7a4 e53d 7859 cfbb 80eb 5fbd
00000050: e866 cc3d c9ff 30bd 1c2b d0bc 0932 81bd
00000060: b1e6 eabd d11f a83d 2061 2a3e 0d32 c63c
00000070: 9e8d 0c3d 2ebd 01be 5c18 233e 4c13 5cbe
00000080: 8086 963a f517 00be d2f4 2c3d 225a d93d
00000090: e967 d93d 38a4 9abd 39d8 b1bd 71b8 95bd
000000a0: c278 a13d bc9c 123e 94dc 1ebd 5fce b63d
000000b0: c7c4 f03d cbea cd3d a6ce 6e3d 6a5d 2e3d
000000c0: 76a9 ca3d ea0f a43b 57e9 e9bd e174 09be
000000d0: 6f57 663d 2450 d13c a2be 4d3d e434 6c3d
000000e0: 8717 073d 7776 fbbd 547f c53d 7256 f1bd
000000f0: ca35 0fbc 10de 223c 4ac7 8bbd 3247 ec3d
00000100: c22a da3c 7e24 483c f0f9 9a3d cdb1 a13d
00000110: 74e9 5fbc 86b2 9c3d 1c4b 0abd 24a9 3cbd
00000120: 5011 88bd 99fe bb3b 8977 babc 92ff 183d
00000130: d650 a83d cc04 e0bd 4128 c23c 946e a2be
00000140: b1b5 b8be 3637 c4be 8514 703c 50a4 b1bd
00000150: f0d3 febc 4b37 ee3c 097b 24be 5fd9 e13d
00000160: 6980 b7bc a234 cf3b 3ab9 d63d a65d 21bd
00000170: 1178 e43b 2bc6 a03d ea14 053e acef 903d
00000180: 5c84 95bd 49e4 b8bb a681 22bc c7ec d83d
00000190: cc6b 333e f893 d8bd 6646 8f3d 596b 833d
000001a0: 5669 b63a ec3d 6e3d da62 e73d 2102 b63d
000001b0: a9a5 d13d f260 e43d fac6 813c ae7f aebd
000001c0: 476d ea3d caf9 e5bc 66b0 a43d 2454 3f3d
000001d0: cd96 0bbe 8321 f63d 6c71 4cbc d357 bb3d
000001e0: b010 f9bd 3c4e 623d b022 f5bd 90f5 0abe
000001f0: 8e15 0b3e 1905 a7bd 0e1c f23d 5932 473d
00000200: 8f73 893d ca0d a33d 1155 da3c d77f 8c3c
00000210: 6f3b fe3c 252b b33d 517b 2cbd fc7a ac3b
00000220: 46fa fa3d 2bc7 3d3d 8b37 6fbd 7d6f 013d
00000230: 504d 17bb 8c56 f7bd 14cd 813d dfe2 9cbc
00000240: 85c3 a23d c4c2 393e 1955 c1bc b4d3 9fbd
00000250: cff1 bdbd a0a1 c139 85fa 26bd 8f82 b23d
00000260: 5c55 82bb 6241 d63b d544 acbe 6912 043d
00000270: 70aa 7abd 4620 8cbd 3d45 c43d 33fd 363e
00000280: d856 89bd ff44 d03d 869f 163e 8686 09ba
00000290: 4c2f 043e 0d29 86bd 63db 423d a066 d53d
000002a0: 700b fdbc d376 143e 4809 1fbd a4ad 863c
000002b0: 5d4e a8be dda9 f43d cb3c aebb 9a0d 9b3d
000002c0: 6399 ff3c 509e 73be 2174 adbd 5d94 433c
000002d0: 744e 1d3d 9ff6 a43d bf45 0a3d 0603 a7be
000002e0: 69b5 24bc 5991 cebd b664 d43d e19c 69bc
000002f0: 1956 d23d b26c 96bd a906 da3d 3bc7 983d
00000300: 4e82 5bbd c9bc 8fbc 6b8a 77be db50 293c
00000310: b89a 0b3e 6fd9 5abd e0ae cebc d003 ca3d
00000320: 103e f73d 7edf fdbb a473 72bd 227c 9d3d
00000330: 1ab5 083d 6056 3a3d 09c7 293e 276f 673d
00000340: 56ad 623d a5a1 5fbe 6c20 eb3d d8f6 983c
00000350: f5a5 c2bb 7401 4dbd 222d b03b a6c2 843d
00000360: 9960 ff3d c1d5 d9bd ea55 a23d 6790 49bd
00000370: 02f9 ec3b db19 353e 71ff da3d f08a 953d
00000380: 409d 103d f134 663d ec9d c9bc f2c6 0c3e
00000390: bc7e 803c 00c2 04bb be66 08bd bb8e 6d3d
000003a0: 7ac8 0abc 2722 473d 961b 2dbc 2c26 1f3e
000003b0: db4b 033e 2dc2 153e 1140 20be 71b7 dabc
000003c0: 050a cebb 3b7a 5dbd 4c93 bbbc e9d5 103e
000003d0: ebcb 26bd b540 16bf 1078 ed3d cc25 a43d
000003e0: ea20 8abd 2f38 f4bc 8408 6f3d de57 0abc
000003f0: e8eb 1c3e 24df c03d 3d69 0dbe 849d 9d3c
0.14528306 0.08844569 0.17152798 0.17213657 -0.16164263 0.08578038 -0.11248129 0.07602633
0.03594978 0.009465546 -0.09234602 0.05899539 0.11200333 0.03312169 0.07210668 0.036934387
-0.035528965 0.11213081 -0.006327804 -0.05466795 0.09980565 -0.043212686 -0.025411181 -0.063083716
-0.11469782 0.082091935 0.16638613 0.024193788 0.034314744 -0.12669823 0.15927261 -0.21491736
0.0011484176 -0.12509139 0.042225666 0.106128946 0.106155224 -0.075508535 -0.08683819 -0.0731057
0.07884361 0.14317602 -0.03878458 0.08926081 0.11756282 0.10054549 0.058302544 0.042569555
0.09895603 0.00500678 -0.11421459 -0.13423492 0.056235727 0.02555091 0.05023063 0.057667628
0.03298142 -0.12278455 0.096434265 -0.11784066 -0.008740852 0.009940639 -0.06825121 0.11537017
0.026631717 0.012215732 0.07567203 0.07895241 -0.013666499 0.07651238 -0.033763036 -0.046059743
-0.06643927 0.0057371375 -0.022762077 0.037353106 0.08218543 -0.10938415 0.023700835 -0.3172499
-0.3607612 -0.38323373 0.01465333 -0.08673918 -0.031106919 0.0290791 -0.16062559 0.11027788
-0.022400098 0.006323413 0.10484548 -0.03939595 0.006972321 0.078502975 0.1299626 0.07076964
-0.07300636 -0.005642448 -0.009918606 0.10592037 0.1752159 -0.10575098 0.06995849 0.06416959
0.0013916891 0.058164522 0.11298151 0.08887125 0.10236675 0.11151303 0.01584195 -0.08520447
0.11446624 -0.02807321 0.08041458 0.046711102 -0.13631745 0.120181106 -0.012478214 0.091476105
-0.12161386 0.05525039 -0.11969507 -0.13570237 0.13582441 -0.08155269 0.11821757 0.048632
0.06711494 0.079616144 0.026651891 0.017150803 0.0310342 0.087484635 -0.04210979 0.0052636843
0.12254767 0.04633252 -0.05840258 0.031600464 -0.0023086853 -0.120770544 0.06337944 -0.01915115
0.07947449 0.18140703 -0.023600148 -0.07804051 -0.09274637 0.0003693225 -0.040766258 0.08716308
-0.003977461 0.006538556 -0.33646265 0.03224412 -0.061197698 -0.06842093 0.09583519 0.17870025
-0.06706017 0.1016941 0.14709291 -0.0005246181 0.12908667 -0.065507986 0.047572505 0.10419965
-0.030889243 0.14498453 -0.03882721 0.01644022 -0.32872286 0.11946461 -0.0053173057 0.07570954
0.03120107 -0.2379086 -0.084694155 0.011937228 0.038404897 0.08054852 0.03375792 -0.32619494
-0.010053017 -0.100863166 0.103707716 -0.014258594 0.10270328 -0.07344951 0.106458016 0.07459875
-0.053591065 -0.017546074 -0.24173896 0.010334219 0.1363324 -0.053430017 -0.025229871 0.098640084
0.12072384 -0.0077475896 -0.059192315 0.07689692 0.033375837 0.04549253 0.16579832 0.056502488
0.055341087 -0.21839006 0.11480793 0.018672392 -0.005940194 -0.050050214 0.005376474 0.06482439
0.124695964 -0.106364734 0.07926543 -0.04920998 0.0072318325 0.17685644 0.10693253 0.07301891
0.035306215 0.056202833 -0.024611436 0.13747767 0.015685432 -0.0020257235 -0.033301108 0.057997447
-0.008470649 0.048616555 -0.010565659 0.15541905 0.12821905 0.14624853 -0.1564944 -0.0266988
-0.0062878155 -0.054071646 -0.022897385 0.141441 -0.040721815 -0.58692485 0.11595166 0.08015022
-0.06744559 -0.029811947 0.05835773 -0.008443801 0.15324366 0.09417561 -0.13809676 0.019240148

out.bias f4 [4]
00000000: 538e c33d a84a b73d 7d46 793d eefb fe3a
0.095486306 0.089497864 0.06085824 0.0019453743
